checkpoints/doom-saved.pth (torch, 77291 bytes, 27 tensors)

weight f4 [8, 1, 3, 3]
000000 ba ca 8e bf d3 7a a5 3f 67 0a 3a c0 0f 3b ae bf
       -1.1155617 1.2928108 -2.906885 -1.3611773
000010 57 e8 b8 40 0e 0b 3e 40 b2 1e 95 bf fe 86 1d 40
       5.778362 2.9694247 -1.1649992 2.4613643
000020 5f 87 3f c0 c2 7b 3b 3e a8 40 3f c0 fc fc b7 3f
       -2.9926374 0.18308929 -2.9883213 1.437408
000030 22 04 0a c1 8f 3d 3e be 4a e8 b6 be 08 be 4e c0
       -8.626009 -0.1857817 -0.35724097 -3.2303486
000040 23 7a 6c be 60 7e 30 40 d4 39 55 40 53 e3 6c 3f
       -0.23093466 2.7577133 3.3316545 0.9253437
000050 25 0e 16 c0 7c 2d 9b be f6 81 1a c0 d7 9e 98 c0
       -2.3446133 -0.3030814 -2.4141822 -4.7693896
000060 e2 f7 8e 3e 59 7a 28 40 40 76 c3 3f ec 22 98 3f
       0.27923495 2.6324675 1.5270462 1.1885657
000070 d3 81 46 40 88 61 ce be 6e ab 80 3f 98 31 ff 3f
       3.1016738 -0.40308785 1.0052316 1.993701
000080 37 48 3f 3f 5e 74 bb c0 a9 ca cf bf e7 b7 21 c0
       0.74719566 -5.857955 -1.6233722 -2.5268495
000090 14 16 02 40 c5 5d 29 c0 b8 8b ec 3f ab bf 81 3f
       2.0325975 -2.6463482 1.8480139 1.0136617
0000a0 38 71 9b c0 d2 46 be 3f 2f 55 29 c0 1d 50 72 c0
       -4.8575706 1.4865363 -2.6458242 -3.7861397
0000b0 63 03 25 c0 ac 2c ff 3f 08 b8 51 c0 d6 d5 6f c0
       -2.5783317 1.9935508 -3.2768574 -3.7474265
0000c0 ce 59 09 bd 09 b5 3c 3f e2 17 cc 3f b6 67 f7 bf
       -0.03353291 0.7371374 1.5944788 -1.9328525
0000d0 56 29 49 3e 0e 57 9e 40 46 3f 0f 40 a1 08 49 bf
       0.19644675 4.948127 2.238237 -0.7852879
0000e0 a4 d5 b9 bf 24 46 85 40 ab b9 b5 3d 0d 17 dd 3f
       -1.4518323 4.164812 0.08873304 1.727266
0000f0 e5 0e 91 c0 91 83 ac be 58 7e f9 3f 31 77 6d 3f
       -4.533068 -0.33694127 1.9491682 0.92759997
000100 35 f0 b0 3f 6e c9 92 40 12 f6 70 40 fb 00 2c 40
       1.3823305 4.5870886 3.765019 2.6875598
000110 5c fe 31 40 54 35 73 bf 90 f1 c4 bf 04 0d 1a 3f
       2.7811499 -0.9500325 -1.5386219 0.6017611

weight f4 [8]
000000 54 51 c2 3f 77 1f 8f 40 3b 82 2a 40 5e 2a 62 40
       1.5181069 4.472591 2.6641986 3.533836
000010 ff 5d a2 40 a6 2f 2c 40 f0 94 15 40 84 2c 26 40
       5.073974 2.6904082 2.3372154 2.596467

bias f4 [8]
000000 f0 17 59 bf 71 71 dd bf 9d ba 7f bf 9e 72 f1 bf
       -0.8480215 -1.7300245 -0.99894124 -1.8863103
000010 bf 86 08 c0 4e 92 da bf a6 69 d8 bf b6 5d 4e be
       -2.1332242 -1.7075899 -1.6907241 -0.20152935

running_mean f4 [8]
000000 92 d6 76 3f ed f7 67 c0 84 66 bf be 14 0f 55 bf
       0.9642116 -3.6245072 -0.373829 -0.8322613
000010 d4 f0 55 c0 6e 8d 44 3e 92 47 7b 3f d3 aa 93 40
       -3.342824 0.19194576 0.9815608 4.6146026

running_var f4 [8]
000000 de d2 b6 3e 1c 7f fa 3f 1f 89 92 3e d4 1a 1b 3f
       0.35707754 1.9570041 0.2862024 0.6058781
000010 b8 1b c0 3f 83 e8 a4 3e de ad 8a 3e e4 cc 31 40
       1.5008459 0.32208642 0.27085775 2.7781305

weight f4 [8, 8, 3, 3]
000000 44 bf b0 bf c4 7e 02 40 a3 04 0c bf 78 0a 70 c0
       -1.380837 2.0389872 -0.54694575 -3.750639
000010 68 50 08 40 6e fe 23 c0 bd e7 12 3f 61 65 28 3f
       2.1299076 -2.5624042 0.57384855 0.6577969
000020 23 17 a0 3f 67 26 4c c0 d0 51 f1 3f f6 ce 50 be
       1.2507061 -3.189844 1.8853092 -0.2039145
000030 f9 10 34 be 31 8e 94 40 1f 5f 61 bf da ac 8e 3f
       -0.175846 4.6423573 -0.8803577 1.11465
000040 85 f4 9a bf f0 cf 4a 3f dd e3 82 3f 88 74 70 c0
       -1.2105871 0.7922354 1.0225788 -3.7571125
000050 d8 e6 c0 3f af 7c cd 3e e0 41 5e c0 1c 43 11 bf
       1.5070448 0.4013419 -3.4727707 -0.56743026
000060 a0 aa 47 bf 3f ee 06 40 f7 56 2d 40 fe 8b 62 3f
       -0.7799473 2.1082914 2.708433 0.8849486
000070 88 75 f3 3f 77 1c 2e 40 c9 c2 81 3f 1b f8 75 3e
       1.9020243 2.7204874 1.0137569 0.24020426
000080 8b 84 37 c0 ad fa ea bf f4 8c 78 c0 59 44 1a c0
       -2.8674648 -1.835775 -3.883603 -2.4104216
000090 24 be cd bf fe e4 e9 3f e6 71 19 c0 ff 94 81 3e
       -1.6073651 1.8273008 -2.3975768 0.25308987
0000a0 4e 43 20 40 7a f4 62 3f 01 d7 a9 3f 86 a5 6d 40
       2.504108 0.8865429 1.3268739 3.7132277
0000b0 fc 22 6c 40 e0 a3 a7 bf 6f a8 a5 40 2d 32 ad 40
       3.6896353 -1.3096886 5.1768107 5.412375
0000c0 8e 6c 7d c0 d0 c1 18 40 4a 70 d9 3c bd b3 fa bf
       -3.9597507 2.3868294 0.026542801 -1.9586102
0000d0 c2 d8 3e c0 75 94 41 40 06 ba 02 40 00 a9 bb 3f
       -2.9819798 3.024686 2.042604 1.466095
0000e0 a8 95 9d c0 ea e5 17 40 1a 8b 9a c0 ae a6 ad 40
       -4.9245186 2.3734078 -4.82948 5.4265966
0000f0 bb 47 88 3f f8 75 40 bf 74 1f 5a 40 4f 15 9a be
       1.064689 -0.75180006 3.4081697 -0.30094382
000100 85 01 e2 3f d8 70 26 c0 13 a8 d5 be 06 9a 1a 40
       1.7656714 -2.6006374 -0.41729793 2.4156508
000110 9f 5b 6a 40 8c 81 f4 be 67 1b 2b 3f cc e9 54 3f
       3.661842 -0.47755086 0.6683869 0.83169246
000120 75 79 4b 3f 9f b4 f1 3d 06 9a bb 3f 99 21 b0 bb
       0.79482204 0.11802029 1.4656379 -0.005375099
000130 50 8c 9f bf ea 76 9f 40 7b 66 3a bf 61 31 a8 c0
       -1.2464695 4.983266 -0.7281262 -5.2560277
000140 fd 5f 12 c0 6d 7a c1 bf ed 75 ee 3e 59 7e c3 3c
       -2.2871087 -1.5115486 0.46574345 0.023863958
000150 ed 2b 10 bf 55 e0 c0 be bf dd 67 3f cc 96 12 3f
       -0.56317025 -0.37671152 0.9057273 0.5726135
000160 3d 7c 38 c0 c3 ef be be 58 33 a1 3e d1 e8 ad 3f
       -2.882583 -0.372923 0.31484485 1.3586675
000170 00 0f 87 c0 91 24 3f 40 13 51 ad 3f 17 ff 45 be
       -4.220581 2.9866068 1.3540367 -0.1933559
000180 e1 04 10 bf 5b 09 80 bf a6 80 1e 40 1c 9d 4c c0
       -0.56257445 -1.0002855 2.476602 -3.1970892
000190 a3 1c 3f c0 c1 93 6f 3f 2b 89 ad 3f 18 49 65 c0
       -2.9861228 0.9358483 1.3557485 -3.5825863
0001a0 23 bf 0f c0 55 8f ac bf cf de 16 41 95 e2 c9 bf
       -2.246041 -1.3481241 9.429397 -1.5772272
0001b0 e1 36 2c c0 e2 cd 47 c0 86 9f c0 3f bb 84 bc bf
       -2.6908495 -3.121941 1.5048683 -1.4728006
0001c0 7c 9f 9d 3f 22 f6 b0 3d 07 ee 63 c0 57 bb 99 3f
       1.2314296 0.08640696 -3.561403 1.2010297
0001d0 88 a7 76 c0 47 ff 04 bf 20 a6 0c 40 ee c3 dd bf
       -3.8539753 -0.5195202 2.1976395 -1.7325418
0001e0 cc 2f 9a bd 4e 0b b9 bc 89 fe 48 c0 8f 19 36 bf
       -0.07528648 -0.022588398 -3.1405356 -0.7113275
0001f0 eb 9f b1 bf ec 28 9d 3f 0e 6e 0d c0 dc f5 84 bf
       -1.3876928 1.2278113 -2.2098422 -1.038753
000200 96 e1 a9 bf ae c6 ff 3f 6a fe 15 be b0 98 5e be
       -1.3271968 1.9982507 -0.14647833 -0.21737933
000210 3d 1b 85 3f 0d b5 08 40 3f 82 a4 bf 3e 21 2d c0
       1.0398937 2.1360505 -1.2852248 -2.705154
000220 5c e3 8a c0 6a 2a a6 c0 40 1e ea 3f 92 a1 81 c0
       -4.340254 -5.1926775 1.8290482 -4.050973
000230 6a 8d 0d c0 39 98 0f c0 a5 cb c1 c0 58 34 dc c0
       -2.2117562 -2.243666 -6.056109 -6.8813896
000240 77 c3 47 c0 ae f2 bb 3d 32 14 19 40 76 d9 05 40
       -3.1213052 0.09177147 2.3918576 2.0913978
000250 c2 2e 57 bf 31 f4 da bf fd e7 49 bc c4 49 5c c0
       -0.8405572 -1.7105771 -0.012323377 -3.4420023
000260 4b f8 6b bc ee f9 4f 3f 64 b7 82 c0 cb 02 cf be
       -0.014402459 0.8124074 -4.0848866 -0.40431818
000270 86 81 c5 3e 79 6d 95 bf 49 91 14 40 2d cd 7c c0
       0.3857538 -1.1674033 2.3213675 -3.950023
000280 54 c8 ff 3f 66 e5 09 c0 ff 18 fd bd 22 57 9f bf
       1.998301 -2.1546264 -0.12358283 -1.2448466
000290 3f e7 b1 be 0a 30 14 40 e4 95 65 3c 2d c1 2e 40
       -0.3474674 2.315432 0.0140127875 2.7305405
0002a0 61 8e e8 be 33 db 62 c0 c3 f1 21 c0 a4 02 cd bf
       -0.45421126 -3.5446289 -2.530381 -1.6016431
0002b0 36 8a 16 40 9d 1c 22 3f 01 47 11 40 47 10 08 c0
       2.3521857 0.6332491 2.2699587 -2.1259935
0002c0 82 d6 72 c0 a5 c8 1c 40 3c e2 7b 40 d9 9c 56 40
       -3.7943425 2.4497464 3.9356833 3.3533232
0002d0 ab c7 83 c0 a1 1e 2d 40 e7 b9 92 40 8a fa 84 3e
       -4.1181235 2.7049944 4.585193 0.25972396
0002e0 6a 76 96 c0 e5 d1 80 bf 97 f8 79 bd 61 3e ae 40
       -4.701955 -1.0064055 -0.06102809 5.4451146
0002f0 76 92 47 40 e7 17 a4 3e ff 5a 3e 3f 4e 1b d7 3f
       3.1183143 0.32049486 0.743576 1.6805208
000300 a4 3b 42 c0 a3 21 80 40 84 5c b2 bf 3a 0a 6f c0
       -3.0348902 4.004106 -1.3934484 -3.7349992
000310 40 46 ce 3e 17 12 95 bf 40 e8 5d bf 19 3f a9 3f
       0.40287971 -1.1646146 -0.8668251 1.3222381
000320 f0 4e 23 40 e6 a6 f3 bf 39 c7 76 c0 7d 65 5a c0
       2.551693 -1.9035308 -3.8559096 -3.4124444
000330 2c 73 e1 bf 97 95 9f 40 a1 d5 0e 40 fa 60 66 c0
       -1.7613273 4.9870105 2.2317889 -3.599669
000340 38 96 0e c0 67 eb 0e c0 59 b5 b6 3e bf 72 12 bf
       -2.2279186 -2.2331178 0.35685232 -0.5720634
000350 13 24 9a 3f e5 6f c7 bf 42 9d 18 40 e9 80 88 bd
       1.2042259 -1.5581023 2.3845983 -0.06665213
000360 84 0b 5d 40 4d d4 ee 3f 3e 50 9c bf c1 bf 0e 3f
       3.4538279 1.8658539 -1.2211988 0.55761343
000370 9f 29 c5 bf 78 46 57 c0 64 e5 1b bf 97 1f 24 40
       -1.5403327 -3.363676 -0.608969 2.564428
000380 90 4e 54 be dc 36 ec bf 2f 7f a6 bf 01 25 4b c0
       -0.20733094 -1.8454242 -1.3007563 -3.1741335
000390 98 a0 78 c0 cc 6a de be 86 b4 80 bf ef a5 86 40
       -3.8848019 -0.43440855 -1.0055091 4.2077556
0003a0 f3 4a 2a 40 b9 b5 97 3f f3 3b a1 3e ad d5 30 c0
       2.6608245 1.1852332 0.3149105 -2.7630417
0003b0 bd 25 4e bf cc 2c 9c bf f7 de 88 c0 82 80 d2 bf
       -0.80526334 -1.2201171 -4.2772174 -1.6445467
0003c0 8e 9a bf 40 ef c9 7c be 21 c4 80 3f 14 fa c2 c0
       5.9876165 -0.24686407 1.0059854 -6.093027
0003d0 d2 91 cd be 00 54 e9 bf 65 f0 b9 3f 3a 02 5f 40
       -0.40150315 -1.822876 1.4526488 3.484511
0003e0 88 aa 83 40 f5 ac 37 3f e4 0b e7 3f 74 67 94 40
       4.114567 0.71748286 1.8050504 4.6376286
0003f0 4a 90 af bf 2e 91 dc c0 0a b5 9b bf 05 e1 da be
       -1.3715909 -6.892722 -1.2164624 -0.427498

weight f4 [8]
000000 56 f8 21 40 c7 50 28 40 fc b0 82 40 d3 a9 81 40
       2.5307822 2.6299303 4.0841045 4.0519805
000010 6b 27 20 40 74 09 82 40 df ee 3b 40 a4 3d 67 40
       2.502406 4.063654 2.9364545 3.6131372

bias f4 [8]
000000 78 da 95 bf a5 71 99 3f c7 94 a2 bf cb 49 9b 3d
       -1.1707296 1.1987807 -1.2701653 0.07582434
000010 f4 ec c3 be c3 b6 be bf 03 e7 92 be 3e f1 b0 bf
       -0.38266718 -1.4899524 -0.28691873 -1.3823621

running_mean f4 [8]
000000 3b e3 93 41 bc 7d 55 c2 6a 2a b0 c0 cc 26 f2 3f
       18.485952 -53.372787 -5.5051775 1.891809
000010 97 4b 14 c2 69 5f 85 c0 67 48 07 40 86 f4 cb c0
       -37.07382 -4.1678967 2.113794 -6.373599

running_var f4 [8]
000000 e9 d3 4b 44 e0 fc c0 44 bc 81 ae 44 14 ff 2a 45
       815.3111 1543.9023 1396.0542 2735.9424
000010 e8 45 4e 44 eb e8 b8 44 e4 63 4e 44 52 0a 97 44
       825.0923 1479.2787 825.5608 1208.3225

weight f4 [8, 8, 3, 3]
000000 43 30 98 bf 6a cf b3 bf f6 c7 0c 3f dc 9d 32 3f
       -1.1889728 -1.4047673 0.54992616 0.69772124
000010 0f 5a 04 bf c2 4a 3b bf be 17 4a 3f a9 85 0a 3e
       -0.5169992 -0.73160946 0.7894248 0.1352755
000020 16 3f a0 c0 b3 2d 9f 40 97 67 ab 40 24 1b 58 3e
       -5.007701 4.9743285 5.3563952 0.21104103
000030 6f de 0c 40 57 45 47 40 6e d0 c3 40 bd 88 27 c0
       2.2010763 3.1136072 6.119193 -2.6177208
000040 f9 8e 93 bf a7 75 2e 3e 08 cd ff 3f 55 3f 7f 40
       -1.1528007 0.17037068 1.9984446 3.9882405
000050 93 87 90 3f 28 40 f1 3e 2c 19 a1 3e 60 76 ac 3f
       1.1291374 0.4711926 0.31464517 1.3473625
000060 b5 49 42 40 fb bc 4c 3f 21 50 3e 3f 3b b0 a4 c0
       3.0357487 0.7997586 0.74341017 -5.1465125
000070 11 81 bc bf c0 60 7e be af 82 87 be 29 76 3d c0
       -1.4726888 -0.24841595 -0.2646689 -2.960337
000080 51 5a 3b c0 67 38 4b be e5 10 c5 c0 b8 0d 2b c0
       -2.9273875 -0.19845735 -6.1583123 -2.6727123
000090 56 f5 f5 3f 05 af 86 3c 02 14 0f bd 0d 92 48 3e
       1.9215496 0.016440878 -0.03493119 0.19586964
0000a0 a3 00 46 bf 55 57 98 3f d5 42 d9 3f 68 ce f7 3f
       -0.7734472 1.1901652 1.697352 1.9359865
0000b0 e9 3b 2d bf c6 c7 a5 bf 87 37 51 c0 f2 a4 81 3e
       -0.6766954 -1.2951591 -3.2690141 0.25321156
0000c0 2f 26 b5 3f 6c 63 8b bf df f7 f8 bf be 95 ba 3f
       1.4152278 -1.0889716 -1.9450644 1.4576948
0000d0 47 9c d1 c0 cd 4c 1c bf c5 c4 dc 3f 8e b4 f6 3e
       -6.550327 -0.6105469 1.7247549 0.48184627
0000e0 f4 64 ff 3f d9 d5 9b 3f df 1a 48 40 0e 22 c4 40
       1.9952683 1.2174636 3.12664 6.129157
0000f0 aa 12 64 40 f8 10 de bd 84 31 9a 3f 3e 72 95 3f
       3.5636392 -0.1084308 1.2046361 1.1675489
000100 1a e7 7d 40 89 13 0b 40 94 4e 34 c0 65 23 b8 be
       3.9672303 2.1730673 -2.817296 -0.35964504
000110 52 9b fd 3f 28 99 c9 bf c8 06 92 3f 56 a4 c4 bf
       1.9813025 -1.5749865 1.140832 -1.5362651
000120 5e 39 86 3f 6c b8 39 3f 5e 3f 5f c0 d0 57 f3 bf
       1.0486257 0.7254703 -3.4882426 -1.9011173
000130 c3 88 53 bf 84 8b f1 c0 b5 5c 1a c0 1d a8 20 3f
       -0.82630557 -7.5482807 -2.4119084 0.6275652
000140 22 8b 1c c0 9c 0c dc bf 98 c8 a2 bf b3 4a 9a 40
       -2.445992 -1.7191348 -1.2717466 4.8216186
000150 d2 92 ab 3f b1 a0 a2 3f 72 53 0c 40 8f 99 84 3f
       1.3404181 1.2705289 2.192593 1.0359362
000160 42 4c 18 40 09 9f a0 bf 67 27 48 40 00 eb 3f c0
       2.3796544 -1.2548534 3.127405 -2.9987183
000170 08 6f ac be 29 ee 2b 40 02 c6 e1 3f d8 45 8e 3f
       -0.3367846 2.6864111 1.7638552 1.1115065
000180 5c be b2 be a0 02 30 c0 d3 03 41 c0 1f 59 0e 40
       -0.34910858 -2.7501602 -3.0158584 2.2241895
000190 f3 9a 13 bf bb 40 0e be d4 a5 b6 3f 57 8c 0e be
       -0.5765831 -0.1389188 1.4269357 -0.13920723
0001a0 a1 cb f5 c0 eb f0 31 be 7f 37 84 c0 64 88 1c 40
       -7.681107 -0.17377059 -4.1317744 2.4458246
0001b0 8d 9c 92 3e 85 ac cc bf fc a6 43 40 cb 8f 9e c0
       0.28635064 -1.5990149 3.057067 -4.955053
0001c0 69 22 91 bf c8 5e 17 c0 b1 a9 68 bf 4c 03 ab 3f
       -1.1338626 -2.36516 -0.9088393 1.3360381
0001d0 fd 9a 8d bf 70 6b 19 40 a1 58 e0 bf 0d c7 97 3f
       -1.1062924 2.3971825 -1.7527047 1.185762
0001e0 da da 9b c0 e6 d1 5d 3f b0 35 67 c0 cf c9 11 40
       -4.8704653 0.86648405 -3.6126518 2.2779424
0001f0 32 0f 5e c0 a1 fe 33 c0 9a 4f d3 c0 f6 4f 98 be
       -3.4696774 -2.8124163 -6.603467 -0.29748505
000200 e1 b8 f9 3e 9e 93 30 bf 7e 07 44 be 9f 56 d4 bf
       0.48773864 -0.68975246 -0.19143483 -1.6588935
000210 83 cc ba 3f 2d 04 3e c0 e0 56 9d bf 6d d1 e5 3f
       1.4593662 -2.9690049 -1.2292137 1.7954537
000220 d0 ca 62 be ea b8 f4 3f 5e ed a2 3e de 1c aa bf
       -0.2214768 1.9118931 0.31821722 -1.329006
000230 6d 95 41 c0 ed 13 98 bf 59 55 87 40 e3 1b 45 3f
       -3.0247452 -1.1881081 4.2291684 0.76995677
000240 47 b0 89 bf 1f 10 71 c0 e6 6b 52 40 41 31 6a bf
       -1.075692 -3.766609 3.2878356 -0.91481405
000250 3a 35 21 3f d6 77 09 3f 10 03 eb 3f 4c 60 c3 40
       0.6297184 0.5369848 1.836031 6.105505
000260 f1 a4 32 bb 61 59 8d 40 0d 6a 85 3f f4 ab 55 c0
       -0.0027258957 4.4171605 1.0422989 -3.3386202
000270 b0 a8 af be f8 47 ec bf e3 7c 86 3e da c5 4e 40
       -0.34308386 -1.8459463 0.26267156 3.230826
000280 3e cd 73 c0 99 f4 85 bf ec 6f a0 bf 0d c9 99 3f
       -3.809402 -1.046527 -1.2534156 1.2014481
000290 7c e7 c2 bf a0 93 e3 3f 62 dd bd 3e 0a 94 f6 3f
       -1.5226893 1.7779427 0.37082964 1.9263928
0002a0 eb aa 86 3f f4 ed 12 c0 5e 84 23 c0 3a 3c 0b c0
       1.052091 -2.2957735 -2.554954 -2.175551
0002b0 8a 79 22 c0 36 27 22 c0 51 2c 7d c0 57 54 d0 c0
       -2.5386682 -2.5336432 -3.9558299 -6.5102954
0002c0 f0 bd 05 40 0f 39 9f bf 8d ad b9 be 5e 93 17 3f
       2.0897179 -1.2439288 -0.3626522 0.5920924
0002d0 c1 65 1a c0 0f 98 4c c0 86 db 3e 40 d7 28 c8 bf
       -2.4124606 -3.196781 2.9821486 -1.5637463
0002e0 e6 75 8d be 9e 9b aa 3f 9b 8c ef bf 8b 89 be 3f
       -0.27629012 1.3328741 -1.8714784 1.4885725
0002f0 df 20 ea 3d 09 01 30 c0 a5 ae 80 be f1 64 23 c0
       0.11432051 -2.7500632 -0.25133243 -2.553036
000300 f7 e7 92 3f 8c 1f 07 c1 4d 55 65 c0 8f 77 2e bf
       1.147704 -8.445202 -3.5833313 -0.6815118
000310 23 4b 9f 3f 5d e4 7a bf e1 a5 94 3f 5f e6 8f bc
       1.2444805 -0.98004705 1.1613122 -0.017565904
000320 22 7c d7 be 16 04 ae bf de 4f 14 3e 39 bc 92 3f
       -0.42086893 -1.3594997 0.14483592 1.1463691
000330 78 2a 2b 40 3f 34 19 40 63 34 8c 40 25 52 0c be
       2.674467 2.3938138 4.381395 -0.1370321
000340 41 82 d1 bf 7f 3f 28 c0 0a 4d 76 c0 2b 0c 81 40
       -1.6367875 -2.6288755 -3.848452 4.0327353
000350 ab 9b 4e 40 ce cf 2b bf 1a 1e 06 40 4d f7 4f 40
       3.2282512 -0.6711396 2.0955873 3.249469
000360 ab 1c 5c 3e 2a 6a 63 c0 af 18 06 40 bf 98 a3 3e
       0.21495311 -3.5533547 2.0952566 0.31952474
000370 80 a1 df 3e bb 09 fe 3f 78 76 60 40 e9 db 3f 40
       0.43677902 1.984672 3.5072308 2.9977973
000380 9f 55 9e c0 8a 30 05 bf bf 92 1f 3f 6f 75 4f bf
       -4.947952 -0.5202719 0.6233329 -0.81038564
000390 a6 56 77 c0 79 42 06 c0 8a 0a 23 be 36 bd 83 3f
       -3.8646636 -2.0978072 -0.15921989 1.0292118
0003a0 08 f3 5a 40 68 8c d9 bf 1b f4 79 3f c1 d0 37 bf
       3.4210835 -1.6995974 0.976381 -0.7180291
0003b0 29 08 d2 3e 1c 8c 94 3e 0d c0 0a c0 5a f1 bd c0
       0.4102185 0.29013145 -2.1679718 -5.935712
0003c0 a2 f2 d8 40 53 3c 24 40 ff 5a 14 c0 ba 73 0f c0
       6.7796183 2.566182 -2.318054 -2.2414384
0003d0 de c4 24 bf 4c c7 40 c0 28 df 8a 40 61 c7 74 40
       -0.64362895 -3.012164 4.3397408 3.8246691
0003e0 d4 f9 c8 3f f5 a7 2d bf 42 ac 25 bf ec 03 71 bf
       1.5701241 -0.6783441 -0.6471597 -0.9414661
0003f0 5f 3c db bf a2 3c 18 c0 34 68 8f 3f 62 5d 9a 3f
       -1.7127799 -2.3787007 1.1203675 1.2059748

weight f4 [8]
000000 91 6b 81 40 e0 0d 27 40 5b 81 70 40 57 f8 63 40
       4.0443807 2.6102219 3.7578952 3.5620325
000010 be 94 27 40 6e 42 53 40 07 a4 0c 40 f9 16 4c 40
       2.6184535 3.3009295 2.1975114 3.1889021

bias f4 [8]
000000 ef c6 38 c0 73 8e 49 bf 27 13 68 bf 9f c2 13 c0
       -2.887142 -0.78732985 -0.90654224 -2.3087537
000010 fe 6e cd 3e f3 4b 9d bf b5 a9 4d bf df f8 85 bf
       0.40123743 -1.2288803 -0.8033708 -1.0466574

running_mean f4 [8]
000000 63 ff d3 c0 46 0c 05 c2 73 77 0a c2 e7 0c 20 41
       -6.624925 -33.261986 -34.61665 10.00315
000010 a4 08 b6 bd c2 99 85 3f 4a 46 77 c0 22 74 ce c1
       -0.08888367 1.0437548 -3.863665 -25.806705

running_var f4 [8]
000000 8a 74 0f 45 a7 19 b8 44 e8 0f f6 44 5e 76 b0 44
       2295.2837 1472.8016 1968.4971 1411.699
000010 09 d7 a4 44 35 81 cd 44 2d 4f 5d 44 b7 0b cf 44
       1318.7198 1644.0377 885.2371 1656.3661

weight f4 [16, 8, 3, 3]
000000 09 b5 2c 40 f8 f7 9e bf ca 75 15 c0 cb dd 78 c0
       2.6985495 -1.2419424 -2.3353143 -3.8885372
000010 0c 2c a6 c0 7b e6 15 bf e6 29 06 bf 98 48 37 be
       -5.192877 -0.5855481 -0.5240768 -0.17898786
000020 bb 32 1d 3e 49 dc 1a 40 45 d2 4c 3f 1f d1 92 c0
       0.15351383 2.4196951 0.80008346 -4.5880275
000030 9e d2 d8 3e f5 f2 b4 3f 6f aa 71 c0 82 0f a1 40
       0.42348188 1.4136645 -3.7760274 5.033143
000040 c1 b5 6e 3f 8a ed b4 c0 95 cd 4f 3e 98 19 e2 3f
       0.93246084 -5.6539965 0.20293267 1.766406
000050 94 e3 00 40 9b 36 3f 40 8f 50 fe bf e0 3d 39 c0
       2.0138903 2.9877079 -1.9868335 -2.8944016
000060 a3 08 56 c0 b2 eb 39 c0 43 bb c5 bf c8 c2 41 3f
       -3.3442771 -2.9050107 -1.5447773 0.7568784
000070 b0 93 3c 40 36 7e 40 c0 28 fb ba 3e 66 8c 7b 40
       2.9465141 -3.0077033 0.36519742 3.9304442
000080 e7 35 88 bf f4 04 27 40 da 4f 82 c0 48 c9 58 3f
       -1.064145 2.6096773 -4.0722475 0.8468213
000090 d1 17 76 40 81 1d 0c c0 f3 6b 63 bf 1e 6b e3 3f
       3.8452036 -2.1893008 -0.8883659 1.7767065
0000a0 4a 83 5c 3e 75 f7 b0 be 8d a1 0e bf ac 5d 01 40
       0.21534458 -0.34563795 -0.55715257 2.0213423
0000b0 64 83 ba 3f 0f 66 19 c0 0e 8b 27 40 02 4a 1f 40
       1.4571347 -2.3968542 2.6178622 2.488892
0000c0 6a 5a 05 c0 1b 84 fc c0 bd 3d 9e c0 a5 76 81 bf
       -2.0836434 -7.891126 -4.9450364 -1.0114332
0000d0 5c a5 6a bf 9c db 20 40 20 e2 45 40 76 8d 31 3f
       -0.9165857 2.513404 3.0919266 0.6935648
0000e0 c0 49 87 c0 0c 50 29 40 1c 92 e2 3f 03 f0 08 bf
       -4.2277527 2.6455107 1.7700839 -0.5349123
0000f0 ed 8e b5 c0 a3 d1 72 c0 ed 87 08 3f 0c e1 e7 bf
       -5.673697 -3.7940452 0.53332406 -1.8115554
000100 70 1b ac c0 11 ce e2 bf 48 ea 65 be d9 89 9c 3f
       -5.3783493 -1.7719136 -0.22452652 1.2229568
000110 18 dd 87 c0 ae de f6 3d b4 f9 13 3d e6 c2 07 c0
       -4.245739 0.120541915 0.036126807 -2.1212707
000120 68 78 70 40 d3 12 ee 3f bb 48 35 c0 de d8 15 3d
       3.757349 1.8599495 -2.832564 0.036583774
000130 79 5f 64 c0 60 70 8c bf 47 05 4a c0 16 74 8a be
       -3.5683272 -1.0971794 -3.156572 -0.27041692
000140 8f 18 83 40 3a 77 16 bf 50 ee c1 3f 1c c8 0d bd
       4.096748 -0.58775675 1.5150852 -0.034614667
000150 ab 55 8d bf f8 04 86 c0 de a2 19 bf af f1 0d 3f
       -1.1041769 -4.1881065 -0.6001414 0.55446905
000160 d1 6d 80 3f 7a 67 22 40 0a 7d d8 bf 8d e7 98 3f
       1.0033513 2.5375657 -1.6913159 1.1945664
000170 21 64 ae be a5 5c 40 bf 9d 5e 41 3f a9 38 97 3e
       -0.34060767 -0.75141364 0.75534993 0.29535416
000180 97 ce fe be f3 e3 2a c0 98 2f a8 bc d3 78 f1 3f
       -0.4976699 -2.670163 -0.020530507 1.8864998
000190 52 d5 d3 3f 7b bb a0 be 6c 1b cc c0 72 5d 14 c1
       1.6549475 -0.31393036 -6.3783474 -9.272814
0001a0 55 28 37 bf 28 6b ec bf 2d c2 62 40 8b 62 50 be
       -0.71545917 -1.8470201 3.5431015 -0.20350091
0001b0 94 17 2f 3e 6b 45 5d c0 6a 56 ab 3f bf 8e 14 3f
       0.17098838 -3.457362 1.3385746 0.58030313
0001c0 f2 3c 42 3f 52 1e 43 3e 65 06 01 40 7b ac 8f 40
       0.75874245 0.19054535 2.0160153 4.4898047
0001d0 e4 ea 34 c0 40 77 c9 3f 5e 73 f2 bf 27 c2 65 3e
       -2.8268366 1.5739517 -1.8941457 0.22437344
0001e0 45 27 5b 3f 2a 36 6a 40 01 9b 8f 40 c3 29 2a c0
       0.85606796 3.659556 4.4876714 -2.658799
0001f0 41 18 ac bf b1 7e ba bf db 22 77 c0 a0 69 b9 bf
       -1.3444902 -1.4569913 -3.8615024 -1.4485359
000200 17 2d f1 bf 7d 2b 6f c0 e5 3f 77 c0 d6 30 9b 40
       -1.8841885 -3.7370293 -3.8632748 4.8497114
000210 46 e9 1a 40 59 0c c7 40 21 db 0c c0 c5 81 8f 40
       2.4204879 6.2202573 -2.2008746 4.484591
000220 d0 8a 94 be 09 b8 d6 bf 4f 5f 61 3f 65 66 9b bf
       -0.29012156 -1.6774913 0.88036054 -1.2140623
000230 63 f3 2f c0 bf 63 c6 be 27 00 b8 3f 8c 66 b7 bf
       -2.7492301 -0.38747975 1.4375046 -1.432817
000240 97 f3 41 c0 66 9a 06 40 55 79 7d bf 7e ae 88 c0
       -3.0304925 2.1031737 -0.99013263 -4.2713003
000250 1f 93 7d c0 ab 92 78 c0 32 e3 4d 3d 74 2a 19 40
       -3.9621046 -3.883952 0.0502655 2.3932161
000260 9c 22 7e bf f0 62 1a 3d 27 66 d9 3f 63 22 30 c0
       -0.9927156 0.03769201 1.69843 -2.7520988
000270 70 d4 9c c0 68 03 ce bf b2 1d 80 bf fb 4e 88 bf
       -4.9009323 -1.609479 -1.0009062 -1.0649103
000280 29 98 d2 bf 32 55 90 bf 22 5f 86 c0 fb ad b9 3f
       -1.6452686 -1.1276 -4.199113 1.450622
000290 8f e8 12 40 1b 0a 38 bf 5d 66 68 be 1c 56 16 40
       2.2954443 -0.7189042 -0.22695298 2.3490057
0002a0 91 59 d5 bf ec 5c 6e c0 fc 34 5a c0 dc 46 e1 3e
       -1.6667958 -3.7244215 -3.409484 0.43999374
0002b0 7e 08 21 40 dc 35 22 bd eb d3 8c bd 83 a4 83 3f
       2.5161433 -0.039602146 -0.06876358 1.028458
0002c0 5a c1 80 40 ad de f0 bf ad a0 8e c0 06 e1 48 c0
       4.0236025 -1.8817955 -4.4571137 -3.1387343
0002d0 23 94 af c0 c9 9f d4 be 41 13 18 40 f9 fd a8 bf
       -5.486833 -0.41528156 2.3761752 -1.3202506
0002e0 9f a5 8b c0 0a 06 46 bf 94 d0 f9 3f be d9 60 bf
       -4.3639674 -0.77352965 1.9516778 -0.8783225
0002f0 63 dd db 3f 44 06 b0 3f e3 79 9b c0 02 9a 5f 3f
       1.7176937 1.3751912 -4.8586287 0.8734437
000300 01 1f 96 c0 39 5b 10 40 d0 e8 54 bf f4 c5 72 3f
       -4.6912847 2.2555678 -0.83167744 0.948333
000310 5c ab 09 c0 88 ff 4d 3e e4 51 e8 bd 5e 98 a6 3f
       -2.151084 0.20117009 -0.113437444 1.3015249
000320 37 83 20 bf 80 d0 00 c1 28 ee 43 be 1d 5a cd 3f
       -0.6270022 -8.050903 -0.19133818 1.6043125
000330 7e 67 8f 3f 03 58 d0 bf 94 e4 23 bf 41 b3 2c bf
       1.1203458 -1.6276859 -0.6402066 -0.6746102
000340 72 e4 5d 3f b2 ba 96 c0 48 fb ab 3e a7 f7 0f c0
       0.86676705 -4.71029 0.3359015 -2.2494905
000350 b7 26 57 c0 85 0d 29 bf c2 b7 27 c0 19 58 cc c0
       -3.361738 -0.66036254 -2.6205907 -6.385754
000360 e0 14 52 c0 c5 2a 30 c0 ad 31 3c 40 5c a1 6a c0
       -3.282524 -2.7526104 2.940532 -3.6660986
000370 02 07 23 bf 7f 53 b2 c0 2f 44 22 c0 b6 3f 80 40
       -0.6368257 -5.5726924 -2.5354116 4.007777
000380 b9 82 59 3c 21 84 4e 3e 3c de 20 3f 5f 35 e2 3f
       0.013275796 0.2016759 0.628391 1.7672538
000390 7a 03 02 40 23 7d 8a c0 8c 69 02 be 2d 4d f2 bd
       2.0314622 -4.3277755 -0.12735575 -0.11831126
0003a0 c2 44 30 40 86 a5 1f 3f 0f b5 41 bc 3d ff 81 3e
       2.7541966 0.62361944 -0.011822953 0.25390044
0003b0 e1 c1 38 3f 4e d1 0b 40 46 1d fb bf e8 46 61 40
       0.72170836 2.18465 -1.9618309 3.5199528
0003c0 ae 3e 8a c0 27 80 53 c0 69 89 1c c0 8a d8 55 40
       -4.3201513 -3.3046968 -2.4458869 3.3413415
0003d0 24 5a 60 c0 cd f3 32 40 1b 75 39 3f 22 e4 fc bf
       -3.5055017 2.7961304 0.72444314 -1.9757121
0003e0 b7 ff aa bf 4c c0 af bd 1e 6b e2 c0 09 04 01 c0
       -1.3359288 -0.085815996 -7.075576 -2.0158713
0003f0 c8 77 c5 3f 5b 1e 40 3f c4 48 92 bf db 11 35 3f
       1.5427179 0.7504632 -1.1428456 0.7073037

weight f4 [16]
000000 60 17 20 40 75 1e a5 3f 42 d8 e8 3f 25 b3 fe 3f
       2.5014267 1.289992 1.8190997 1.989842
000010 24 5d 06 40 3f 5e 25 40 ec 3f 11 40 70 4f 7b 3f
       2.0994349 2.5838773 2.2695265 0.98168087
000020 ce 9c ac 3f 88 96 04 40 a1 84 a9 3f f8 58 c2 3f
       1.3485353 2.0716877 1.32436 1.5183401
000030 66 c9 b8 3f 4d f1 13 40 60 52 fc 3f 75 ed d9 3f
       1.4436462 2.3116028 1.9712639 1.7025591

bias f4 [16]
000000 5c 26 aa bf f6 d6 98 be 32 b4 ef 3d 21 c2 6c bf
       -1.3292956 -0.29851502 0.117042914 -0.9248372
000010 9c 43 16 bf 0c 8e 02 c0 03 01 f8 be 6b f3 ad be
       -0.58696914 -2.0399199 -0.48438272 -0.33974776
000020 bd 5b b5 be 85 76 a0 bf 50 fd 77 3e 0a 69 21 bf
       -0.35421553 -1.2536169 0.24217725 -0.630509
000030 88 0a 46 bf e8 df 41 bf e4 ae 96 bf e5 ec 90 bf
       -0.7735982 -0.7573228 -1.1772122 -1.1322294

running_mean f4 [16]
000000 3e 3a 4c c1 ea 60 37 c1 f9 61 20 c2 ca 00 12 c0
       -12.764219 -11.461161 -40.095676 -2.2812982
000010 6c 66 95 c0 9c ce 91 c1 8c 49 32 c2 bc 9f ca c1
       -4.6687527 -18.225883 -44.571823 -25.327995
000020 a7 d7 95 c1 c6 33 97 41 1b 03 d1 40 10 3c 11 c2
       -18.730299 18.90028 6.531629 -36.308655
000030 e9 96 03 c1 d6 b6 db bf 75 95 48 c2 28 c6 40 c1
       -8.224343 -1.7165172 -50.145954 -12.048378

running_var f4 [16]
000000 aa b2 9a 44 6e d9 03 45 2c 0d ab 44 24 7f 32 44
       1237.5833 2109.5894 1368.4116 713.9866
000010 21 fc 8a 44 0a e1 1b 44 b0 77 0b 45 19 f6 53 44
       1111.879 623.51624 2231.4805 847.8453
000020 9b 89 48 44 3c 8c 58 44 d7 bc 5e 44 dc 9c 4c 44
       802.1501 866.19116 890.9506 818.4509
000030 36 65 2b 44 a2 30 4c 44 13 c4 3b 44 56 0f 2c 44
       685.5814 816.7599 751.06366 688.2396

weight f4 [64, 96]
000000 5f 4b d9 3f e1 d2 4d c0 f5 6b 5f c0 a2 eb c8 c0
       1.6976126 -3.215996 -3.4909642 -6.278764
000010 14 da d7 c0 dc 86 99 c0 17 7f a3 bf 75 23 8f bf
       -6.745371 -4.7977123 -1.277316 -1.1182696
000020 ba d0 f7 3e 42 dd 12 c0 f9 af a3 c0 63 25 3d 3f
       0.48401433 -2.2947545 -5.115231 0.7388517
000030 96 56 bb be 2f fd 31 bf 0c fb 3d be 05 09 ce bf
       -0.36589497 -0.6952695 -0.18552798 -1.6096503
000040 5c 5d c6 c0 4e b2 d6 c0 aa 8c 06 c0 7d 43 36 bf
       -6.1988964 -6.7092657 -2.1023355 -0.7119673
000050 b7 eb 1c 40 78 e4 0d c1 31 4f 0b c0 82 e0 eb c0
       2.451887 -8.8682785 -2.1767085 -7.3711557
000060 10 20 a8 3d fa 27 33 c0 0a 49 82 bf 13 29 17 40
       0.082092404 -2.799315 -1.017854 2.361882
000070 b7 4c 0e 40 58 07 66 c0 ab 8d 41 c0 54 5b 38 3f
       2.2234323 -3.5941982 -3.0242717 0.72014356
000080 78 56 8b c0 74 1f ac c0 73 e3 70 be 5a 65 3a c0
       -4.3543053 -5.3788395 -0.23524265 -2.912436
000090 b9 e7 4e bf fb 0e 76 3f c5 8a 9f be ff 27 c6 3e
       -0.8082233 0.9611661 -0.3116056 0.3870239
0000a0 57 38 30 40 20 b2 e0 bf 77 85 4a c0 f8 0c cb 3f
       2.7534387 -1.755436 -3.164396 1.5863333
0000b0 af af 98 bf f5 c2 4e c0 17 43 57 c0 fa 9c d5 3f
       -1.1928614 -3.2306492 -3.3634698 1.668853
0000c0 7c 44 be be b5 20 eb bf 6e c3 88 c0 31 d7 01 bf
       -0.37161624 -1.8369356 -4.273856 -0.5071898
0000d0 e2 fc 28 bf ff 06 de bf b8 ce 5a c0 3a 68 c7 3e
       -0.6601087 -1.7345885 -3.418867 0.38946706
0000e0 df af 69 c0 55 47 d0 bf ee 42 a0 c0 06 8c 42 bf
       -3.6513593 -1.6271769 -5.00817 -0.7599491
0000f0 bf 8b 31 c0 b4 63 2a 3d 63 0a 01 40 b4 73 d0 3f
       -2.7741544 0.04159899 2.016259 1.628531
000100 5c 33 66 bf 54 7d ad 3f 43 10 15 c0 47 16 cb bf
       -0.8992212 1.3553872 -2.3291175 -1.5866174
000110 87 63 a3 c0 27 b6 81 c0 0a fe e7 bf 5d 0b 28 c0
       -5.1058993 -4.0534854 -1.8124402 -2.6256936
000120 af 24 aa bf 10 a7 31 bf a8 14 da 3f 24 b5 95 c0
       -1.3292445 -0.6939554 1.7037554 -4.678362
000130 24 b3 01 c1 f7 2d 72 40 78 c1 09 3c ac d8 90 40
       -8.1062355 3.7840555 0.008407943 4.526449
000140 b7 6d c8 3e 9a a5 87 3f 25 b8 a4 3e 5d 48 2a 3f
       0.39146206 1.0597413 0.3217174 0.6651667
000150 d8 ba 43 3f bc 4f 9e c0 8f 33 cb 3f 47 c0 a9 c0
       0.76456976 -4.947233 1.587511 -5.3047214
000160 77 6f 6f 3f d2 27 39 3f 30 7a 0d c0 33 6c ae 3f
       0.93529457 0.72326386 -2.2105827 1.362677
000170 89 d5 10 c0 86 ce 5c be 02 58 a4 c0 23 14 c4 3d
       -2.2630332 -0.21563157 -5.135743 0.09574153
000180 80 fb 6c bf 04 af 1a 3e 2e 3e 14 c1 fb 75 dc 3f
       -0.9257126 0.15105826 -9.265181 1.7223505
000190 1c a3 f6 c0 72 9d fd bc ce 51 4c bf ed 26 c4 3e
       -7.707411 -0.030958865 -0.79812324 0.38310948
0001a0 22 a5 9f c0 21 c4 8b c0 50 c7 71 3e e3 85 30 3f
       -4.988908 -4.3676915 0.23611188 0.68954295
0001b0 c6 8e 20 c0 76 85 e6 3b 13 9b cc be de 39 85 c1
       -2.5087142 0.0070349528 -0.39962062 -16.653255
0001c0 90 e8 a4 3d fc ca 9b 3f cf 13 b8 be 37 14 4f be
       0.0805217 1.2171321 -0.35952613 -0.20222555
0001d0 cf 45 33 c0 4d cf 04 40 df 01 8d 3f e9 40 a7 3f
       -2.8011358 2.0751526 1.1016196 1.3066684
0001e0 2e 26 3e 40 1f 4f ca be b5 95 7a 3f 0f d2 93 be
       2.9710803 -0.3951349 0.97884685 -0.288712
0001f0 cf 67 cd bf 83 32 be 3e 94 f9 23 3f f5 25 28 40
       -1.6047305 0.37147912 0.640527 2.6273167
000200 0e 90 41 c0 48 36 0f c0 03 57 83 c0 b4 64 43 bf
       -3.0244174 -2.237688 -4.1043715 -0.76325536
000210 61 6f 3b bf 9f fd 5f bf ea d9 4a c1 b4 1f 9d 3e
       -0.73216826 -0.8749637 -12.678202 0.3068825
000220 3b 6a 0c 3f 30 4f 88 be ce 60 3b 40 e2 0f 15 3f
       0.54849595 -0.26622915 2.9277835 0.5822736
000230 99 fe 82 3f 77 fb bd c0 c6 4b 4c bf 79 7d 13 bf
       1.0233947 -5.9369464 -0.7980312 -0.5761333
000240 51 33 e6 3f a8 84 32 3f 39 11 69 c0 b6 3f f4 be
       1.798441 0.6973367 -3.6416762 -0.47704858
000250 c6 9c e6 be 48 69 e5 bf 58 f7 31 3d d3 13 50 bf
       -0.45041484 -1.7922754 0.043448776 -0.8128025
000260 50 13 1c c1 15 c9 0b c1 3a d4 a6 c0 23 82 06 40
       -9.754715 -8.736592 -5.2134066 2.101693
000270 79 3e 79 c0 3d be 3f c0 10 c8 11 c0 44 b4 27 3f
       -3.894438 -2.9959862 -2.2778358 0.6550944
000280 b0 af 13 bf ce 69 e7 3e be ca b6 bf 8b 0a 8c bf
       -0.5768995 0.4519791 -1.4280622 -1.0940717
000290 2a 9f 85 c1 8c 0e 51 3e 12 93 1a c0 a9 d2 af 3d
       -16.702717 0.20415705 -2.4152265 0.08585102
0002a0 ae 11 9c be c0 d2 1a 40 4b f8 9e c0 8b 7d 27 c1
       -0.3048224 2.4191132 -4.967809 -10.46815
0002b0 f6 fe 2b c0 51 98 08 be 25 64 a1 3e d7 88 31 40
       -2.6874366 -0.13339354 0.31521717 2.773977
0002c0 06 fb 01 3f 81 b7 49 3e 97 3d d6 be 37 69 bd bf
       0.50773656 0.19698907 -0.41843864 -1.4797734
0002d0 9c 88 00 be 6a ce 13 3f 16 0f 80 c1 18 04 b8 bf
       -0.12552112 0.5773684 -16.007366 -1.4376249
0002e0 44 86 9b 3f f7 78 90 40 96 7f e1 bd 93 90 64 40
       1.215035 4.514766 -0.11010663 3.571324
0002f0 7e 72 45 40 98 e5 b7 bf 6b 00 00 be fd 9f 1f c0
       3.085113 -1.4366941 -0.1250016 -2.49414
000300 aa 1b c8 bf 95 4d 9e c0 d8 55 bd bf 8a 2c d6 3f
       -1.5633442 -4.9469705 -1.4791822 1.6732342
000310 85 00 5c bd 6b 33 3e 40 7c 49 38 c0 f2 20 84 c0
       -0.053711433 2.9718883 -2.8794851 -4.1290216
000320 22 c2 e1 c0 0a 43 8d c0 c8 4b bc c0 c9 d4 44 c0
       -7.054948 -4.4144335 -5.8842506 -3.0754874
000330 68 6a 4b be 6a 79 69 be 2b 1e 27 c0 23 b4 a0 be
       -0.1986481 -0.22800222 -2.6112163 -0.31387433
000340 37 91 8c c0 35 52 a5 c0 e5 f6 15 bf d0 c5 95 c0
       -4.3927264 -5.166285 -0.58579856 -4.680397
000350 b5 00 65 c0 90 3f 2e be cb 93 96 be 00 b0 8d bf
       -3.5781682 -0.17016435 -0.29409632 -1.1069336
000360 53 96 95 c0 e9 f6 dd 3f 7a f6 8c c0 9f 25 05 c0
       -4.6746 1.7340976 -4.4050875 -2.0804212
000370 2f e4 97 c0 81 49 e8 be 38 17 f7 3e 7e 6d c3 bf
       -4.7466044 -0.4536858 0.48259902 -1.5267789
000380 cb f9 57 c0 8c 9f 8c 3e 9b 9b aa 3f f0 a0 2f bf
       -3.3746212 0.27465475 1.3328737 -0.68604946
000390 da 6f a1 bf fd 42 6d bf b0 e8 2e c0 fa 33 ab c0
       -1.2612259 -0.9268034 -2.732952 -5.350095
0003a0 e0 87 15 3f e4 02 c5 c0 6a f0 19 c0 8d b5 d8 bf
       0.58410454 -6.156603 -2.4052987 -1.6930405
0003b0 dc 9d 83 c0 3d dd e3 3f 0e 97 c3 bf 42 41 36 c0
       -4.11302 1.7801892 -1.5280473 -2.847733
0003c0 fa 7b 26 40 c8 74 8b c0 a6 3b 46 c0 b8 61 b6 3e
       2.601317 -4.3580055 -3.0973907 0.35621428
0003d0 7f 1e 70 3f 42 42 0b c1 e5 99 4c bf 4a 77 37 3e
       0.93796533 -8.703676 -0.79922324 0.17916599
0003e0 d6 40 8c bf 4f 46 50 bf 84 7b af c0 d9 74 37 c0
       -1.0957286 -0.8135728 -5.4838276 -2.8665068
0003f0 70 49 78 bf 99 ae d1 c0 87 08 46 c0 0e fd 5f 40
       -0.96987057 -6.552563 -3.0942705 3.4998202

bias f4 [64]
000000 ac 23 20 bf 14 c7 b2 40 b2 1f 9d bf 88 0b df bd
       -0.6255443 5.5868015 -1.2275298 -0.10890871
000010 55 42 07 c0 5e 51 f3 3f 76 b0 d5 bd 19 9b bb 3f
       -2.1134236 1.9009206 -0.10434048 1.4656707
000020 52 6f ce 3f db 24 a2 40 92 b1 19 c0 8d a1 7f 3f
       1.6127722 5.066999 -2.401463 0.9985588
000030 96 a0 59 40 6e fa 53 40 4b 99 bb 40 06 50 4d 40
       3.4004264 3.31216 5.8624625 3.2080092
000040 18 90 2f bf 3d 8b ba 40 87 22 83 40 3c 63 a0 40
       -0.68579245 5.829497 4.097965 5.0121136
000050 77 dd 41 3f ff 43 63 40 3e bf 1c c0 fa b9 8f be
       0.75728554 3.5510252 -2.4491725 -0.28071576
000060 80 0b 9c be c0 b6 16 bf 4f 56 ed bf 20 8d cd bd
       -0.30477524 -0.58872604 -1.8541964 -0.10036683
000070 ec ed 47 be 39 0f bc be 7f 3b 35 c0 2e ef 1a 40
       -0.19524354 -0.36730364 -2.8317564 2.4208484
000080 24 0f 5c 40 7e 6f db 3f 27 8d 48 be b8 b0 61 be
       3.438424 1.71434 -0.19585095 -0.22040069
000090 e2 3a cf be a8 e0 0c 3f 67 66 d7 be 18 b9 bb bd
       -0.40474612 0.550303 -0.42070314 -0.09166163
0000a0 cb 07 62 bf a8 7c 98 40 63 d1 42 bd f5 a6 2c 40
       -0.8829314 4.765217 -0.047562968 2.6976902
0000b0 1b 90 f0 be 53 54 de 3d 9f c0 db bf ef a3 18 3f
       -0.46984944 0.10855927 -1.7168158 0.5962514
0000c0 20 90 8d 40 03 5e 11 3f b9 7b d7 3f b4 25 4e c0
       4.4238434 0.56784075 1.6834632 -3.2210512
0000d0 e5 84 33 3d aa 4b 3b be d4 20 85 3e 0c b3 61 3d
       0.04382791 -0.18290582 0.26001608 0.055102393
0000e0 f4 83 bd 3e 70 e5 1e be 69 85 58 40 0a 3d 50 be
       0.37014735 -0.15517211 3.3831427 -0.20335785
0000f0 5c c0 72 40 08 ad e9 3f 56 23 05 c0 35 d7 7d bd
       3.7929907 1.825593 -2.0802817 -0.061972816

weight f4 [1, 64]
000000 22 dd 61 40 d1 73 9a 40 bf 65 17 40 4d a8 18 bc
       3.5291219 4.8266377 2.365585 -0.00931747
000010 b3 93 82 c0 87 ec 8e 3f 4c 49 36 3e 71 38 ee 3f
       -4.0805297 1.1165932 0.17801398 1.8610975
000020 97 f2 4c 3f 59 53 6a bf d8 93 1e 40 d8 c8 28 bf
       0.8005766 -0.9153343 2.4777737 -0.65931463
000030 46 f2 0e bf cf f3 19 3f 9c 80 35 40 c8 a0 94 3f
       -0.5583843 0.6013765 2.8359747 1.1611567
000040 69 c8 1f 40 12 77 12 40 eb 18 0e 40 25 4b ec 3f
       2.496607 2.2885175 2.2202709 1.8460432
000050 09 f9 47 3f eb 24 35 40 14 56 17 c0 6f dc 82 bd
       0.7811437 2.8303783 -2.3646288 -0.063897006
000060 a6 10 c5 3f 59 15 fb bf a8 45 19 40 d4 28 02 40
       1.5395706 -1.961589 2.3948765 2.033742
000070 3f 8b 27 bc bd c1 28 3e 0a 42 99 3f 3d b1 77 bf
       -0.01022607 0.16480155 1.1973279 -0.9675482
000080 1e f8 17 bf 3d a3 ad be af 51 34 be f9 ae a3 3b
       -0.5936297 -0.33913603 -0.17609285 0.0049952236
000090 bc 54 8f 3d b1 64 31 bf 8a 81 e8 3f f4 b0 49 bf
       0.06998584 -0.6929427 1.8164532 -0.78785634
0000a0 96 e0 47 40 86 80 8b 40 5f 18 9e 3c ce a6 06 40
       3.1230826 4.359439 0.01929873 2.103931
0000b0 22 f2 02 40 15 43 ee bf f6 7a b2 3f c8 e1 fc be
       2.0460286 -1.8614222 1.3943775 -0.49391007
0000c0 22 32 1b bf c3 c3 d2 be b8 61 c8 be 97 04 8b 3f
       -0.6062337 -0.4116498 -0.39137053 1.0860776
0000d0 ab 8d b9 bf a3 dd 51 be c7 90 b2 bf 83 da c3 bf
       -1.4496359 -0.20494704 -1.3950433 -1.530106
0000e0 e9 f8 80 40 30 ee be be fb 11 7d 3f af 90 22 3e
       4.0303845 -0.37291098 0.9885556 0.15875505
0000f0 91 ae 5e 3f 67 6b d5 3f 0e 95 87 bf c8 a6 d3 3f
       0.8698512 1.6673402 -1.0592363 1.6535273

weight f4 [64, 96]
000000 83 df a4 bf 96 9c 9d 3d 00 5f 3b c0 48 3f e8 c0
       -1.288071 0.07695882 -2.9276733 -7.257725
000010 64 88 7e bf db e5 85 c0 ae 04 6b c0 03 35 dd 3f
       -0.99426866 -4.1843085 -3.6721606 1.7281803
000020 96 c7 76 bf b4 16 89 be d2 07 44 40 34 ae 82 c0
       -0.96398294 -0.26775134 3.0629773 -4.083765
000030 7c 5c 20 c0 25 7b b2 3f c0 9a b0 c0 52 e4 5b 40
       -2.5056448 1.3943831 -5.5188904 3.4358106
000040 e8 da 82 c0 27 64 1b bf 1d a8 1b 40 da d7 f5 bf
       -4.089222 -0.60699695 2.4321358 -1.9206498
000050 18 94 56 c0 76 22 8a c0 3e fe c5 c0 7c 09 66 c0
       -3.352789 -4.3167067 -6.1872854 -3.5943289
000060 10 5c ea 3c e3 9b af bf eb 8f 6d 3f 29 27 20 bf
       0.028608352 -1.3719448 0.92797726 -0.62559754
000070 79 db ad bf 24 8b af bf e1 d5 27 3e 39 a1 3e c0
       -1.3582603 -1.3714337 0.16390182 -2.9785903
000080 3e e3 90 c0 67 63 9a bf 73 62 c2 c0 1d b0 db 3f
       -4.5277395 -1.2061585 -6.0745177 1.716312
000090 2a 7b 46 40 7a 09 45 bf dc fa f9 bf 5b b1 41 bf
       3.1012673 -0.76967585 -1.9529681 -0.7566125
0000a0 d3 84 66 c0 ec 6a f5 c0 97 51 d7 be 99 30 8c c0
       -3.601857 -7.669302 -0.42054436 -4.3809323
0000b0 cd 22 af c0 63 28 10 be e9 1b f4 bf 69 f4 c3 3e
       -5.472998 -0.14077906 -1.9071018 0.38272408
0000c0 4a ee bb c0 78 f6 b2 c0 6e 07 56 bf f8 7d d3 3f
       -5.872838 -5.5925865 -0.83605087 1.6522818
0000d0 c6 a2 da 3e 3b a8 84 3f ec de 14 3f 80 ab 0c be
       0.4270231 1.036384 0.5815265 -0.13737297
0000e0 34 3b c4 3c 0d 36 67 c0 97 10 8f 3f 90 fd 20 c0
       0.023954011 -3.612674 1.1176938 -2.5154762
0000f0 b6 99 86 40 49 91 1f 3e ff a9 90 c0 3a 79 14 bf
       4.2062635 0.15582766 -4.5207515 -0.5799748
000100 40 44 e6 bf fa e3 59 c0 cd 6b 28 40 e9 13 02 3e
       -1.7989578 -3.4045396 2.6315796 0.12702908
000110 b8 66 36 c0 13 88 54 c0 c2 9d e1 be 93 a1 ba c0
       -2.8500195 -3.3208053 -0.44065672 -5.8322234
000120 8d a1 82 3f c4 4e 8a c0 80 43 c6 c0 2e 19 f2 bf
       1.0205551 -4.322115 -6.1957397 -1.8913934
000130 5d bf 86 3f 6b 2f e5 3f 59 06 df bf b8 7f a0 40
       1.052715 1.7905096 -1.7423812 5.0155907
000140 f7 c8 cd 3f e2 48 29 bf 0b 4c bf bd f8 0a 77 c0
       1.6076955 -0.66126835 -0.09340676 -3.8600445
000150 8a 5b 86 3f a1 4f c3 be c2 7e 68 40 95 4d bd c0
       1.0496686 -0.3814669 3.6327367 -5.9157205
000160 17 e9 ee bf 28 ab 71 c0 86 3a 1e c0 af 47 9a be
       -1.8664883 -3.7760715 -2.472322 -0.30132815
000170 67 af 88 bf 08 c1 88 c0 94 e7 0e 3e 78 18 4a c0
       -1.0678529 -4.2735634 0.13955528 -3.1577435
000180 bb 2e e0 3e 29 10 a4 3e 9f 6c c1 c0 2b 1b 38 be
       0.43785653 0.3204358 -6.0445094 -0.17979114
000190 09 8c 24 c0 e7 7c b6 bf 1f c3 23 40 83 41 17 bf
       -2.571047 -1.4256867 2.5587842 -0.5908434
0001a0 71 7f bf bf 4b 36 dc bf e9 c8 dd bf ec 67 5a c0
       -1.4960767 -1.7204069 -1.7326938 -3.412593
0001b0 27 6f 81 bf 95 53 9e 3f c1 43 9f c0 a0 3f da bf
       -1.0112046 1.2369257 -4.9770207 -1.7050667
0001c0 7d 7c 0f c0 e6 2c ce be 3b e4 a0 3f 99 82 9b c0
       -2.2419732 -0.4026863 1.256965 -4.859692
0001d0 95 c2 ff be 33 d3 e8 bf f1 64 aa 3f dc b5 4f bf
       -0.49953142 -1.8189453 1.3312055 -0.8113687
0001e0 6c de 76 c0 29 0f b4 bf a7 5a 87 bf c5 05 8c c0
       -3.8573256 -1.4067127 -1.057454 -4.3757043
0001f0 c4 50 14 c0 19 ee c8 c0 33 ef 95 3f d0 ca b6 3f
       -2.3174295 -6.2790647 1.1713623 1.4280643
000200 61 f0 60 c0 d4 6d 65 3f 1d 76 4e be e7 ca 54 c0
       -3.5146716 0.8962071 -0.20162244 -3.3248842
000210 0d b5 fc bf ef 1e b7 bf 0e 08 0f bf e1 9c 8a c0
       -1.9742752 -1.4306315 -0.55871665 -4.3316503
000220 ec 87 fe be 06 88 96 c0 f2 23 bd 3e 3d de 27 c0
       -0.49713075 -4.7041044 0.36941487 -2.6229393
000230 99 31 2e c0 41 27 02 40 5b 4d 04 bf 9d f6 6a be
       -2.7217772 2.0336459 -0.51680535 -0.22945638
000240 54 c4 2e c0 b7 a2 de bf be 13 6a c0 34 5d 22 c0
       -2.730733 -1.7393407 -3.657455 -2.5369387
000250 0e 5d a5 3f 56 88 02 c0 14 15 2b 40 f2 93 8a c0
       1.2919023 -2.0395713 2.6731615 -4.3305597
000260 4a 3d 14 c0 40 26 03 3f 26 6f 34 40 4f 53 1e c0
       -2.3162408 0.5123024 2.819284 -2.4738348
000270 cd 20 bc bf 02 ab ed bd 80 17 1b c0 b7 d7 4b bf
       -1.469751 -0.11604883 -2.4233093 -0.7962603
000280 0b ef 7f c0 a8 48 31 be 43 f4 a7 bf fc 3b 85 3f
       -3.998965 -0.17312872 -1.3121418 1.0408931
000290 4c 38 b5 c0 eb 98 8a be e0 4d 4a c0 95 7f 88 c0
       -5.663122 -0.27069792 -3.161003 -4.265574
0002a0 7b 51 52 c0 ec 47 78 bf ec a5 e6 bf 9c 41 80 bf
       -3.2862232 -0.96984744 -1.8019385 -1.0020022
0002b0 8a 42 d0 bf 03 ec 59 c0 7f a0 00 c0 58 1c 33 c0
       -1.6270306 -3.40503 -2.009796 -2.798605
0002c0 b0 e9 8d 3f 7a a6 55 be ed ab 3b 40 de 38 08 3d
       1.1086941 -0.20864287 2.9323685 0.033257358
0002d0 4d 91 24 3e 1e e4 ad c0 63 2f 19 c0 e6 c2 1c be
       0.16071053 -5.4340963 -2.3935173 -0.15308723
0002e0 18 2e 3a c0 16 5d 63 c0 78 d2 8e bf 9d f0 66 c0
       -2.9090633 -3.5525565 -1.115798 -3.6084359
0002f0 31 b2 a0 c0 dd 02 ce 3f 82 c1 38 3d 0f db 8c 3f
       -5.021752 1.6094624 0.04510642 1.1004351
000300 53 52 33 c0 ad 52 52 40 2f 24 da be 70 58 91 bf
       -2.8018997 3.2862961 -0.4260573 -1.1355114
000310 1b 05 77 3e 2b 85 d7 bf eb 01 2c 3f 54 94 bf 3f
       0.24123041 -1.6837515 0.67190427 1.4967141
000320 6a cd 78 c0 f0 53 d1 3f a8 10 1a c0 71 73 c8 c0
       -3.8875375 1.6353741 -2.4072666 -6.264092
000330 b3 c1 ca bf 63 98 b6 3e 44 2e 05 c1 07 27 4e bf
       -1.5840362 0.35663137 -8.323795 -0.805283
000340 26 5b 9d bf 9b 42 a3 bf 63 40 7f 40 e3 73 87 c0
       -1.2293441 -1.2754701 3.9883049 -4.2328963
000350 45 90 d2 c0 e5 ab 76 be ac 35 9b c0 a6 ff 58 3f
       -6.580111 -0.2408901 -4.8503017 0.8476509
000360 65 c8 fd bf 44 b1 41 40 6d 49 83 c0 a5 44 61 bf
       -1.982678 3.0264444 -4.102713 -0.8799537
000370 9e 00 01 c1 df e0 ad c0 5b 7e 0a c0 d9 46 75 c0
       -8.062651 -5.4337 -2.1639621 -3.8324492
000380 40 98 5a c0 e5 e2 90 3f 98 2d a6 be 93 e5 69 c0
       -3.4155426 1.1319243 -0.3245666 -3.654637
000390 e8 0f af c0 16 a9 12 bf 32 85 e8 c0 ac eb 7e 3e
       -5.4706917 -0.57289255 -7.266259 0.24894589
0003a0 08 c7 c1 c0 57 6d d2 be cd b7 ba c0 e3 3e 06 c0
       -6.055546 -0.41099045 -5.8349366 -2.0975883
0003b0 70 15 95 3e b8 f9 f4 3f f9 3d 82 c0 5b 80 7a be
       0.29117918 1.9138708 -4.070065 -0.24463026
0003c0 a8 0c 0a 3f 17 d3 05 40 f6 9d 9a bf 75 ae 07 c1
       0.5392556 2.091009 -1.2079456 -8.480092
0003d0 8e 06 9a c0 8f 1b 9a 3f b6 c1 fb bf 4f f6 95 40
       -4.8133 1.203966 -1.9668491 4.686317
0003e0 32 54 09 3e 95 2e 0e c1 ae 6d 4f bf 97 ad bb 3f
       0.13411024 -8.886373 -0.8102673 1.466235
0003f0 2c 4d 47 40 5d 21 62 c0 67 7f 57 c0 5b 03 a2 bf
       3.1140852 -3.5332863 -3.367151 -1.2657274

bias f4 [64]
000000 5b 64 06 c0 70 d8 0f c0 35 26 e5 3e bc e6 a4 be
       -2.0998752 -2.2475853 0.44755712 -0.32207286
000010 1c 60 b4 bf 4a 2a 88 c0 6a 03 12 c0 e9 ba 5f c0
       -1.409183 -4.2551622 -2.2814584 -3.495783
000020 31 f7 59 be 71 d6 56 bf 29 9f bf 3d 5d 84 3d bf
       -0.21285702 -0.8392096 0.09356529 -0.74030095
000030 56 90 c9 be 0e ed 7c 3d 55 04 c9 bf 4a b0 4f bf
       -0.39367932 0.06174951 -1.5704447 -0.8112837
000040 78 66 ba bf b8 99 07 bf 55 8b 14 c0 98 12 98 3f
       -1.4562521 -0.5296893 -2.3210042 1.1880674
000050 05 79 8e be 13 85 1a c0 a1 d4 35 bf 97 83 76 be
       -0.27826706 -2.4143722 -0.7102757 -0.24073635
000060 15 7f 33 3e c4 23 5f bf 33 b7 b2 bf 51 4b 6c bf
       0.17528947 -0.8716395 -1.3962158 -0.92302424
000070 a2 d7 9f bf 5d 4d 36 c0 c7 d8 06 3f 71 2c 14 c0
       -1.2487681 -2.8484719 0.52674526 -2.3152125
000080 ae b8 d3 bf e6 79 f5 bf 81 49 d5 bf 40 9b 8a bf
       -1.6540735 -1.9177825 -1.6663057 -1.0828629
000090 fa 9b 78 bf d9 ff b7 bf 12 45 da bf 8b 58 f8 be
       -0.97113 -1.4374954 -1.7052329 -0.48505053
0000a0 43 e5 b9 bf 07 ab f9 be 17 c1 95 bf f7 6b ec be
       -1.452309 -0.48763296 -1.1699551 -0.4617612
0000b0 57 bc 18 c0 a1 02 89 be 05 db e7 bf 4b bd be bf
       -2.3864954 -0.26759818 -1.8113714 -1.4901518
0000c0 d5 fb ca bf 53 83 ec be b6 a1 91 3d 3e 56 b3 bf
       -1.5858103 -0.46193942 0.07110922 -1.4010694
0000d0 56 f8 ed bf 1f 4e 1d c0 52 d0 27 3e d3 71 89 bf
       -1.8591411 -2.4578931 0.16388062 -1.0737861
0000e0 a6 11 a4 be f8 10 88 bf 56 21 f0 bf 23 e5 e8 bf
       -0.32044715 -1.0630178 -1.8760173 -1.8194927
0000f0 50 d5 da bf 11 54 fa be ce fa 59 bf b5 5d 8b be
       -1.7096348 -0.48892263 -0.8514832 -0.2721993
