checkpoints/doom.pth (torch, 76191 bytes, 27 tensors)

weight f4 [8, 1, 3, 3]
000000 b7 3a a2 3e 43 49 e5 be 2e 5f 0f bf 65 3b 54 be
       0.3168542 -0.44782457 -0.5600461 -0.20725782
000010 4c 9b 54 3d 7e f6 44 3e 13 1e 10 bf 73 7d 2b 3e
       0.051905915 0.19234654 -0.5629589 0.16747074
000020 c4 a5 d6 3e f5 f8 8f be b4 61 00 bf 6b 10 c2 3c
       0.41923344 -0.28119627 -0.50149083 0.02368947
000030 b9 77 90 3e 4b 67 6c be 02 fc 71 3e a1 c0 8d 3e
       0.2821634 -0.23086278 0.2363129 0.27686027
000040 50 8e 9b be ee 57 fa be e7 1d 06 bf e7 aa 99 be
       -0.30382013 -0.4889521 -0.5238938 -0.300132
000050 e9 92 08 3f be 25 6b be be 62 26 3d 78 ae 5e 3e
       0.5334917 -0.22963616 0.04062151 0.21746242
000060 93 b2 09 bd c0 8f 8d bc 40 54 64 bd 01 1a 9b be
       -0.033617567 -0.01728046 -0.05574441 -0.30293277
000070 f6 11 27 3e a3 80 98 be 85 fb c6 bd 3e 57 66 be
       0.16315445 -0.29785642 -0.09715942 -0.22494218
000080 bd 8e d7 be 23 f6 4c be 1a af ae be ed 32 82 3e
       -0.42101088 -0.20015769 -0.34117967 0.25429478
000090 86 71 04 be c7 fd f3 be 9a 95 72 3e ab 48 c0 3d
       -0.12933931 -0.47654554 0.23689881 0.0938886
0000a0 5e 26 0a bf 5b 13 ad 3e 2d 05 d8 3e 86 7c 70 3e
       -0.53964794 0.3380383 0.4219145 0.23485002
0000b0 b6 6e 44 3e 49 fa 1e 3e 6d b6 9a be e3 7a 5c 3b
       0.19182858 0.15525164 -0.30217305 0.0033642582
0000c0 1f a3 09 3f 4f 45 36 bf ac 07 aa be f1 11 53 3e
       0.5376453 -0.71199507 -0.33208978 0.20612313
0000d0 d7 4d 8b 3e 92 01 f2 3e 24 f0 82 3d bb c2 da 3e
       0.27207825 0.47266823 0.063934594 0.42726693
0000e0 b9 cf 70 be a0 b6 97 be e4 18 0c 3f 7b dc 95 3e
       -0.2351674 -0.2963152 0.5472548 0.29269776
0000f0 04 2e 17 3e 48 5e 8e be f8 a2 5e bf 5e 24 52 3c
       0.14763647 -0.27806306 -0.8696742 0.012826053
000100 20 10 42 be 3a c3 ca 3e dd c8 ae 3e 4c 3d 8a 3e
       -0.18951464 0.3960207 0.34137622 0.2699989
000110 cf d1 98 3d 4f 7f 54 3d e8 d5 6e bd 71 15 cb bc
       0.07461893 0.051879223 -0.058309466 -0.024790497

weight f4 [8]
000000 80 cc 90 3f 0b 68 9d 3f 50 8a 70 3f ef 53 84 3f
       1.1312408 1.2297376 0.9396105 1.0338115
000010 de fd 62 3f db bc 6d 3f 33 c7 77 3f 39 41 5e 3f
       0.8866862 0.92866296 0.9678833 0.8681827

bias f4 [8]
000000 c1 3e 3f be 76 fe 16 be 6c 50 7b be 25 7e 86 be
       -0.18676282 -0.14745507 -0.24542397 -0.26268116
000010 ef e1 0b be 59 68 ee bd 6c 8a 2d be c8 37 7a be
       -0.13660406 -0.116409965 -0.16947335 -0.24435341

running_mean f4 [8]
000000 6b 9d 77 be c1 5d bf be e9 f7 17 be ea 3a 0f bf
       -0.24181144 -0.37376216 -0.14840664 -0.5594927
000010 68 ef 10 3e 2d a1 f7 3d 89 c7 99 bd e4 14 aa 3e
       0.14153826 0.12091289 -0.075087614 0.33219063

running_var f4 [8]
000000 29 c2 47 3c 48 7e a2 3c de cf f6 3b 32 e5 24 3d
       0.0121922875 0.019835606 0.007532104 0.04025764
000010 9f 6f fe 3b e9 c0 fa 3b 7f d5 ee 3b 52 1f 77 3c
       0.007764771 0.007652391 0.0072886343 0.015083151

weight f4 [8, 8, 3, 3]
000000 4d 80 83 3e 16 b7 82 be 88 94 97 3c dd 12 00 3e
       0.25683823 -0.25530308 0.018503442 0.12507196
000010 2c ae a2 bd 16 b9 91 be b1 de cf bc 8a 02 29 3e
       -0.07943377 -0.28461522 -0.025374742 0.16504875
000020 ad 9c ae 3d de 17 ae bd b2 a2 ae bd 51 92 67 be
       0.08525977 -0.08500646 -0.085271254 -0.22614409
000030 0e 03 43 be 33 dc 12 bd b3 79 62 bc 40 03 f0 3d
       -0.19044134 -0.03585453 -0.013822961 0.1171937
000040 cd ed bb bd 3f e7 52 3e cd 81 ac 3d 13 87 79 bd
       -0.09176216 0.20596026 0.08423195 -0.060919832
000050 8c 41 5d 3a 86 6e 21 3e e2 79 16 be 6e 4f 60 be
       0.0008440248 0.15764818 -0.14694932 -0.219053
000060 cd b8 5c bd 96 b9 2b 3d 1c e4 d8 3d b6 18 05 3e
       -0.053887177 0.041925035 0.105903834 0.12997708
000070 b9 b2 07 bd 83 1d cf 3d d1 9d 60 3d 59 9f 48 bd
       -0.033129428 0.10113051 0.054838005 -0.04898009
000080 cf 84 31 bd ee aa 9a 3e c6 bd 51 3e 30 09 69 3d
       -0.043339547 0.30208534 0.20482549 0.056893528
000090 c3 d4 25 3c 7a 52 e3 bd ff e3 c9 3d 2d f7 07 3d
       0.010121527 -0.110997155 0.0985794 0.03319471
0000a0 ee e8 6a be c3 37 2f be cb 47 b7 3d 86 81 d4 bc
       -0.22940418 -0.17111115 0.0894924 -0.025940668
0000b0 af 2a 60 3d 51 5f 2b bd 1b 07 da bd 15 e7 05 3b
       0.054728206 -0.041838948 -0.106458865 0.0020431925
0000c0 cd ab 3d be 23 3e a5 3c 89 cd ad bd 72 08 43 bd
       -0.18522568 0.02017123 -0.08486468 -0.047615476
0000d0 c3 f2 30 bd 3f 5c 82 3c 37 54 bb bd 7b 85 5a bd
       -0.043200266 0.015913127 -0.09146922 -0.053349953
0000e0 ed f7 90 be 7d 0e a2 3e d9 1a fe bd 5b df 9f 3d
       -0.28314152 0.3165168 -0.124074645 0.078062735
0000f0 da ca d0 bd 36 e9 57 3e b4 91 68 3c ac 01 c7 3b
       -0.10194941 0.21085057 0.014194895 0.0060731973
000100 6a fc ea 3d 3a f8 32 3d 10 4f 4c bc 52 19 e3 3b
       0.114739254 0.04369376 -0.012470022 0.0069305087
000110 91 d3 b9 3d b5 04 1b be c2 05 9e bd 64 43 fe bd
       0.09073556 -0.15138514 -0.07715942 -0.124151975
000120 fa bf 51 bd 36 b9 78 3e 42 60 8b bd 8b d6 f8 3d
       -0.051208474 0.24289402 -0.06805469 0.12150296
000130 db 91 a7 3c d9 3a d3 bc 9c 09 15 be 8d fd 62 be
       0.020455291 -0.025784897 -0.14554447 -0.22167034
000140 04 cd b9 bb eb b8 2d 3d 5d 7f 7d be 58 4f 1f be
       -0.0056701917 0.04241268 -0.24755616 -0.15557611
000150 ac 0f 7e bc e2 9d 19 3e b8 98 58 be d6 51 66 be
       -0.015506666 0.15001634 -0.21152008 -0.22492155
000160 3f d6 43 be 9c 50 6b bd 33 08 08 bd cb 94 22 be
       -0.19124697 -0.057449922 -0.033210944 -0.15877073
000170 65 5a 94 3b ca 6e d0 3d 04 82 3e 3e e6 40 39 bd
       0.0045273774 0.10177381 0.18604285 -0.045227908
000180 d2 21 71 3e 38 ca 1f be ac 5b d6 bd d4 9d 65 bc
       0.23548058 -0.15604484 -0.10466704 -0.01401468
000190 e3 f2 1e be 92 0d 83 bc 0c d5 0d 3d 1b 6b 46 bd
       -0.15522341 -0.015997682 0.034627005 -0.048441987
0001a0 5d df 1f 3c 0e 33 aa 3c d8 e0 cd bb 64 71 05 3d
       0.009757844 0.020776298 -0.006282907 0.03257884
0001b0 24 66 8e 3d 85 3e 21 3e ae df 2a 3d 58 f2 ec 3c
       0.069530755 0.15746506 0.041717224 0.028924152
0001c0 e8 cf 5c 3c 6b ea 38 bd 05 c7 f4 3c f0 17 2a be
       0.013477303 -0.045145433 0.029880056 -0.16610694
0001d0 91 b9 0e be 75 3e ff bb fd e8 dd 3c ae 3a ea bd
       -0.13937975 -0.007789428 0.027088637 -0.114369735
0001e0 b1 86 b0 3d 33 a5 4d bd f4 43 3b 3e b6 d3 0e 3d
       0.0861944 -0.050206374 0.18287641 0.034869872
0001f0 23 e0 64 bd c3 8f 41 bd cc 2d 28 3d 2f f0 01 be
       -0.055877816 -0.047256242 0.0410593 -0.12689279
000200 d5 3c 5a bd 30 be 12 be 13 12 38 bc af 57 98 bd
       -0.05328067 -0.14330363 -0.011234778 -0.07438599
000210 8a 0f e8 bd 24 ea 01 3b dc 52 a3 3d 4f 18 15 bd
       -0.11331089 0.0019823397 0.079747885 -0.036400136
000220 ee 99 6f 3d 98 a6 c3 3b c8 19 e9 3d a7 8d 41 3e
       0.05849641 0.0059707873 0.113818705 0.18901692
000230 28 07 8c 3d b8 12 67 3d 2f 2c bd 3d 02 00 ed bb
       0.068373024 0.056414336 0.09236943 -0.007232667
000240 df a5 79 3c 1f a2 9d 3c af 6c 70 3c ca 53 40 3e
       0.015237301 0.019242344 0.01467435 0.18781963
000250 fd 3b 56 3d ac bb d1 bc 1b 17 2a bd 01 ed 81 be
       0.052303303 -0.025602184 -0.04152594 -0.25376132
000260 46 af 9d 3e ff 00 9f bc 29 fa 3d 3e 45 b0 58 be
       0.30797786 -0.019409655 0.1855246 -0.21160991
000270 cc 15 ae bd fa ff eb 3d d3 a6 90 bd d7 98 c2 3d
       -0.08500251 0.11523433 -0.07063069 0.09501808
000280 55 99 ce 3d 4c b2 38 be 88 42 3a bc 6f 97 04 be
       0.100878395 -0.18036765 -0.011368401 -0.12948392
000290 89 5b 30 be 59 fb ce bd cc 58 db 3c b6 9d 80 3d
       -0.17222418 -0.101065345 0.02677574 0.06280081
0002a0 1b 6a bf bc 8c 17 f7 bd a5 74 0a be aa d7 00 be
       -0.023366025 -0.12065038 -0.13521059 -0.1258227
0002b0 b2 41 eb 3d 9a 9d 34 3e ad 38 e4 bd cf 3c ee bd
       0.1148714 0.17638245 -0.111436225 -0.11632692
0002c0 fd 84 7f be 31 ec 11 3e 37 c3 00 be 6b 25 2f 3e
       -0.24953075 0.14250256 -0.12574469 0.17104118
0002d0 80 6d fb bd 45 fd 7b 3d 39 00 5f bd a1 8e b0 3d
       -0.12276745 0.061520834 -0.05444357 0.08620954
0002e0 34 d5 1a 3e 18 7a f0 3a 65 75 48 3d 48 f7 cd 3c
       0.15120393 0.0018346934 0.04894008 0.025142327
0002f0 4e b2 3b bd 1b f9 bd bc f6 67 be 3d ff da d4 3d
       -0.04582434 -0.023190072 0.09297173 0.10393333
000300 82 b3 c9 3b cc f9 60 3e 7d 1a 60 be d2 8f 1f bd
       0.006155432 0.2197029 -0.21885104 -0.038955517
000310 21 0c f9 bc 26 72 06 be a8 19 de bd 1a 13 ae bd
       -0.030401291 -0.13129482 -0.10844737 -0.08499737
000320 c3 64 20 be 4d d3 2a 3c 00 ed 8b 3d dc 1b 47 3e
       -0.15663438 0.010426355 0.068323135 0.19444221
000330 d9 2d cd 3d 0c b2 df 3e 06 2e 9e 3d 64 8e 43 3e
       0.1001851 0.43690526 0.07723622 0.19097286
000340 31 2e aa 3d ba b6 29 3d 35 78 02 be 30 80 1d 3e
       0.083095916 0.041434027 -0.12741168 0.15380931
000350 d0 39 4a be d6 a4 35 3e d3 92 c5 ba 6e 21 38 be
       -0.19748616 0.17738661 -0.0015073664 -0.17981502
000360 71 9b 80 bd f1 a4 82 3d 48 90 64 3e 28 3a 8d 3e
       -0.06279648 0.06379116 0.22320664 0.27583432
000370 e2 31 9d 3d 98 dc 22 be ee 02 1f be a4 fa fb bd
       0.0767553 -0.15904462 -0.15528461 -0.12303665
000380 b2 32 13 3e 9e a6 dc 3d 7e b1 fd bd 36 c0 5c be
       0.14374807 0.10773967 -0.123873696 -0.21557698
000390 82 90 f4 bd 9d ad 7d 3e 00 61 8d 3e 57 29 c9 be
       -0.11941625 0.2477326 0.27613068 -0.39289352
0003a0 f7 0c aa 3e d5 03 40 3e e4 2f 87 bd 54 ae 56 bc
       0.33213016 0.18751462 -0.06600931 -0.0131030865
0003b0 a6 04 6c be 89 61 3d 3e c4 0f 29 3e 0a 68 0e 3d
       -0.23048648 0.18494238 0.1650992 0.034767188
0003c0 73 ac 5f be 2d 0d 87 3b 27 9f b0 3d 7f 9c a6 bd
       -0.21843128 0.0041214437 0.08624106 -0.08135318
0003d0 24 cb 71 be 41 ee 48 bd 8e 21 e7 bb b3 49 cf 3d
       -0.23612648 -0.04905534 -0.0070535606 0.10121479
0003e0 09 5e 9c 3e 1d 1e 3a be 0c fd c2 be f1 07 94 3c
       0.30540493 -0.1817555 -0.38083684 0.018070193
0003f0 22 8a 04 3c 6c f7 27 be 8f 0e 4b bd bd c7 d3 3e
       0.008089574 -0.16402978 -0.04957443 0.41363326

weight f4 [8]
000000 52 cb 7e 3f bf 9d 62 3f 9a 5d 66 3f a2 cf 89 3f
       0.9952899 0.8852195 0.89986575 1.076649
000010 35 4d 6a 3f 57 7c 73 3f f4 8f 95 3f 62 5f 84 3f
       0.9152406 0.951116 1.1684556 1.0341609

bias f4 [8]
000000 fc 89 e9 bd c7 73 97 bd a1 d3 7b bd 16 90 8c be
       -0.114032716 -0.0739513 -0.061481122 -0.2745368
000010 1b 62 02 be 2e ad b6 bd 02 62 ae be f9 19 5c be
       -0.12732737 -0.0891975 -0.3405915 -0.21494283

running_mean f4 [8]
000000 f2 1f ed bd 3c 45 c1 be 33 92 85 3e fa d5 a8 be
       -0.11578359 -0.37748134 0.26088104 -0.3297575
000010 3f b6 98 bf 66 30 b7 be 98 be 01 3e c6 13 62 bf
       -1.1930617 -0.35779113 0.12670362 -0.8831142

running_var f4 [8]
000000 97 59 0a 3f c0 2e 3c 3f 89 39 c8 3e 1f 8e 32 3f
       0.54042953 0.73508835 0.39106396 0.6974811
000010 9e b1 e4 3e 1f 50 2e 3f ad 2d 48 3f bc 7f cd 3e
       0.4466676 0.68091005 0.78194696 0.40136516

weight f4 [8, 8, 3, 3]
000000 6a 23 6e be c0 57 90 3c a1 62 c9 bd 0b ed 8b bd
       -0.23255697 0.017619967 -0.09833265 -0.06832322
000010 ab 52 92 3e 8d 8e 0c be 9a e6 92 bb 2c fa 7c 3e
       0.28578696 -0.13726254 -0.0044830563 0.24704808
000020 95 8d 39 bd c1 ae 39 be 16 ec 00 3e 97 88 4a 3d
       -0.04530104 -0.1813307 0.1259006 0.04944667
000030 7f 49 5b bd eb 64 71 bd 61 4c aa 3d 93 5b 59 3d
       -0.05353689 -0.058934133 0.08315349 0.053065848
000040 86 78 a3 bc ff 9a ab bd 3e 28 38 3e 00 85 02 be
       -0.019954931 -0.083791725 0.17984101 -0.12746048
000050 47 3f 5a 3c f0 74 69 3c 7a 82 38 3d ed 63 02 be
       0.013320751 0.0142490715 0.045046307 -0.12733431
000060 4c 61 a1 bd 5d bc d0 3d 5d 79 b5 bd 58 6e 29 3e
       -0.07879886 0.101921774 -0.08861039 0.16545999
000070 3e 8c 92 3e 6d 64 a3 3e 48 74 1d be df 7b f3 bd
       0.2862262 0.31912556 -0.15376389 -0.11888861
000080 34 dc 60 3e d2 c6 81 3d 0b 76 35 3e 6e fb fd bd
       0.21959001 0.0633675 0.17720811 -0.12401472
000090 0f fb 0a bc cf 5f f0 bd 29 eb cd 3d 7c 46 34 3d
       -0.008482709 -0.11737024 0.10054619 0.04401253
0000a0 2e 66 76 3c 62 b2 c7 3d 3a ee 96 bd 90 f6 8a 3a
       0.01503901 0.09750821 -0.07369657 0.0010602046
0000b0 70 8d da 3d c4 91 3c be 6a ea 9b bc 26 a7 29 bd
       0.10671508 -0.1841498 -0.019032676 -0.04141917
0000c0 9f ae 3d be db ea 7a bd 3d fc b1 3c d8 68 fb 3d
       -0.18523644 -0.061259132 0.021726722 0.12275857
0000d0 8c 52 2b be 8e 80 23 be 4d fa 92 bd 72 a7 9b bc
       -0.16730708 -0.15967008 -0.07176647 -0.019000743
0000e0 3f 77 6a 3e f3 7c 5c bd 81 2a 97 be 71 37 c4 3e
       0.22897051 -0.0538301 -0.29524615 0.38323548
0000f0 b5 4a 53 3e 58 bc b3 3d 9f 03 87 3e f0 3c 61 3e
       0.20633967 0.08776158 0.2636995 0.21995902
000100 36 36 20 bd c3 03 bc 3c 4f 36 33 3e 26 24 0b 3e
       -0.0391142 0.022951012 0.17501186 0.13588008
000110 89 a9 1f 3c 9d 57 6a 3e a8 44 95 3d bf 8e 97 bd
       0.00974501 0.22884984 0.07288486 -0.074002735
000120 59 06 2c be e1 60 9e bc 74 4e 79 3c 50 f6 83 ba
       -0.16799296 -0.019333305 0.015216459 -0.0010067914
000130 f6 06 37 be 2a 38 1f be 47 8a b0 3d 49 b7 0e bc
       -0.17873749 -0.15548769 0.08620124 -0.008710691
000140 53 52 9f 3e 16 e1 88 3a ff 47 ce 3c 2c 0e fc bb
       0.31117496 0.0010443057 0.025180815 -0.007692119
000150 b2 e0 12 be c3 94 33 be 80 c6 ae 3d 63 36 8a bd
       -0.14343527 -0.17537217 0.085339546 -0.06748655
000160 fe b5 ac 3d 5e 4a bb 3c 5d 00 53 3c b5 3d 3a 3e
       0.0843315 0.02286261 0.012878505 0.18187602
000170 04 6a f8 bc 7d 1c 0e be f3 2e 41 3d f7 07 af 3d
       -0.03032399 -0.13878055 0.047163915 0.08546441
000180 4e e2 25 be 62 6a 2e be 5e 07 7b bc 65 8c 2c 3d
       -0.1619961 -0.1703277 -0.015321581 0.04212608
000190 d0 f8 21 3e 62 b8 b7 3e 35 b0 5e 3e ad 0d 2e 3e
       0.1581757 0.3588286 0.21746905 0.16997404
0001a0 d3 32 de 3d 2d b5 b4 bd a4 46 87 3e 63 e8 77 3e
       0.10849538 -0.08823619 0.26421082 0.24209742
0001b0 d2 93 1d 3e b6 67 cd bc 19 81 0d be 87 f2 5b bd
       0.1538842 -0.025073867 -0.13818778 -0.05369809
0001c0 44 9f 37 be d3 22 6b bd 82 df 03 3d a0 6b 84 bd
       -0.17931849 -0.057406258 0.032195576 -0.0646584
0001d0 c1 f2 8f 3c 42 ae ae bd 42 d6 5a bd d9 0b fc bc
       0.017571809 -0.08529331 -0.05342699 -0.030767368
0001e0 ed 39 30 bd 20 c2 e5 bc ee 55 c6 bd 87 70 98 bd
       -0.043023992 -0.028046668 -0.096843585 -0.07443338
0001f0 54 84 51 3b a4 72 7d 3d 8a 57 b0 3d 35 02 89 be
       0.0031969743 0.061876908 0.08610447 -0.26759496
000200 0b c9 2d 3e 70 44 c4 3e ce 87 e9 bc be 73 c4 bd
       0.16971223 0.38333464 -0.02850714 -0.095923886
000210 5b c7 e2 3d 3a 23 ba 3e d2 1b 95 3e 9f 7f 65 3e
       0.1107318 0.36355 0.29122788 0.22411965
000220 b0 8f 3e be 32 33 5c bd b2 dd 92 3d bb b4 14 bd
       -0.186095 -0.05375976 0.07171191 -0.03630517
000230 f7 3d b4 3d 7e ef 63 3d c0 62 03 bd 33 28 33 3e
       0.08800881 0.05564832 -0.032076597 0.17495804
000240 64 01 ff 3c 97 d8 f6 3d e0 46 70 3e 7d 7e c8 3c
       0.031128593 0.1205303 0.23464537 0.024474377
000250 39 ec c4 bb 55 a5 09 3e 49 87 ea 3c 76 c6 12 3d
       -0.0060096052 0.13441975 0.028628962 0.0358338
000260 cf e5 36 bd e6 79 2e 3d 94 fe 24 bd 9a 36 b5 bc
       -0.044652756 0.04259672 -0.040281847 -0.022120763
000270 3a 98 b1 3b 81 89 59 3c e3 c5 08 be ee 0a a3 bd
       0.005419758 0.013277412 -0.13356738 -0.07961069
000280 c5 25 70 bd 55 03 a1 bd 30 9b 09 3e eb e3 a9 3d
       -0.05862977 -0.07861964 0.13438106 0.08295425
000290 6b fb 20 bc 16 f8 08 3c 6f 7a 10 3e 68 aa ad 3d
       -0.009825568 0.00835993 0.14109205 0.08479768
0002a0 7f 92 96 3c 6a 8c bc 3c 9d 44 9a 3d 4b 3c d9 3b
       0.018380402 0.023016173 0.07532618 0.006629502
0002b0 2d 92 92 bd 35 39 4e be 67 b7 5b ba 0d 0b 87 bd
       -0.07156787 -0.2013901 -0.0008381516 -0.06593905
0002c0 9a e1 57 3e 09 fb dd bd fa 52 1f 3e f5 06 9b 3d
       0.21082154 -0.10838897 0.15558997 0.07569686
0002d0 b8 31 b0 bd dc 24 fb 3c 23 db b4 3c 1e 63 5f bd
       -0.08603233 0.030657224 0.022077149 -0.054537885
0002e0 6c af 9c bc f5 38 f7 3d 80 78 a6 bd bc d2 78 bd
       -0.019126616 0.120714106 -0.08128452 -0.060747847
0002f0 ec e3 1e 3d d6 d9 03 bd 30 b4 e4 3d a1 06 26 3c
       0.038791582 -0.032190166 0.111671805 0.010133416
000300 80 e2 66 bd 5a 93 1c bd bb 4c 2a bd 02 bc b8 3d
       -0.05636835 -0.038226463 -0.041577082 0.09020235
000310 1b ab 61 bd e0 56 18 3e 5e 84 1a be 54 57 47 be
       -0.05509482 0.1487689 -0.15089557 -0.19466907
000320 23 3f 0d be 63 e4 b4 bd 54 25 c7 3c d5 d2 c8 bc
       -0.13793616 -0.08832624 0.024309792 -0.024514595
000330 dc e1 73 3c ff 6c 7d 3c 9a a7 33 be 66 34 e8 bc
       0.014885392 0.015467881 -0.17544404 -0.028345298
000340 93 ef 5c bd 1c 31 ba 3d 46 68 15 3d 49 4a 02 bc
       -0.053939413 0.09091398 0.036476396 -0.007952281
000350 2d c2 17 bd 08 d9 34 3e c8 19 3d bd cc 42 9b bd
       -0.037050415 0.17660916 -0.046167165 -0.075811
000360 dd 2c 3d 3d d1 4f 15 3e b2 db 2a 3a a0 98 a9 3b
       0.046185363 0.14581229 0.00065177225 0.005175665
000370 02 13 dc bd ca b6 fb bd ef d5 c5 3d a3 6f f3 3d
       -0.10745813 -0.122907236 0.09659945 0.118865274
000380 a7 11 ba bd a7 1e b3 bc 55 41 2f 3e 2a 8e 9f bd
       -0.09085398 -0.021865202 0.17114766 -0.077907875
000390 39 75 c7 bc a5 ba 9f 3d e6 21 f9 3d bd 88 9f 3d
       -0.024347888 0.077992715 0.12164669 0.07789753
0003a0 f5 a7 a3 bd 2e 3d 67 bd c0 b4 db bd 56 42 ff 3d
       -0.0799102 -0.05645483 -0.10727835 0.124638245
0003b0 a8 68 9b 3d f6 de 0f 3d f8 87 b9 3d 22 d6 11 3e
       0.07588321 0.03512474 0.09059137 0.14241841
0003c0 b5 96 d9 bc 4f 77 49 3b 3a 97 fe bd cf 2f b7 bd
       -0.02656112 0.003074128 -0.12431188 -0.08944666
0003d0 3c 3b b6 3d d2 ff 09 be de 7b b0 bc 18 0d de b8
       0.08898017 -0.13476494 -0.02154344 -0.00010588224
0003e0 08 69 86 3d a4 c3 71 3e eb 80 18 3d 5d 6e 1a 3d
       0.06563002 0.23609787 0.03723232 0.037702907
0003f0 d6 bb 8f bd ba 8f 03 3e 63 d2 d3 bc f3 6f 1d be
       -0.07018249 0.12847796 -0.025857156 -0.15374736

weight f4 [8]
000000 c7 05 84 3f fb 85 8b 3f 5c 1c 75 3f e0 e1 58 3f
       1.0314263 1.0900263 0.957464 0.8471966
000010 ff cb 59 3f a0 15 7c 3f 07 96 81 3f d4 0a 58 3f
       0.850769 0.984705 1.012391 0.8439152

bias f4 [8]
000000 62 0d c2 be b6 87 96 be d6 3b 16 be 0b d0 37 be
       -0.37900835 -0.29400414 -0.14671263 -0.17950456
000010 19 57 a1 be 21 27 ff be f8 85 d2 be 77 5b 38 bd
       -0.31511763 -0.4983454 -0.41117835 -0.045009103

running_mean f4 [8]
000000 ca 7d c0 3e 95 1b 9d 3e 18 86 b0 bc 85 24 e7 3e
       0.3759597 0.30685106 -0.021548316 0.4514505
000010 d0 bc 57 be 37 b7 a9 3e 46 38 14 3f 5e 93 92 be
       -0.2106812 0.33147594 0.57898366 -0.28628057

running_var f4 [8]
000000 5e 14 fb 3e 68 f0 31 3f 31 32 3f 3e 65 2a 4f 3e
       0.49038976 0.69507456 0.1867149 0.20231016
000010 cf d1 6c 3e 00 ea d0 3e ab 54 cd 3e cf c8 4d 3e
       0.2312691 0.40803528 0.4010366 0.20096134

weight f4 [16, 8, 3, 3]
000000 4a 3d 7b 39 0b 61 75 3d 6a 4a dc 3c f4 84 36 be
       0.00023960057 0.059907 0.026890952 -0.17824155
000010 71 50 9e 3c c3 6f 28 3c de 2d 48 bc 30 cf 2f bd
       0.019325467 0.010280552 -0.012217967 -0.0429222
000020 ea ad d2 bd fa 49 91 3c af a6 a9 bb 26 d0 b4 bd
       -0.10287078 0.01773547 -0.005177341 -0.08828764
000030 11 f7 e5 bd 84 32 e6 3d 3e 7b 91 bc 14 0b a4 bd
       -0.11228765 0.11240104 -0.017758962 -0.080099255
000040 39 f7 f8 3d 52 97 ef 3d 3d 7b b9 3c c1 fd b1 bc
       0.12156529 0.11698784 0.022641772 -0.021727445
000050 59 b9 94 bd a8 b6 17 bd 90 cb 60 3d f9 3d 4b 3c
       -0.07261915 -0.03703943 0.054881632 0.012404912
000060 4f 32 21 bd 63 6b 51 3e 45 9c 46 be cb 81 53 bd
       -0.03935462 0.20451121 -0.1939555 -0.051637452
000070 20 a3 b9 bd b1 5d 55 3c f4 dd 7d 3c 7a f2 7a b8
       -0.09064317 0.013022826 0.015494812 -5.983047e-05
000080 cc 85 b9 bc e9 4d e2 3a 41 6d 96 bd 5c 30 6c 3d
       -0.022646807 0.0017265651 -0.07345057 0.057663307
000090 ea 17 8d bd c5 6a 12 bd 82 f0 b5 bb 29 66 a8 3d
       -0.06889327 -0.035746355 -0.0055523524 0.082226105
0000a0 f0 7d 2b 3e ea a4 f5 bd 24 8e 35 3d 06 1e ea 3d
       0.1674726 -0.119943455 0.04432501 0.11431508
0000b0 88 4b 77 bd 55 58 17 3c 82 23 96 3c ca 69 92 bd
       -0.060374767 0.009237369 0.018327478 -0.07149084
0000c0 79 39 ad 3d e9 28 ae bd a0 c2 84 be a3 8e e3 3c
       0.08458228 -0.08503897 -0.25929737 0.027777975
0000d0 ed 47 ad bb a7 d2 87 3d b7 5a 60 bd 23 36 68 3d
       -0.0052881152 0.066319756 -0.054774012 0.056692254
0000e0 f3 e7 13 3c 6c 61 ea 3c fa cf f3 bd 21 b9 88 bc
       0.009027469 0.028610907 -0.11904903 -0.016689839
0000f0 5f e5 08 bd 74 a1 04 bd 73 83 a0 bd e8 20 04 bb
       -0.03342187 -0.032380536 -0.07837572 -0.0020161215
000100 5d 0b 7d 3d fd 1e 96 3d 13 fe f4 bd 37 ab 4f 3d
       0.061778415 0.07330129 -0.11962523 0.050700393
000110 88 64 4a 3d 94 83 ca 3d 72 1e 4a 3b c4 77 c0 bd
       0.04941228 0.09888378 0.00308409 -0.093978435
000120 74 68 42 be 48 a9 b2 3c fe fc b9 bd 08 be 0d be
       -0.18985158 0.021809235 -0.090814576 -0.13842022
000130 62 e9 2f bd a3 54 c9 3d 52 f7 22 bd 26 bb bd 3d
       -0.04294718 0.09830596 -0.039786644 0.09264211
000140 1a e8 16 be 9f 05 fe bd 79 c7 a7 bc 41 2d c8 3d
       -0.14736977 -0.12403416 -0.020480858 0.097742565
000150 05 87 9f 3d 1b 9e de 3d 80 cf 5f bd d4 52 e7 3c
       0.07789425 0.1087 -0.054641247 0.028237738
000160 63 39 50 3d af bf 85 3d 19 03 51 bd 1c e4 34 bd
       0.05083598 0.06530701 -0.051028345 -0.044162855
000170 71 ab 8f bb 53 6f 19 be 04 a7 1f bd 4e ff 1d 3e
       -0.004384451 -0.14983873 -0.038977638 0.15429422
000180 15 8a 1b be 93 39 5a 3c 35 3e a6 bd 6d 51 f2 3d
       -0.15189393 0.013319391 -0.08117334 0.11831937
000190 36 79 72 3d 1b 67 a8 bd df a0 b4 3d b5 95 b0 bc
       0.059197627 -0.08222791 0.08819746 -0.02155576
0001a0 d9 0d d6 bc 3a 07 ef 3c e9 c5 2c 3d fb 22 b5 bd
       -0.02612965 0.02917825 0.04218093 -0.088445626
0001b0 06 f2 95 bd 16 dd 8f bc 0e b5 9a bb ae 83 87 bd
       -0.07321553 -0.017561477 -0.0047212904 -0.06616913
0001c0 cc a2 39 3d a2 df 1b 3e 2c 01 90 bd fc f3 5f 3d
       0.04532127 0.15222028 -0.070314735 0.05467604
0001d0 48 72 03 3e 31 89 dd 3b a1 45 16 3d 09 60 18 3e
       0.12836564 0.0067607393 0.036687497 0.14880385
0001e0 39 dc 8d 3d 4d 4f 64 3e 99 11 a4 bd 2a 53 87 3d
       0.0692677 0.22295876 -0.08011169 0.06607659
0001f0 f9 37 4a bd f5 c3 4c be 9a ab 86 bd f7 5f 41 be
       -0.049369786 -0.19996627 -0.06575699 -0.18884264
000200 08 26 84 3e 20 1f 0c 3e 77 f9 12 3e e1 d0 c8 bd
       0.25810266 0.13683748 0.14352976 -0.098054655
000210 8f e7 a4 3d a0 51 60 bd e7 11 dc 3c 66 42 2d 3d
       0.08051979 -0.054765344 0.026864005 0.04229965
000220 13 d0 fd bc 99 c0 98 3c fa f2 e9 bd ee ae 28 bd
       -0.030983007 0.018646525 -0.11423297 -0.04118245
000230 dc 53 62 3d 37 0b f7 3b 5b 6f 0c 3d a0 48 3f 3d
       0.055255756 0.0075391787 0.034285884 0.04670012
000240 8d 60 19 bd 8c 01 b6 3c 92 1e 37 bd b1 cf 75 be
       -0.037445594 0.022217534 -0.04470689 -0.24005009
000250 f3 dd 07 be 77 a2 e8 3d 69 fe f3 bd 97 08 32 bd
       -0.1326826 0.11359113 -0.11913759 -0.043465223
000260 b2 f2 16 be 80 b8 60 b9 4a 0a 82 bc 38 05 63 bc
       -0.14741018 -0.00021431036 -0.015874047 -0.013856225
000270 14 38 7f 3e 79 80 6b 3e 69 95 4d bc fe d8 60 3d
       0.24923736 0.22998227 -0.012547829 0.05489444
000280 e7 b8 81 3a e5 13 59 3c 6d c5 47 3e ce bc a0 3d
       0.0009897024 0.013249372 0.19508906 0.07848512
000290 c1 b4 a8 3d 0b 11 38 be a3 ee 87 bd 84 67 d2 bd
       0.08237601 -0.17975251 -0.06637313 -0.1027365
0002a0 c6 cb d2 bd a0 17 c4 bc 74 54 5f bb 08 5d f9 3d
       -0.10292773 -0.023937047 -0.0034077438 0.121759474
0002b0 b0 1a 6e 3c a0 c5 2b bd 48 4c 3c 3d 9e 43 c3 bd
       0.01453273 -0.041936517 0.045971185 -0.09534381
0002c0 31 f2 8d 3d 01 1c 19 3d a5 72 75 3d 81 96 c3 bc
       0.0693096 0.037380222 0.059923787 -0.023875477
0002d0 2e f5 31 be 9a 17 fb bd e0 5a 69 3d f7 f3 ac 3d
       -0.17378685 -0.12260361 0.05697143 0.0844497
0002e0 c0 63 3d 3c 4a 82 c0 3b c9 f4 ac bd 7b 50 31 3d
       0.011559427 0.0058749067 -0.084451266 0.043289643
0002f0 39 01 7c bd 1e 94 02 3e d8 2f 8b 3e c8 9c 1a 3e
       -0.061524604 0.12751815 0.2718494 0.1509887
000300 0c 99 e9 3d 70 ab 61 3e a1 94 29 3e 11 d6 6a 3e
       0.114061445 0.22038054 0.16560604 0.22933222
000310 58 2a ac 3d 3a 4f 1c bd 7e 42 43 be 86 69 62 be
       0.08406514 -0.038161494 -0.19068334 -0.22110566
000320 9a 31 db bd 36 c6 89 3d 01 5c cb 3e 2a a5 8c 3e
       -0.1070282 0.06727259 0.3971863 0.2746976
000330 33 0f 1a 3d 7a 31 2e be be 1c 85 bd 34 10 28 3d
       0.03761215 -0.17011061 -0.06499623 0.041031078
000340 fd b2 2e be ce 74 01 be 21 c9 03 be 77 c9 6b bd
       -0.17060466 -0.12642214 -0.12869693 -0.05756518
000350 68 d7 9c 3d f2 97 65 bd 25 d1 08 bc f5 de 0a 3d
       0.07658273 -0.05605311 -0.008350645 0.033904035
000360 4e e6 fa 3c 3d dd b8 bb 02 0c f3 bc 6f 1b 94 3c
       0.030627396 -0.005641608 -0.029668812 0.018079488
000370 ba 01 f6 ba 5c 8b 8c 3c 25 20 b2 3c 96 a7 e5 bd
       -0.0018768825 0.017156295 0.021743843 -0.11213605
000380 ec ad 2b be 0c 0c 24 bd 31 76 03 3d db b7 28 bd
       -0.16765565 -0.04005055 0.032095138 -0.041190963
000390 a2 c8 84 bd e3 f9 1a be ab cf 12 be 6f f3 81 bd
       -0.0648358 -0.15134387 -0.14337032 -0.063452594
0003a0 ff 24 0b be dd 4a 45 be 2b de 8b 3d f1 88 1e be
       -0.13588332 -0.1926684 0.068294846 -0.15481927
0003b0 57 05 65 bd ab 15 bf 3d 2c b5 94 bd d4 62 b9 bc
       -0.055913296 0.09330305 -0.07261118 -0.022630133
0003c0 2f 74 9c bc cb 5c 9a bd ab e2 91 bd 54 73 87 bd
       -0.01909837 -0.0753723 -0.071233116 -0.06613794
0003d0 b5 30 9c bc 39 f9 81 bd b6 09 65 bd c7 ce b5 bd
       -0.019066194 -0.063463636 -0.055917464 -0.0887733
0003e0 c1 93 22 3d 84 e7 12 3d 5b b8 c1 bd a2 59 c7 bd
       0.03969169 0.03586532 -0.09458991 -0.09733893
0003f0 0d 06 50 3d ed 8f 85 bd c7 8a 98 bc c4 70 3b 3d
       0.05078702 -0.06521592 -0.018620862 0.04576184

weight f4 [16]
000000 b4 4c b3 3f 53 6c ba 3f 84 5a e1 3f f1 0a b4 3f
       1.4007783 1.4564308 1.7605748 1.4065839
000010 ae 65 b3 3f a3 ca a9 3f 2b d5 a4 3f 8a 2f c4 3f
       1.4015405 1.3264965 1.2877554 1.5327008
000020 78 05 a3 3f de 29 9e 3f 47 e2 b9 3f 99 33 92 3f
       1.2736044 1.2356527 1.4522179 1.1421996
000030 c2 fe 93 3f 33 d3 a1 3f 86 8e 9e 3f 60 3a 92 3f
       1.1562121 1.2642578 1.2387245 1.1424065

bias f4 [16]
000000 5d be 64 3e c8 6c 4e 3e cd e0 d3 3c 32 05 e0 3e
       0.22338243 0.20158684 0.02586403 0.43753964
000010 62 9b d6 3c 05 de f8 3d b7 30 83 3e a0 f2 a4 3d
       0.02619714 0.12151722 0.25623104 0.080540895
000020 79 3c 65 bc 52 c9 7e 3b f9 76 02 3c e3 26 06 3c
       -0.013991469 0.003887732 0.007962936 0.008187982
000030 e4 38 02 bb f7 50 35 bc f2 b8 96 3c 49 f7 0e bc
       -0.0019870335 -0.011066667 0.018398736 -0.00872595

running_mean f4 [16]
000000 96 93 88 bd 13 bc 6b bd d1 20 32 be 66 8e ef be
       -0.06668775 -0.05755241 -0.17395331 -0.4678833
000010 ba 9b 92 bc 20 4c 0d bd 00 03 83 be 3d 32 e9 bd
       -0.017896522 -0.034496427 -0.25588226 -0.11386535
000020 01 00 04 3e c7 20 3f 3e ae 16 2d 3e 78 52 af 3d
       0.12890626 0.18664847 0.16903183 0.085606515
000030 ee ff 25 3e 46 73 2f be ae 7e 43 3e 36 6f 55 3e
       0.1621091 -0.17133817 0.19091293 0.20843205

running_var f4 [16]
000000 79 a7 20 3e 44 29 06 3e 5e 32 f5 3d 66 3b 66 3e
       0.15688886 0.13101679 0.119724974 0.22483596
000010 ee 97 2b 3e 38 ad 15 3e d4 af ea 3d 88 2b 37 3e
       0.16757175 0.14616859 0.11459318 0.178877
000020 be 26 0c 3e e0 fb fc 3d 52 f0 da 3d 42 02 07 3e
       0.13686654 0.12352729 0.10690369 0.13184455
000030 85 29 b9 3d 54 09 c2 3d a5 97 80 3d 9c 24 7b 3d
       0.09041122 0.094744354 0.06278924 0.06131421

weight f4 [64, 96]
000000 20 05 83 3d 7c 78 78 bb cf b3 50 bd 8e 50 04 3d
       0.06397462 -0.003791361 -0.05095273 0.032303385
000010 45 3a 5b 3d ed 27 87 3d 42 a3 89 3b 3b f0 0b bd
       0.053522367 0.06599412 0.00420037 -0.03416465
000020 11 12 82 3b 0d 7c 06 bd 81 98 b9 3d c9 54 d0 3c
       0.003969439 -0.032833148 0.09062291 0.025431054
000030 59 a5 8e 3d 4a f8 8a bc d2 82 68 3d ed f1 a5 bd
       0.06965131 -0.016964097 0.056765385 -0.08102784
000040 ea 41 0b bc 90 76 7c 3d c8 94 8b bd c6 9f cf 3d
       -0.008499602 0.061636508 -0.06815487 0.10137896
000050 e6 03 e7 3b fa 73 5d 3d c7 15 69 3d 65 fd c5 3d
       0.0070500253 0.054065682 0.056905534 0.09667472
000060 39 c6 9f bd ad 62 ac bd 99 aa 83 3d 9b ac ed 3d
       -0.0780148 -0.084172584 0.06429023 0.116051875
000070 68 0c fe bc c3 dc a0 3d 50 64 41 3d 2e 54 6a bd
       -0.031011775 0.07854607 0.047214806 -0.057209186
000080 f2 fb b9 bd 32 c1 27 3d 68 0f d3 3d 8b 58 d7 bc
       -0.09081258 0.04095573 0.10305673 -0.026287338
000090 62 af 75 bd 82 df 8d bd 0f 89 02 bd 3a 9c d1 b8
       -0.05998171 -0.06927396 -0.03186899 -9.994996e-05
0000a0 02 1b 8d bd 99 d2 c6 bd da a8 eb 3c 69 06 c9 bd
       -0.06889917 -0.09708137 0.028767038 -0.09815676
0000b0 5f fa 64 3d bc 20 7b bd 5f bb a3 3d b1 be 2a 3d
       0.055902835 -0.061310515 0.079947226 0.041685764
0000c0 5e 5e 02 bd 8e 56 62 3d b9 94 71 3d 10 ae b4 3c
       -0.031828277 0.055258326 0.058979724 0.022055656
0000d0 fa 2c db 3d 5d d7 e8 bc 5e 3e 9f 3d 50 94 8b bd
       0.10701938 -0.028423006 0.077755675 -0.06815398
0000e0 9e 58 6d bd 40 01 f9 bc 7e df cf 3b bc 99 e2 bc
       -0.05794584 -0.030396104 0.006343781 -0.027661197
0000f0 ee ef b0 3d fa 25 36 3d 3e ec a0 bd 1a 5c 0c 3d
       0.08639513 0.04446981 -0.078575596 0.034267522
000100 59 c8 38 3d c3 57 8b bd c8 15 6c 3d 11 12 07 3d
       0.04511294 -0.068038486 0.05763796 0.032976214
000110 81 a6 b8 bd b0 b4 ff 3a 2c 13 62 bd 7a db 97 bc
       -0.09016133 0.0019508805 -0.055194065 -0.018537272
000120 68 d4 8b bd ae 56 22 bd e1 ce c6 3c 8e 14 40 bd
       -0.06827623 -0.039633445 0.02426857 -0.046894602
000130 e5 02 77 3c 74 7c 6d 3d 94 61 85 bc 34 00 a8 bd
       0.015076374 0.057980016 -0.01628188 -0.08203164
000140 50 e4 58 3c 54 a1 a7 bd 4e 35 4b bd b3 4e 26 bd
       0.013238028 -0.08185068 -0.049611382 -0.040602397
000150 26 c9 be bd 00 27 00 3e 42 07 1d bd 5d a3 aa 3c
       -0.0931571 0.12514877 -0.038337 0.02082985
000160 91 18 9b bd 76 04 f9 bc fb d6 6e bd f2 dc 02 3d
       -0.07573045 -0.030397635 -0.05831049 0.03194899
000170 34 56 26 bd 17 df 52 bc 6c 53 9f 3d eb d3 5e 3c
       -0.040609553 -0.012870572 0.07779583 0.01360033
000180 f3 26 3d 3d 4d d6 f2 bc bf 92 af 3d ef b2 73 bc
       0.046179723 -0.029643202 0.085729115 -0.014874204
000190 b8 94 8f bd 59 2a b2 3d 30 78 fb 3b 11 2b 94 bc
       -0.07010788 0.086994834 0.0076742396 -0.018086942
0001a0 cd 97 ca bd f5 5b 98 3d 86 a6 b7 bd b8 ba 87 3d
       -0.09892235 0.074394144 -0.08967309 0.06627411
0001b0 68 2d 3d 3d 80 28 24 bd e4 de 0d bd 56 a8 11 bd
       0.04618588 -0.040077686 -0.034636393 -0.03556093
0001c0 19 af e8 bc c2 72 99 3d f3 0a a9 3d 50 8b c0 3d
       -0.028403806 0.074925914 0.082540415 0.09401572
0001d0 59 7a 8f bd b4 f7 c6 bd 8d 9d f8 3b 10 51 6b bd
       -0.07005758 -0.09715214 0.007587141 -0.057450354
0001e0 9c fc 97 3d 95 d7 c2 3d b2 04 b1 3d ae 27 4b 3d
       0.07421228 0.09513775 0.08643474 0.04959839
0001f0 dd 70 c2 bd 8d 11 11 3d 5f 2b 39 3d e5 0f f0 3c
       -0.09494183 0.03541713 0.045207378 0.029304454
000200 19 f3 89 bd d9 d6 ea bc 53 ad c8 bd e9 bb b2 bc
       -0.0673582 -0.0286669 -0.09798684 -0.021818118
000210 c7 1b b8 bd 16 60 51 bc e6 2c 30 3d d5 6e 88 bd
       -0.08989673 -0.012779256 0.04301157 -0.066617645
000220 cb 64 26 bd b7 d2 90 3c 2e 3c eb 3c e2 27 5c bd
       -0.040623467 0.017678602 0.02871522 -0.053748973
000230 34 3e af bd db 2d ad bc 7f 3b b2 bd 88 9d 8d b9
       -0.08556786 -0.02114003 -0.08702754 -0.00027010986
000240 28 3f 95 3c 7a 86 50 3d df 68 3b bd d5 2a a7 3d
       0.018218592 0.050909497 -0.04575431 0.081624664
000250 da 6b bb bb 92 58 c6 bd 52 4d b9 3d 9f 30 a8 3d
       -0.005719644 -0.09684862 0.09047951 0.08212399
000260 2c 5c b4 bd 72 4f 5e bd a0 89 5a 3c 4b 77 a4 bb
       -0.08806643 -0.054274984 0.013338476 -0.0050191036
000270 d3 59 42 3c 78 83 2b bd 28 8d d5 3d 2e da 0b 3d
       0.011862236 -0.041873425 0.10427314 0.03414362
000280 3e e5 4d 3c 1d 8e d8 3c b6 6f 95 3d 14 c5 82 bd
       0.012566863 0.026434952 0.07296698 -0.06385246
000290 a9 cc 4f bd 5e 32 26 bd e3 d0 cb 3d f7 37 90 3d
       -0.05073229 -0.040575378 0.09951951 0.070419244
0002a0 0b e3 c1 bd 8d e3 19 3d c3 b3 34 3c d3 16 ba bc
       -0.09467133 0.037570525 0.011029187 -0.022715962
0002b0 4e d6 85 bd ce 91 4e 3d 55 74 9f bd 40 e5 ee bc
       -0.06535016 0.05043202 -0.077858604 -0.02916205
0002c0 df d6 9b bd 61 88 9a 3c 98 d5 8a 3d 72 77 83 bc
       -0.07609343 0.018863859 0.06779021 -0.016048167
0002d0 9d 6e a9 3d 5f dc 7b bc 55 b5 49 bd 05 43 bd 3d
       0.08273051 -0.015372365 -0.049245197 0.092412986
0002e0 32 5d b5 3d 0c d1 e3 3c ed 03 55 3d b9 1a 30 bd
       0.08855666 0.027809642 0.052005697 -0.042994235
0002f0 46 8b e6 3c ea 26 a6 bd 8c d4 b3 3c 98 aa 67 bd
       0.028142583 -0.08112891 0.021951936 -0.056559175
000300 c0 7b e8 3c 2f 8f 41 3d d3 e3 d0 3c c6 8d 31 bd
       0.028379321 0.04725569 0.02549926 -0.043348096
000310 4e 98 d9 bd 6d d5 3b bc 74 a0 c4 3d af f1 b9 3d
       -0.10624753 -0.011464459 0.096009165 0.090793006
000320 fd 01 65 bd ad d2 72 bd b4 a9 f6 bb 53 55 54 bd
       -0.0559101 -0.059282947 -0.0075275544 -0.051839184
000330 e3 ea 62 bd 10 c0 88 3d c7 92 96 3b 72 d2 45 3c
       -0.055399787 0.06677258 0.004595134 0.0120741
000340 f9 f6 06 3e 50 a7 1a 3d 52 6e 96 3d 33 e6 37 bd
       0.1318015 0.037757218 0.07345261 -0.04489727
000350 eb 8b a9 bc 88 92 f9 3d db a9 bf bd a1 71 57 3c
       -0.0206966 0.12186152 -0.09358569 0.01314965
000360 80 43 90 bb 40 d3 6f bd 6a 92 54 3d a7 0b 9e 3c
       -0.004402578 -0.058551073 0.051897444 0.019292666
000370 7b 87 73 3e 22 2c 9c 3c 85 aa 22 bd 17 82 c3 3d
       0.2378215 0.019064013 -0.0397134 0.09546297
000380 a2 14 83 3d 73 f6 3c bc 0a e8 0c 3c bf 22 b5 3d
       0.0640042 -0.011533367 0.008600244 0.08844518
000390 dc db be bc b7 fa 7a bc c8 09 96 bc c2 ae a7 bd
       -0.023298196 -0.015318564 -0.018315211 -0.08187629
0003a0 49 3c fe 3c 7b 71 a2 bd 34 83 b2 3a df 5a 2e 3d
       0.031034606 -0.07931801 0.0013619424 0.04256713
0003b0 23 04 5e bd 1f 39 4c bd 78 f9 1b bd 53 da 59 bc
       -0.054203164 -0.049859162 -0.03807971 -0.013296681
0003c0 e2 f4 f4 bc da c3 9e 3d 87 36 12 3e 6d 85 bb bd
       -0.029901925 0.077521995 0.14278613 -0.09156308
0003d0 56 39 13 bd a6 6b ac bd cd 27 1f bd 99 54 b4 ba
       -0.03594335 -0.0841897 -0.038856316 -0.0013758122
0003e0 c3 05 8b bc 33 0c bf bd f6 be 7c bd 91 2f fd bc
       -0.01697052 -0.09328499 -0.061705552 -0.03090647
0003f0 44 35 be bc 0a e9 c9 bb 99 e3 c4 bd 70 e4 f9 bc
       -0.023218758 -0.0061618136 -0.09613723 -0.030504435

bias f4 [64]
000000 f0 b5 28 bd 7d ed 30 bd 37 72 bf 3c b8 33 9c 3c
       -0.041189134 -0.043195236 0.023369892 0.01906763
000010 6d 9d 6e 3c 67 7e a1 bc 76 32 b4 bd cc b0 90 3d
       0.0145639 -0.019713594 -0.08798687 0.07064971
000020 fe f0 2f 3d 24 82 61 3d a1 c0 91 3d 63 e5 90 3d
       0.042954437 0.055055752 0.07116819 0.07075002
000030 71 32 80 3d e9 74 86 3c ff c1 2b bd 4c dc a4 3d
       0.06259621 0.016413169 -0.041933056 0.08049831
000040 31 56 b1 bc ac 1e 26 bc 41 02 00 3e 44 a3 9f 3d
       -0.021647545 -0.010139149 0.1250086 0.07794812
000050 9b cf ea 3b ba 1a 0a bd 0d a7 d5 3c 32 79 c4 3c
       0.007165862 -0.033716895 0.026080633 0.023983572
000060 7a 90 5c bd 2a 1f 3b 3d 8b d1 c7 3d 2a 46 bb bd
       -0.05384872 0.045684017 0.09756764 -0.09144242
000070 33 0a 45 3d d8 4c 87 bc a2 2c a8 bd ca 70 8c 3b
       0.04810543 -0.016516134 -0.08211638 0.0042859064
000080 f3 59 2a bc e6 b4 de 3c 15 66 55 3c 82 6e aa 3d
       -0.010397422 0.027185868 0.0130248265 0.08321859
000090 b5 89 d2 bd 8d 11 9a bd bb 5a 9a 3d 7a 63 97 3d
       -0.10280172 -0.07522879 0.07536837 0.073920205
0000a0 cc 30 82 bd 4c 27 fc 3d 10 92 82 3d 86 bd e7 3d
       -0.063569635 0.12312183 0.063755155 0.113154456
0000b0 91 73 79 3b 10 fa d3 bc f1 eb 9c 3d b4 07 23 3d
       0.0038063268 -0.025876075 0.0766219 0.03980227
0000c0 41 41 09 3a d1 b6 c5 3d 8e 66 94 bd 4d 28 88 3d
       0.0005235859 0.0965401 -0.07246123 0.06648312
0000d0 95 e9 a1 bd 2f 5c 26 3d cc ca be 3c 1b f9 21 3e
       -0.0790588 0.040615257 0.02329006 0.15817682
0000e0 3d e2 97 3d 1f 1b 91 3a 6f 48 13 bd 33 2c 66 3d
       0.074161984 0.0011070705 -0.03595775 0.056194495
0000f0 5d 60 25 3d 1f f1 3b bd 5e 7b 8a 3d d5 ab 86 bd
       0.040375102 -0.045884248 0.06761812 -0.06575743

weight f4 [1, 64]
000000 8b 84 fc 3d 48 48 f8 ba aa 5d ae 3e 16 39 9e 3f
       0.12329968 -0.001894244 0.34055835 1.2361171
000010 14 75 4e bd 61 33 8e 3e 15 f3 97 3d 31 51 dd be
       -0.050404623 0.27773574 0.07419411 -0.43226007
000020 12 ef 23 3f 37 8a d4 be 0e fa 23 bc 07 8d 3a bd
       0.6403667 -0.415117 -0.010008348 -0.04554465
000030 9a 27 b3 3e 3c 8b aa 3f 46 7f af 3d c6 4f 67 3f
       0.3499115 1.3323741 0.08569197 0.903561
000040 12 fb 7e be 9c d8 a2 bd 8c d0 9a be 7d fa 56 3e
       -0.24900463 -0.07951471 -0.30237234 0.20993991
000050 53 4e df bd bf 79 06 be f0 6f 15 bd ae d7 57 3f
       -0.10903611 -0.1313238 -0.036483705 0.84313476
000060 9b f4 30 bc 97 f3 fd bc 5b f4 05 3f c7 d2 f9 bd
       -0.010800506 -0.030999942 0.5232598 -0.12198406
000070 86 79 64 3f 96 dd d4 bb 3a 3e 15 be ee 32 56 be
       0.8924793 -0.0064961417 -0.14574519 -0.20917866
000080 6a 1d 08 be 35 30 ca 3e 29 8d 60 3d e3 34 f3 be
       -0.1329247 0.39489904 0.05482212 -0.47501287
000090 47 3e 33 3d 1c 63 f1 bb d4 25 29 be b2 80 f9 bc
       0.043760564 -0.007366551 -0.16518337 -0.030456875
0000a0 9d 1d 9a 3e be 88 b1 be e3 a2 09 bf b2 8e b4 be
       0.30100718 -0.34674639 -0.5376417 -0.35265118
0000b0 5a fc 01 3f e1 f4 da be c5 5e b6 3c 36 62 b0 bb
       0.5077568 -0.42764953 0.022261987 -0.0053828014
0000c0 a0 be a0 bd ba fc 15 bd 43 b2 be bc a6 1a 25 bf
       -0.07848859 -0.036617972 -0.023278361 -0.6449379
0000d0 ee ba 9a bd 37 71 8f be 25 57 b4 bc 7a 19 ae be
       -0.07555185 -0.28016064 -0.02201421 -0.34003812
0000e0 e0 7f 35 3c 52 e6 9d 3e 07 27 ad bc 34 c3 33 bd
       0.011077851 0.30839783 -0.021136774 -0.043887332
0000f0 25 03 e5 bc eb 91 0a 3d 48 fa a3 be 6e ff c0 3b
       -0.027955601 0.033830564 -0.32026887 0.0058898246

weight f4 [64, 96]
000000 64 45 97 3c 9f a4 2f bd de 83 76 bd f6 34 84 bd
       0.018465705 -0.042881604 -0.060184352 -0.06455414
000010 c2 89 65 3c f7 f7 80 bd 8c df 15 3d ea 6e 4d bb
       0.014009895 -0.062972955 0.036590144 -0.0031346628
000020 ab 53 54 3d 08 ac c8 bd 5c 7d 1a 3d a9 e7 90 bc
       0.051837604 -0.09798437 0.03771721 -0.01768859
000030 4c 99 72 3c c9 5c 99 3d 4d b1 82 3d f6 a1 4e 3d
       0.014807057 0.074884005 0.06381474 0.050447427
000040 78 4f 0e 3d ab 4a c5 3d 13 86 7a bc e1 f3 2d 3d
       0.034743756 0.096333824 -0.015290755 0.04246891
000050 a7 7e 40 bd 86 0b f0 3c fc 47 87 3d 05 15 bf bd
       -0.046995785 0.02930237 0.06605527 -0.09330181
000060 ec be 91 3d 63 81 d7 bb 66 6a 1b 3d 87 b3 0a 3d
       0.071164936 -0.0065767034 0.037943266 0.033862617
000070 88 26 8e 3d 14 a1 5c 3d f9 ed 90 bd 58 e9 38 3c
       0.06940943 0.053864554 -0.0707664 0.011286102
000080 91 90 6a 3d a7 56 f5 bc 16 96 5c bc d1 c8 63 bd
       0.057266776 -0.029948546 -0.013463518 -0.055611435
000090 e4 77 ea 3c af c4 a1 3c 1b f9 27 bd ea d3 c1 bd
       0.028621621 0.019747106 -0.04100905 -0.094642475
0000a0 25 5f ae bd b4 d2 80 3b 28 c3 3d bd 69 07 b3 bd
       -0.08514241 0.003931368 -0.046328694 -0.08741648
0000b0 49 dc c8 bb 8b f8 c5 3d 18 90 63 3d b4 a4 aa 3d
       -0.0061297757 0.096665464 0.05555734 0.08332196
0000c0 69 b0 a0 bd e3 7f c0 bd 2d c9 27 bd 56 79 35 3d
       -0.078461476 -0.093993925 -0.04096334 0.044305168
0000d0 5c eb 4b bd 1d e5 cf bd 01 2b 37 bd af d8 3a 3c
       -0.049785003 -0.10151122 -0.044718746 0.0114042
0000e0 b9 8e 80 bd a4 e5 b5 bc c2 86 3a bb 05 a4 b2 3d
       -0.06277222 -0.022204228 -0.002846167 0.087226905
0000f0 51 32 bd bb 62 ab d6 3d eb 0f d5 3d 24 12 8a bd
       -0.0057738204 0.104819074 0.10403427 -0.06741741
000100 92 35 30 3d b9 b4 ad bd e3 0f 89 3d ae f1 ca bd
       0.04301984 -0.08481736 0.06692483 -0.09909378
000110 95 60 a9 3d 76 ae 76 bd e1 ee 43 bd 5c 64 80 bd
       0.08270375 -0.060224973 -0.047835235 -0.06269142
000120 8a b2 6d bd 89 9c 31 3d e8 16 a4 3d 39 22 90 3b
       -0.058031596 0.043362174 0.080121815 0.004398611
000130 27 74 f9 bc f8 41 18 bd 49 1a 3f 3d fd f3 f6 bb
       -0.030450894 -0.037172288 0.046655927 -0.00753641
000140 e0 90 c0 bc 26 81 98 bd 7c 29 47 bd e0 fb 1a 3d
       -0.023506582 -0.07446508 -0.048623547 0.037837863
000150 4d 78 a1 bd 0d f3 13 3d 51 8a 5b 3c 4d 82 81 3d
       -0.07884274 0.036120463 0.013399676 0.06323681
000160 1e e0 2d 3d f1 28 90 3d 41 3e c9 bd 28 f8 b2 bd
       0.042450063 0.07039059 -0.09826327 -0.08738738
000170 12 24 93 bc 3c b6 41 3c 75 ee cc bd 57 51 a9 bd
       -0.017961536 0.011823233 -0.100064196 -0.082674675
000180 ec c9 09 bd e7 44 a3 3d 43 f7 92 3d c1 44 88 bc
       -0.033639833 0.079721265 0.07176068 -0.016634347
000190 82 cd 20 3d 19 69 d2 bc 09 01 8c bd f5 e2 d0 bd
       0.039258488 -0.02568488 -0.06836135 -0.101995386
0001a0 6d 3a a3 3d 8e 3c d9 bc 20 65 f7 ba 69 b9 52 bd
       0.07970128 -0.026518133 -0.0018874742 -0.051446352
0001b0 9e cd d0 bd 40 1d 34 bd 87 37 02 3d 68 50 99 bd
       -0.10195468 -0.043973207 0.031791236 -0.074860394
0001c0 c5 e3 7a 3c 8d 66 ee 3c 91 23 5f 3d 4c 80 aa 3d
       0.015313094 0.029101634 0.05447728 0.08325252
0001d0 43 29 e8 3b 8d 69 a1 ba 00 8f b3 bd f0 ac 91 bd
       0.007084997 -0.0012314782 -0.087675095 -0.07113063
0001e0 5f 1c c5 bd f4 5c 9e bd 3d cf 9d bd 52 d0 a9 3c
       -0.09624552 -0.07732573 -0.07705543 0.020729218
0001f0 bf 75 51 ba de b8 c4 3d 65 fe a5 bd 3c e8 6d 3c
       -0.0007990263 0.09605573 -0.081051625 0.014520701
000200 c4 b5 7f bd 01 55 a5 3d 03 fe 1f bb 80 1d 22 bc
       -0.062429205 0.08072854 -0.0024412877 -0.009894729
000210 87 72 3c 3d 1f 37 be bd af a2 3f bd 95 77 4b bd
       0.04600766 -0.09287857 -0.046786007 -0.04967459
000220 82 9c 29 3d 8d 07 a7 bd 55 27 2c bd 2d 20 44 3d
       0.041409023 -0.08155737 -0.042029697 0.047882248
000230 3c 1b 14 bd fd c2 65 bd 9d 7c 5b bd c7 38 a9 bb
       -0.036158785 -0.05609416 -0.053585637 -0.005164239
000240 3f 46 39 3d 04 6a 84 bd 79 6a bf bd a8 d3 8d 3b
       0.045233008 -0.064655334 -0.0934648 0.00432821
000250 d2 90 46 bd 34 8f bf 3d ea af 97 bd 3c 15 8b 3d
       -0.048477955 0.09353486 -0.074066 0.067911595
000260 29 d0 34 3d be c7 af bd 7e 74 1b bc 68 7c cb 3d
       0.04414383 -0.0858302 -0.009488223 0.09935838
000270 91 ce b9 bd 85 80 c8 bd ed cd 3b 3d 13 58 92 3d
       -0.090726025 -0.09790138 0.045850683 0.07145705
000280 e8 9b 3e 3d e5 c4 ae bd 2a b5 b3 bd 87 6d 94 3c
       0.046535403 -0.085336484 -0.08774789 0.018118633
000290 86 09 1e bd d2 38 24 bd 43 48 8e 3c c0 c0 cf 3d
       -0.0385833 -0.04009325 0.017368441 0.10144186
0002a0 2f 9d 55 bd 75 73 84 bc 05 74 8a bd 58 18 8f 3c
       -0.052151855 -0.016168335 -0.0676041 0.017467663
0002b0 05 6b 89 3d 32 ea c7 3d fe 19 b0 bc 81 eb 2a 3b
       0.067098655 0.09761466 -0.021496769 0.0026080313
0002c0 6e f1 fc 3c 98 8b 92 3d 0d 4e bd bd 59 c4 d7 3c
       0.030876841 0.07155532 -0.09243403 0.026338743
0002d0 e9 85 04 3c 56 a4 53 bc 59 c9 48 bd 0b 78 96 3d
       0.008088567 -0.012917599 -0.049020145 0.07347115
0002e0 3a f4 38 bd 16 d9 a6 bc 3f 69 8b bd 1f 30 03 bd
       -0.045154788 -0.020367187 -0.068071835 -0.032028314
0002f0 cb fe c9 bb 3c 2c e9 bc e3 c1 c8 bd 49 b2 e6 bc
       -0.006164407 -0.028463475 -0.09802606 -0.028161185
000300 88 13 d6 3b 5d e0 a0 bc 88 05 ae bd 96 d4 71 bd
       0.00653309 -0.019638235 -0.08497149 -0.05904063
000310 6a 37 ad bd 25 d5 f3 bc fb 7a 3d 3d d2 c6 26 bd
       -0.08457835 -0.029764721 0.04625986 -0.040716954
000320 9e d6 ce 3d 48 b9 03 bc 93 3a dc 3d ae f3 66 3d
       0.10099529 -0.00803978 0.1075336 0.056384735
000330 f4 41 6d bc 6d d2 43 3d 50 ad 22 3d 43 ff 42 bd
       -0.0144810565 0.0478081 0.039716065 -0.047606718
000340 51 12 01 3d 88 a9 68 bd c1 ad 5c bd d1 64 89 bd
       0.03151161 -0.056802303 -0.053876642 -0.06708682
000350 0e f7 71 3d f2 c5 7b 3d 8f f0 89 bd 24 c2 7b bd
       0.0590735 0.061468072 -0.06735336 -0.061464444
000360 ef 87 c2 bd 4b 4d 84 3d 0d c7 e7 3c 49 c0 b2 bd
       -0.094985835 0.06460055 0.028293157 -0.08728082
000370 a0 24 89 3d af 9b 17 bd 53 9b f5 3c 17 27 82 bd
       0.06696439 -0.037013706 0.02998129 -0.06355112
000380 fd bc 46 bd 86 0b b9 bd e7 8e 8a 3d b1 ab ab 3d
       -0.048520077 -0.09035401 0.06765538 0.08382357
000390 1d c7 9f 3d 82 17 13 bb bb ee 98 bd b3 2e 0c 3d
       0.0780165 -0.0022444432 -0.07467409 0.034224223
0003a0 1f c3 aa bd e7 73 80 bd da 94 a7 3d a2 05 18 bd
       -0.08337998 -0.062721066 0.08182688 -0.037114747
0003b0 0b 0e df 3d 95 65 bd 3c f1 8f 84 bd 09 7c a0 bd
       0.1089135 0.023119727 -0.06472767 -0.07836158
0003c0 d1 03 c0 3d da 6d 19 3c 51 03 d5 bb 8f 1c 3c 3d
       0.09375728 0.00936457 -0.0065006395 0.045925673
0003d0 81 bf 3c bd 43 ce d9 3c ec 1f 84 bd d1 c4 ae 3d
       -0.04608107 0.026587611 -0.06451401 0.085336335
0003e0 cc 1a ca ba 03 51 61 3d 9d c9 26 3d 1b f0 65 3d
       -0.0015419363 0.0550089 0.040719617 0.056137186
0003f0 bd e9 97 3d 14 82 67 3d 69 a4 0e 3d 8c 54 9a bd
       0.07417629 0.056520537 0.034824762 -0.07535657

bias f4 [64]
000000 e4 0a 92 3d 4c aa 91 3d d9 af a6 3d 99 70 1c 3d
       0.071309835 0.0711256 0.08139009 0.03819332
000010 d5 4b b7 bd 3e e3 18 3c 3f f6 a7 bd bd fa fa bb
       -0.08950011 0.0093315225 -0.082012646 -0.007659285
000020 01 ac 8c bd cf b4 96 bd 2f f3 8b bd 6a 2b 76 bd
       -0.06868745 -0.07358705 -0.06833493 -0.060099997
000030 dc 00 a3 b9 7d 44 d3 bd 32 19 20 bd 07 45 8d bd
       -0.00031090423 -0.103157975 -0.039086528 -0.068979315
000040 86 f8 2d bd de 48 fa 39 95 7a b9 bd 76 02 83 bd
       -0.04247334 0.00047738006 -0.09056584 -0.06396954
000050 e8 90 be 3d 04 d1 87 bc 56 2b 21 3d a3 6c d8 3d
       0.093049824 -0.016579159 0.03934797 0.10567596
000060 52 69 14 bd fb e4 c1 bd 5c f1 4b 3d f2 3f 07 3b
       -0.036233254 -0.09467503 0.049790725 0.002063748
000070 62 34 26 bd 34 15 bb bd 87 17 ab bc 39 aa ba bd
       -0.0405773 -0.091349036 -0.020885242 -0.09114499
000080 b7 9f c9 3d a7 84 84 bd 8c 07 5c 3d ea bb 86 3d
       0.09844916 -0.06470614 0.053718135 0.065788105
000090 ff ff 0e bd 7f 32 60 3d 24 df 41 3d 9e 19 2c bd
       -0.034912106 0.054735657 0.047331944 -0.042016618
0000a0 3f c8 32 3c ba b0 b1 3c 14 80 29 bd cf 06 34 bd
       0.010912 0.021690715 -0.04138191 -0.043951806
0000b0 86 d5 d4 3c a4 30 28 bd f3 2f d0 3d 8d f6 c9 3d
       0.025980722 -0.041062012 0.101653956 0.09861479
0000c0 90 97 c8 3d e2 6e 7a bd 31 55 90 bd bd d5 d6 bd
       0.09794533 -0.061140902 -0.07047499 -0.10489986
0000d0 c4 bb 10 3a 49 6c c4 bd 3a 8f d8 3c 0a 41 35 3d
       0.00055211433 -0.09590966 0.026435483 0.04425148
0000e0 54 d5 a7 3d f6 cc df bc 07 fd c2 3c 3d 09 6a 3b
       0.08194986 -0.027319413 0.023802293 0.0035711073
0000f0 24 47 89 bd 14 88 7d bd 65 98 94 bd 4d c2 2a bd
       -0.06703022 -0.061897352 -0.072556295 -0.041689206
