checkpoints/double.pth (torch, 72883 bytes, 24 tensors)

weight f4 [8, 1, 3, 3]
000000 2d 54 07 be 61 52 a5 bd d7 08 7a be a1 00 90 3e
       -0.13215704 -0.08072353 -0.24417435 0.2812548
000010 79 5e 8c 3e 25 84 17 be 16 61 f4 3d b1 be ad be
       0.27415827 -0.14796503 0.1193258 -0.33934548
000020 48 fd 91 be cb 1e 2d be 0d bc 74 3e ce 69 ee be
       -0.2851355 -0.16906278 0.2389986 -0.46565098
000030 b8 0e 00 be 27 78 09 be 46 26 0f 3e af 7c a2 3e
       -0.12505615 -0.1342474 0.13979444 0.3173575
000040 c8 49 28 be b6 a0 77 3e 4b 47 bf 3e 84 3d 94 3d
       -0.16434395 0.241824 0.3735908 0.07238296
000050 40 3e 34 be fa ae 27 bd 5b 24 ba bd 29 ab af 3d
       -0.17601871 -0.040938355 -0.090889655 0.08577568
000060 e0 69 70 be 62 f9 c8 3e 01 c2 62 3d e1 f0 99 3e
       -0.23477888 0.39252764 0.055360798 0.3006659
000070 b7 fe af 3d d9 b9 1d 3e 9c bf 47 3d 17 0c ab be
       0.08593505 0.15402927 0.048766717 -0.3340766
000080 f1 9d 54 be 33 0c 89 3e d2 71 88 be fa a7 94 3e
       -0.20763375 0.2676712 -0.26649338 0.29034406
000090 71 5a 4e 3e cd 57 c9 3e b3 5a 09 3e 8d 91 8a be
       0.20151688 0.393248 0.13413505 -0.2706417
0000a0 2a 14 45 be f9 b0 e1 bd cc 3c 8b be 2a 86 d8 3d
       -0.19245973 -0.11020083 -0.27194822 0.10572465
0000b0 8c ec 52 be 7d 01 42 3e 4b a9 2a 3e 28 db b6 3b
       -0.20598048 0.1894588 0.16666143 0.0055803247
0000c0 6a db de 3e 11 43 19 be ac bb 67 3e 5a ea 2a be
       0.43526775 -0.1496699 0.22630185 -0.1669096
0000d0 97 b6 c3 3d 34 6d 9d 3e 95 44 58 be ab d6 af bd
       0.095563106 0.30747378 -0.21119912 -0.085858665
0000e0 be 1e 0c bd 28 33 41 bd 48 cd 06 be 45 4f 93 3e
       -0.034209006 -0.047167927 -0.13164246 0.28771415
0000f0 f3 a1 83 3e 4c 60 16 be c8 df cf be 00 2e 0c 3c
       0.25709495 -0.14685172 -0.4060042 0.008555889
000100 33 55 3e 3e b0 2a 8a be 3a f4 d1 bd 86 c4 44 3e
       0.18587188 -0.26985693 -0.10251661 0.19215593
000110 b3 9a af be 16 5b 8e 3e 60 03 90 be a4 ea 81 3e
       -0.34297714 0.27803868 -0.28127575 0.2537433

weight f4 [8]
000000 f6 7b 79 3f 1a 16 80 3f ef e4 54 3f 34 ac 65 3f
       0.97454774 1.0006745 0.83161825 0.89715886
000010 2d 65 8b 3f c0 b4 81 3f 26 5a 99 3f 72 7c 70 3f
       1.0890251 1.0133286 1.1980636 0.9393989

bias f4 [8]
000000 89 fd a3 bd 4a 28 05 bd 07 61 66 be 58 f6 17 bd
       -0.08007342 -0.032509126 -0.2249795 -0.037100166
000010 fb ac 03 be 36 77 aa bd e0 56 96 3c d4 ff 48 be
       -0.12858956 -0.08323519 0.018351972 -0.1962884

running_mean f4 [8]
000000 47 cd 5d be fb 4c 41 bd 5a d8 32 3e f8 79 0e 3e
       -0.21660338 -0.047192555 0.17465344 0.13913715
000010 89 30 b1 bd 0e c7 e1 3e ac 78 52 be e1 4f e5 bc
       -0.086518355 0.4409718 -0.20553845 -0.02799219

running_var f4 [8]
000000 ff 50 f8 3b ef cf 15 3b 88 d2 8c 3b d8 97 81 3b
       0.007578015 0.0022859534 0.004297558 0.0039548688
000010 3e 34 bd 3b 99 df ca 3c 36 1d ba 3b 61 12 9e 3a
       0.00577405 0.024764823 0.0056797517 0.0012059921

weight f4 [8, 8, 3, 3]
000000 d4 d5 79 bc c5 0f cf 3d e0 e0 41 be 7a 8a 88 3c
       -0.0152487345 0.1011043 -0.18933439 0.016667593
000010 c9 a5 84 bd c4 14 e5 bb 90 15 76 3c 4c 0a 51 3e
       -0.064769335 -0.006991001 0.015019789 0.20414084
000020 a5 36 e0 3a a6 05 ed bc 42 a5 11 3e 0f 55 fb 3b
       0.0017106129 -0.028933357 0.14223197 0.007670052
000030 1c ad ad bd b4 ee 53 bd 2e 44 03 bd 18 0a 0a 3e
       -0.084802836 -0.051741317 -0.032047443 0.13480413
000040 22 f9 08 3e 4b d9 ea bb 82 33 f3 3c 10 1c 2c be
       0.13376287 -0.0071670166 0.029687647 -0.1680758
000050 7d 02 20 3d 7b 02 76 bd cc a6 e9 bb 07 71 8a bd
       0.039064873 -0.06006096 -0.0071304794 -0.067598395
000060 fd d8 82 bd fc 5a 24 3c 80 79 09 bd 09 68 c4 3d
       -0.063890435 0.010031458 -0.033563137 0.09590156
000070 b0 ab 55 3d 5f f7 c2 3c f9 f4 66 3d 7b ab a4 3d
       0.052165687 0.023799596 0.056385968 0.0804052
000080 e1 94 00 3d eb 1d 40 bd a2 b4 06 bc 42 61 32 3e
       0.031391982 -0.046903532 -0.008221777 0.17419913
000090 c5 f0 93 bd 3a 00 d0 3c 29 44 78 bd 06 7c 87 3d
       -0.072236575 0.025390733 -0.060611878 0.066154525
0000a0 cf 48 ce bd 1d 9f c0 bd b9 06 9a 3c 2d aa 85 3e
       -0.10072481 -0.094053484 0.018802034 0.26106396
0000b0 fb ee 20 3e 22 c4 5c bd 0e d3 c6 3c 87 b2 a1 bd
       0.15716164 -0.053897984 0.02427056 -0.078953795
0000c0 ba 79 4e 3d fa 76 07 3d e5 11 49 bd b9 cf 07 bd
       0.050409056 0.03307245 -0.04908933 -0.033157084
0000d0 fe 6f c5 bc 27 30 f4 bc ed 04 6c 3d 40 b3 91 3d
       -0.024101254 -0.029808117 0.057621885 0.07114267
0000e0 1a 32 de bd 38 06 eb 3c 3b 0f 2c 3e 5d 77 62 3e
       -0.108494 0.028689489 0.16802685 0.22115846
0000f0 f6 a7 0f 3e ff 0c 12 bc e3 f3 48 3e 89 cd 01 be
       0.14028916 -0.008914231 0.19624285 -0.12676062
000100 9a ba 13 be cb 68 95 bd 09 3f 97 bb 64 19 e1 bd
       -0.14426652 -0.07295378 -0.0046156687 -0.10991171
000110 7a 91 12 bc 82 ec 1e 3c 9d 6f ed 3d 59 0c 17 3d
       -0.008945817 0.009699943 0.11593554 0.03687701
000120 df f1 ae 3c b3 7b bc bd 1a 87 f6 3c 74 2b a5 bb
       0.021355567 -0.09203281 0.030093718 -0.0050405804
000130 5f 20 b7 3d c7 73 f9 3d bf 61 d5 bd b2 db 31 3d
       0.08941721 0.12180286 -0.10419034 0.04342241
000140 ac c1 9f 3d e7 4f 85 bd 64 25 6f bd cc 16 95 bd
       0.07800612 -0.06509381 -0.058385268 -0.07279739
000150 ca aa 87 3d 09 5e d3 3c 62 13 33 bd d7 0e 19 3d
       0.06624372 0.025801675 -0.043719657 0.037367668
000160 ef 22 c0 3c 15 05 6a be 54 94 e0 bd 7e 49 9e 3d
       0.023454158 -0.22853501 -0.10965791 0.07728861
000170 6b a0 8c 38 e5 45 bd bd 18 d4 61 3d 38 37 04 bc
       6.7056004e-05 -0.09241847 0.05513391 -0.008069806
000180 1b d2 eb 3c c1 d8 45 bd 50 21 eb bb d1 59 b8 bc
       0.02878671 -0.048302416 -0.007175602 -0.022503765
000190 e2 2a 84 3d 40 db ad 3d 6e 08 b1 bd aa f2 01 3e
       0.06453492 0.08489084 -0.08644186 0.12690225
0001a0 ee 36 b2 3c 59 63 bb bd a5 b7 74 bc b6 9d 7d bd
       0.021754708 -0.091498084 -0.014936362 -0.061917983
0001b0 00 45 f3 3c b7 68 7b bd 77 5b cb 3b 2e bd 94 be
       0.029695988 -0.06137916 0.006205972 -0.29050583
0001c0 f8 06 18 3d 5c 1a a1 bc 86 d9 73 3e c4 eb de 3d
       0.03711602 -0.01966589 0.23813447 0.108848125
0001d0 b1 47 39 bd 0f 21 3d 3b a8 36 a1 3d 25 e3 9d bc
       -0.045234386 0.0028858816 0.07871753 -0.01927335
0001e0 81 9a be 3c 49 be 03 3d 98 04 3e bd 97 3a 2d bd
       0.023267033 0.032163892 -0.0463911 -0.042292204
0001f0 8c 7f 06 3d 19 f9 9a bc 89 c0 3d bc ba 53 ab bb
       0.032836482 -0.018917607 -0.0115815485 -0.005228487
000200 bc c7 11 3d 57 c6 70 3e 32 dc 2f 3e 75 ee 58 3c
       0.035590872 0.2351316 0.17173842 0.013240446
000210 56 ef bd bc 8a 3a 8e bd 5d fb 3c bd b6 a0 f6 3c
       -0.023185413 -0.06944759 -0.046138156 0.03010593
000220 ae 7e 5a bd c4 22 0b be c7 19 6c be d0 d2 06 3b
       -0.053343467 -0.13587481 -0.23056708 0.0020572431
000230 1c fc 66 be 2b 2e 12 3e be d2 27 be 25 2d 9f 3d
       -0.2255711 0.14275424 -0.16388986 0.077722825
000240 96 c8 66 3c c2 dc 39 3c f1 8e 1c 3c 4f 1b 66 3d
       0.014085909 0.011344137 0.009555564 0.056178387
000250 1d 80 35 bd d5 4c 34 be 70 e9 04 3e ae 7e 70 3d
       -0.04431163 -0.17607434 0.12979674 0.05871456
000260 fd da 12 3e c4 8b 3b bd 22 c5 08 bd 50 92 d3 bd
       0.1434135 -0.045787588 -0.033391126 -0.10330641
000270 9a 5d 81 bd be 64 55 bc 8d 55 f1 3d 17 a1 82 3c
       -0.06316681 -0.013024507 0.11783896 0.015945954
000280 34 27 f7 bc dd b7 1c be a1 3e 1f 3e fa 93 67 bd
       -0.03017006 -0.15304513 0.15551235 -0.056537606
000290 0d 1b f6 bd e6 07 f1 bd 63 4f a7 3c 4e ad 57 3e
       -0.12016878 -0.11769085 0.020423597 0.21062204
0002a0 95 c0 e4 bd 3c 96 b3 3b 05 a1 51 bd fa 7f dd bd
       -0.111695446 0.005480556 -0.05117895 -0.10815425
0002b0 e4 94 ff bd 9b 36 b3 3c f7 9f f7 3c c9 ce ab bd
       -0.124795705 0.021876624 0.030227644 -0.083890505
0002c0 d1 b6 42 bd 49 6f 2a 3d c7 22 bf bd 8b 2a 04 3e
       -0.04753763 0.041610036 -0.09332805 0.12906854
0002d0 f0 62 3b 3d 8c c1 44 3d a3 88 0d 3e 32 b2 a9 bc
       0.04574865 0.048036143 0.13821654 -0.020714853
0002e0 95 47 41 bd d6 08 14 be 13 f1 bc bd 38 47 0f be
       -0.047187407 -0.14456496 -0.09225669 -0.13992012
0002f0 d3 f1 8e bc ba 01 dd 3c cf 04 25 bd 2a 32 18 3e
       -0.017449295 0.026978362 -0.04028779 0.14862886
000300 d7 3d 17 3d bb d3 15 3e 82 1b 42 bd 3b 57 9a be
       0.03692421 0.1463155 -0.047389515 -0.30144677
000310 c9 19 fa bd 41 26 a3 3d 89 a0 81 3d b0 b5 ac 3d
       -0.122119494 0.07966281 0.06329448 0.08433092
000320 e2 62 41 3e cf b1 0b 3e 94 72 5a 3c 19 b1 45 3d
       0.18885377 0.13642047 0.013332982 0.048264597
000330 ea 77 3e bd f0 2f 8f 3b 98 6f 09 bd c9 cc 0e be
       -0.046501078 0.0043697283 -0.03355369 -0.13945307
000340 91 1e e3 bc 02 0a bb 3c d5 a3 16 be 26 b4 cf bd
       -0.027724536 0.02283192 -0.14710934 -0.101417825
000350 8f 84 03 bc 9e e9 a0 3d 4a 2f da bc 7a 0e e0 bd
       -0.00802721 0.07857059 -0.026633877 -0.10940261
000360 06 5e 0e 3e f5 e1 a2 3d 9e a0 72 bd 57 48 a0 bd
       0.13903055 0.07953254 -0.059235208 -0.07826298
000370 fc d5 0e be 19 30 26 3d 90 62 be bd 2b 40 48 bc
       -0.13948816 0.040573213 -0.09296143 -0.01222233
000380 49 34 a2 3d ff 5a 16 bc 82 2e 1d bb 48 0b ce 3c
       0.07920129 -0.009176969 -0.002398402 0.025151864
000390 0a 1d 70 3d 52 6c c3 3d 2d 64 62 be 4b 2d a3 3c
       0.058621444 0.09542145 -0.22108527 0.019919058
0003a0 89 66 54 be 62 3c fd bc 7c dd aa 3c 2e 28 9a 3d
       -0.20742239 -0.030912582 0.020857565 0.07527195
0003b0 e5 ae 5c bd f9 64 35 3e c4 86 34 bd 13 a5 5c 3d
       -0.05387773 0.177143 -0.044073835 0.053868365
0003c0 86 97 9f 3b 1a 1a 69 3c de 6f c8 3d 91 79 94 bb
       0.004870358 0.0142274145 0.09786962 -0.0045310934
0003d0 c7 cd 81 be 0a 87 40 be 9b a8 14 3e b5 42 1a 3d
       -0.25352308 -0.18801513 0.14517443 0.037661273
0003e0 55 61 06 bc e2 6d 1c bd f5 e3 ea 3d 47 f1 b3 3d
       -0.008201917 -0.03819073 0.114692606 0.087862544
0003f0 e4 aa d5 bd 55 0e 74 bd f0 8d 5e be c9 50 14 be
       -0.104329854 -0.05958398 -0.21733832 -0.14483942

weight f4 [8]
000000 1d 69 82 3f 7f bf 79 3f 40 ea 66 3f 10 52 73 3f
       1.0188328 0.97557825 0.9020119 0.9504709
000010 6a 61 67 3f 89 e2 87 3f 40 2c 80 3f 95 41 82 3f
       0.9038302 1.0616008 1.0013504 1.0176264

bias f4 [8]
000000 8f da 63 be 00 96 66 be 8b 1e f4 bd 60 c8 60 be
       -0.22251342 -0.22518158 -0.11919888 -0.21951437
000010 cb 6c 83 be 07 81 08 be 3e 4a 71 be e2 49 17 bd
       -0.2566894 -0.1333047 -0.23563477 -0.036935695

running_mean f4 [8]
000000 5e 70 03 3f df 29 f3 bc 94 47 48 be 4c 91 0c 3d
       0.51343334 -0.029683052 -0.19558555 0.034318253
000010 b9 2a 64 be 67 ca 51 bd 7a 5e 44 3e 9c 65 a8 bd
       -0.22281922 -0.051218417 0.19176665 -0.082225055

running_var f4 [8]
000000 66 07 d1 3e 27 12 8b 3e b6 99 10 3e c4 cf 41 3e
       0.40825957 0.27162287 0.14121136 0.18926913
000010 f3 5e 8e 3e d1 2f 8d 3e b5 b4 db 3e 57 47 1f 3f
       0.27806816 0.27575544 0.42911306 0.6221823

weight f4 [8, 8, 3, 3]
000000 b5 08 ed 3d e0 3a 9d 3c 36 cc 44 3d ae 99 e1 bd
       0.11573926 0.019193113 0.048046313 -0.1101564
000010 42 b3 f9 3d c7 44 e2 3d 93 3d bf bc d1 87 15 3e
       0.12192394 0.110482745 -0.02334479 0.14602591
000020 cb 86 2c bd 02 d4 d4 bc 04 f9 83 bd 73 59 16 ba
       -0.042120736 -0.02598 -0.0644398 -0.0005735375
000030 c8 aa e7 3d 86 bb 53 3b 7d a4 21 bd 3c cc 98 b9
       0.11311871 0.0032307818 -0.03946351 -0.00029143866
000040 2d bd 19 bd e0 a1 05 be f9 16 81 be 4b 40 4b bd
       -0.037533928 -0.13050032 -0.2521284 -0.04962186
000050 96 b3 04 3d 98 14 17 bd 48 b5 c4 3c 64 7d 70 bc
       0.03239783 -0.036884874 0.024012223 -0.014678333
000060 1c 0d d3 bd 3c 1f c6 3c 33 2a f5 bd 45 21 5c bd
       -0.10305235 0.024184816 -0.119709395 -0.053742666
000070 2b d5 85 bc d0 f8 ab 3d 17 cd 55 3d a4 c3 05 be
       -0.016336998 0.083970666 0.052197542 -0.13062912
000080 05 7c d4 3d 0d db f4 3b 0b 38 1f 3e 76 e6 9e be
       0.10375217 0.007472402 0.15548722 -0.31035203
000090 70 f3 bd bc cd 79 0f 3e e8 18 7e bc 8f 32 18 bd
       -0.02318737 0.14011307 -0.015508868 -0.03715759
0000a0 61 8f 2e 3e 22 d3 71 3d ed 8f 6a 3b 95 d2 4a 3d
       0.17046882 0.059039243 0.0035791353 0.049517233
0000b0 c8 c2 2e 3d 09 a6 07 b8 d8 53 4c bd 77 2f f9 3c
       0.042666227 -3.234114e-05 -0.049884647 0.03041814
0000c0 5c 19 80 be 71 d4 6a bd 60 a4 83 3d e8 c7 85 bd
       -0.25019348 -0.057331506 0.064278364 -0.0653227
0000d0 5d 40 df 3d 7f c2 71 3d 82 0e 8a 3c 9c 22 19 3b
       0.10900948 0.059023377 0.016852621 0.0023366576
0000e0 8c 7a bc bb 47 a6 c4 3c 3e b4 0d 3c 5b b1 e2 bc
       -0.0057519134 0.024005068 0.00864893 -0.02767246
0000f0 f4 4d 56 3c d1 91 89 3e 8d 9b 52 3e 96 0e ec bd
       0.013080109 0.26869062 0.2056715 -0.115262195
000100 c5 23 db 3c a7 e7 b8 bd 7b e8 99 3d 2c 1a 12 bd
       0.026750455 -0.09028559 0.07515045 -0.03566949
000110 ff c1 f6 bd e2 09 8d 3d d0 34 26 be 12 d6 85 bd
       -0.120487206 0.068866506 -0.16231084 -0.06534971
000120 10 6b 7f bc 72 0e 1f be a2 ba ae 3d 55 06 32 3c
       -0.0155894905 -0.15532854 0.08531691 0.0108657675
000130 4d de 93 3c d2 df 10 bd ee 35 09 be 18 53 4d bd
       0.018050337 -0.0353697 -0.13399479 -0.050128073
000140 3f a1 3f 3e 13 1e 32 be 20 ed c8 bc 4d b8 75 3d
       0.18713854 -0.17394285 -0.024527133 0.059990216
000150 82 d2 02 be 00 b0 01 3d cb e3 f2 3c 3c 43 08 be
       -0.12775615 0.031661987 0.029649636 -0.13306898
000160 ad d3 38 3d 9c d8 41 3d ec 33 a1 3c 1c 68 f0 bc
       0.045123745 0.047325715 0.019678079 -0.029346518
000170 ca 57 40 3c 2a f5 0e 3d cd 10 b1 3c 16 e0 df 3b
       0.011739681 0.034901775 0.021614457 0.006832133
000180 3f 6f f3 bb c5 8a 88 bd f4 88 f7 bd fc 12 e3 3c
       -0.007429033 -0.06667093 -0.120866686 0.027719013
000190 6f d0 fb bd 81 f5 aa 3d 01 7d 86 3d bd 0e 19 bd
       -0.12295615 0.083476074 0.06566811 -0.03736757
0001a0 43 7c 5f bd 65 10 d8 bc a5 e2 b5 ba 23 98 56 3d
       -0.054561865 -0.026375005 -0.001387675 0.052391183
0001b0 86 ab 72 bd d2 47 03 3d 67 c6 83 ba 5b a4 cf 3c
       -0.05924561 0.032050915 -0.0010053635 0.025346925
0001c0 a4 13 02 bc 19 e1 a9 bd c5 8b 1e 3e b4 f1 c3 3d
       -0.007939253 -0.08294887 0.15483005 0.095675856
0001d0 46 f3 5e 3e 5a 66 26 3e b1 9f 66 bc b7 2e 0d 3d
       0.21772489 0.16249982 -0.014076159 0.03446838
0001e0 fb 60 f4 bd ba 45 e8 bd 40 c0 44 3d 5f 43 74 3c
       -0.1193256 -0.11341424 0.048034906 0.014908641
0001f0 1c 94 5b 3d 0d 6b 83 3e 96 98 e7 bd 3f d4 45 bd
       0.053608045 0.2566761 -0.113084 -0.048298117
000200 26 b0 34 3d a5 41 fd bc e8 28 01 3b 28 7d 37 be
       0.0441133 -0.03091509 0.001970822 -0.17918837
000210 d4 03 21 be 56 91 9e bd b2 91 10 be ad 0a b4 bd
       -0.15724117 -0.077425644 -0.14118078 -0.08791099
000220 61 82 83 3d a0 3b 02 be 86 8b 89 3d d5 8b fe 3c
       0.06421352 -0.12718058 0.06716065 0.031072536
000230 83 72 5e be 96 54 ee bc 42 52 ab be ab 72 75 bd
       -0.2172337 -0.029093068 -0.33461195 -0.05992381
000240 f9 82 cf bd 93 a4 96 3d 3b 60 34 bb ec 64 85 bc
       -0.10132403 0.07355609 -0.0027523178 -0.016283475
000250 13 ac 1c 3d 73 db 1c bb c9 08 dd 3d 1e 12 bd bb
       0.03825004 -0.0023934513 0.10792691 -0.005769982
000260 60 db 17 3d 86 92 0e be 44 a1 c2 bb ea 6a a3 3c
       0.037074447 -0.13923082 -0.0059396345 0.019948442
000270 59 e8 59 3d 48 03 0b bd 78 c6 a8 bb ea 2f 04 3e
       0.0532001 -0.033938676 -0.0051506124 0.12908903
000280 7b 66 92 bd 0f b5 84 bc b1 4c 41 be a1 54 ec bd
       -0.07148453 -0.016199617 -0.18876912 -0.11539579
000290 16 a3 cf bd ba 11 8d 3d 9f 8b 02 3e 09 9a af 3c
       -0.10138528 0.06888147 0.12748574 0.021435754
0002a0 92 c7 ad 3d 64 cb 06 bb 48 a7 28 3c 75 4a 84 3d
       0.08485331 -0.0020568008 0.010293789 0.06459514
0002b0 33 40 85 bd eb 7e 13 bd b6 64 40 bd 2b d5 ef bd
       -0.06506386 -0.03600971 -0.046971045 -0.117105804
0002c0 f0 2b 3f 3e c1 9d 4b bd e1 bc c3 bd 43 a7 8e b9
       0.18669105 -0.049710993 -0.0955751 -0.0002720897
0002d0 0a 76 d7 b8 b1 9e d0 3c cc f5 05 3e 06 39 03 3e
       -0.000102739854 0.025466295 0.13082045 0.12814721
0002e0 09 0b 12 bd ba fe 1f 3e e0 19 f5 bc b2 76 cd 3d
       -0.035655055 0.15624514 -0.029919565 0.10032405
0002f0 b4 00 c8 3d 9d 43 86 bd 0d 9f a9 3d be e7 f4 3d
       0.09765759 -0.06555865 0.0828229 0.11958264
000300 b9 00 14 3e 2a 50 17 3e f2 e9 06 be 48 7f 83 3e
       0.144534 0.14776674 -0.1317518 0.25683045
000310 26 10 96 bc 7a 81 b1 3d d8 a7 ee 3d dd 03 b8 3c
       -0.018318247 0.08667274 0.116531074 0.02246278
000320 69 5a f6 bd 1b d8 d4 3d 2f c8 3d be c8 27 b8 bd
       -0.12028963 0.10392781 -0.18533395 -0.08991963
000330 fa b3 f3 bd e9 37 62 3d 5c 2e 18 be 97 90 6d bd
       -0.11899562 0.0552291 -0.14861435 -0.05799922
000340 ae 77 9a bd 97 a9 23 be 1d 93 8c 3d 80 84 e6 bc
       -0.07542358 -0.15982662 0.06863997 -0.028139353
000350 1c 02 8f 3d 99 08 ff 3d b1 42 f3 3c b3 fa e2 bd
       0.06982824 0.12452812 0.029694887 -0.11082973
000360 15 e9 34 3e 1a 11 c8 3d 4d f4 a8 bd f7 fb ed 3c
       0.17667039 0.09768887 -0.08249722 0.02905081
000370 20 8f ae bc ea a8 38 3c 79 2a 18 bd f7 e0 b4 3d
       -0.021308482 0.011270741 -0.03714988 0.08831971
000380 e9 29 15 bc f9 56 90 3b 67 0f 3f bc ee 66 5f 3e
       -0.00910423 0.004404899 -0.011661387 0.21816608
000390 6a ac 2e 3e cc 42 5a bc c6 49 b4 bb d6 b1 3f 3c
       0.17057958 -0.01332159 -0.0055019585 0.011700114
0003a0 ec 6d 82 bd 44 b5 be bb 26 4a f6 3c b6 98 49 bd
       -0.06368622 -0.0058199484 0.030064654 -0.049217902
0003b0 85 9c 32 bd 16 40 ce 3d 0f 83 53 3d 9a d7 90 ba
       -0.0436063 0.10070817 0.05163866 -0.0011050582
0003c0 4d b5 98 bd 29 16 b4 3c 05 05 d5 bd 9b 09 68 3d
       -0.074564554 0.021983223 -0.10401348 0.056649785
0003d0 48 3d 3b 3e 9e 70 9d bd eb 46 fc 3d 85 c6 2d bd
       0.18285096 -0.07687496 0.12318214 -0.04242565
0003e0 7f f0 99 bd ff e0 8c be 58 02 39 bd 51 9c 90 bd
       -0.07516574 -0.27515408 -0.04516825 -0.07061065
0003f0 0f 38 09 3e e3 0c 22 3e f6 fd 6d bd 9a e4 c2 3d
       0.13400291 0.15825228 -0.058103524 0.095162585

weight f4 [8]
000000 76 7a 55 3f bf 3c 68 3f e2 54 63 3f 98 98 6f 3f
       0.83389986 0.9071769 0.88801396 0.93592215
000010 27 31 4d 3f 3b 20 83 3f 3e 53 69 3f c5 9c 94 3f
       0.80153126 1.0244211 0.9114264 1.1610342

bias f4 [8]
000000 31 0e c3 be 76 85 94 be 42 99 c8 be 1e 6c a6 be
       -0.38096765 -0.29008073 -0.39179426 -0.32504362
000010 bb 1d 9d be eb b4 c6 be ca 8d 88 be 58 ef c5 be
       -0.30686745 -0.38809904 -0.26670676 -0.38659167

running_mean f4 [8]
000000 8b 81 d7 bd 4b 3e 8b be 16 44 5f 3e 76 b9 00 be
       -0.10522755 -0.27195963 0.21803316 -0.12570748
000010 a4 53 c8 3e af e6 00 be 5b 38 45 bd ba bb 0b 3e
       0.39126313 -0.12587999 -0.048149448 0.13645831

running_var f4 [8]
000000 1d c7 b4 3d c1 11 c4 3d 95 d5 4c 3e 69 b3 4e 3e
       0.0882704 0.09573699 0.2000335 0.20185627
000010 e3 bb 16 3e dc dd 48 3e 70 19 21 3e 96 8e 83 3e
       0.1472011 0.19615883 0.1573236 0.25694722

weight f4 [16, 8, 3, 3]
000000 14 1c 24 3d 81 1e 2d bc 9a 69 10 bc 64 89 3b bd
       0.04006584 -0.010566355 -0.00881424 -0.045785323
000010 56 a6 28 be 95 36 10 3d 3c 55 8c 3d 58 cc 1b 3e
       -0.16469702 0.035208303 0.06852195 0.1521467
000020 a1 4e d3 bb 8e f2 07 be dd 39 40 be 29 3d 85 be
       -0.0064485823 -0.13276121 -0.18772073 -0.26023224
000030 af a1 88 3b 29 de 36 3d f9 40 8d 3c 9b 63 c1 3d
       0.004169665 0.044645462 0.017242895 0.09442826
000040 a3 b3 b9 3b a9 0c fd 3d 04 a8 c1 3d af 7a aa bd
       0.0056671663 0.1235593 0.094558746 -0.08324181
000050 8c da ef bd c1 1b db bb b9 20 1f 3e 38 7f a1 3d
       -0.117116064 -0.006686658 0.15539826 0.07885593
000060 af aa 05 be 7c 17 54 bd 37 10 a4 bd 63 51 2a 3c
       -0.13053392 -0.05178021 -0.08010905 0.010395381
000070 e1 2e 7f bc fe c7 0a 3d 37 9d d1 bc ab b1 c8 bd
       -0.015575142 0.033882134 -0.025587661 -0.097995125
000080 33 01 3f be 85 76 21 bc 50 4f 39 be 13 24 70 bd
       -0.18652801 -0.009854917 -0.18096662 -0.058628153
000090 88 b3 7a bc 57 75 48 3d fc 98 0b 3e 3b b8 da 3d
       -0.015301593 0.04894003 0.13632578 0.106796704
0000a0 9e 01 f2 3c 80 50 ac 3b 81 df a3 3b 1f b1 8f 3d
       0.029541787 0.00525862 0.005001009 0.07016205
0000b0 11 6b a8 bd 04 f8 47 bd 79 f4 96 bd ac 9e 22 bd
       -0.08223546 -0.04882051 -0.07370848 -0.039702103
0000c0 a3 1e 24 3a ae 9a 7d be 13 61 99 be ae f3 c2 3d
       0.0006260669 -0.24766037 -0.29956874 0.095191345
0000d0 6e 72 e1 bb 4e f5 33 3e 40 b9 37 bd a1 99 ec bd
       -0.006880096 0.17574045 -0.044854403 -0.1155274
0000e0 9a 08 08 bd 37 37 bc 3c 17 29 ff 3d 4a ef 46 3d
       -0.033211328 0.022975547 0.12459009 0.048568048
0000f0 5f 9e 88 3d b7 de 06 3e 25 9e bc bc 84 13 97 3d
       0.06670832 0.13170896 -0.023024628 0.07376769
000100 58 14 30 bd d3 c6 ee bd 27 63 11 be e3 47 53 be
       -0.04298815 -0.116590165 -0.1419798 -0.20632891
000110 2f 1e 82 be 16 30 7b 3d 39 5f 07 3d 4c 14 4c bd
       -0.25413653 0.061325155 0.033049796 -0.049824044
000120 7f 62 4a bd d2 e4 41 be 3d 1f fa ba f5 c5 5a 3c
       -0.04941034 -0.18934944 -0.0019082796 0.013352861
000130 31 06 a1 3d 96 d7 d2 3c 37 25 eb bc 83 eb 3e 3d
       0.07862509 0.025737565 -0.028704269 0.04661132
000140 70 00 bc 3d 96 a5 97 bd 22 0f 93 3d c8 31 61 3e
       0.09179771 -0.0740463 0.07180621 0.21991646
000150 07 a4 3c 3d c1 95 49 bd d8 6b 3c 3d 46 19 6a 3d
       0.046054866 -0.049215082 0.046001285 0.05715301
000160 36 c5 b2 bd d9 e6 b1 bd 7a 8b 86 bd 42 70 19 3e
       -0.08729021 -0.08686609 -0.06569572 0.14984229
000170 d2 c7 b0 3d d4 5d 23 be fa e9 d6 3d dd e1 22 be
       0.08631863 -0.15953761 0.10493846 -0.15906473
000180 ef 46 72 bc 20 90 96 bb dc 3c ab 3d 17 99 88 bc
       -0.01478742 -0.0045948178 0.083612174 -0.016674561
000190 aa a9 11 bc 23 b1 44 bd ec 54 e0 bc 1a b4 92 bd
       -0.008890549 -0.048020493 -0.027384244 -0.07163258
0001a0 34 81 ff 3c 92 d9 65 3c a4 5e 37 3e 50 14 2b 3e
       0.031189539 0.014028924 0.17907196 0.16706967
0001b0 4a 9a 9b 3d 9e e2 d0 3c c8 c1 ec bd ba 5f a9 bd
       0.07597788 0.025498684 -0.11560398 -0.082702115
0001c0 c5 6c 03 bd e4 0c 9f bc 0f fa 07 bd a8 7d 09 3d
       -0.032086153 -0.019415326 -0.03319746 0.0335671
0001d0 50 b8 96 bd bb 59 10 3d 4e 50 0f bd cf 6b 61 ba
       -0.073593736 0.035241824 -0.034988694 -0.00085991336
0001e0 06 dc f0 bd d0 dc b9 bd 0a b5 96 3e 5a a5 31 3d
       -0.11760716 -0.0907532 0.29434997 0.043370582
0001f0 0f 96 a6 3d 14 dc c1 bd f5 23 44 3c e8 f3 75 3e
       0.0813409 -0.09465805 0.011971463 0.24018824
000200 bb 11 31 b8 3c d3 b6 3d 80 66 02 bd 55 a0 7f be
       -4.22166e-05 0.089270085 -0.031836033 -0.24963506
000210 a0 d1 c2 bc 96 30 a1 3c df 2c b6 bb 0d 5b fb 3c
       -0.023781598 0.019676488 -0.0055595483 0.030683065
000220 d3 00 93 bd ab f1 4c be 42 cd e0 bc 9d 49 97 3e
       -0.071778916 -0.20014064 -0.027441625 0.2954835
000230 76 f3 4d 3e bd 0a a7 bd 10 46 24 3d bd d4 88 3d
       0.20112404 -0.08156345 0.04010588 0.066812016
000240 90 ab f2 3c 2b 67 2c 3d 40 cf e4 bc 5a 03 eb 3d
       0.029622823 0.042090576 -0.027930856 0.11475249
000250 f3 a1 24 be ca ea b2 3d 3e 27 87 3d 17 41 82 3d
       -0.16077404 0.08736189 0.06599282 0.06360071
000260 bc 40 39 bd 87 e2 4f 3e 2c fd 77 3e e7 66 54 bd
       -0.04522775 0.20301257 0.24217671 -0.051855948
000270 62 21 96 3d 42 e4 e9 3c da 53 bf 3d e7 6d 1e be
       0.07330586 0.028551225 0.09342165 -0.15471612
000280 7b 71 96 bc 5b 1b dd bc 9d 14 40 3c 17 79 a9 3c
       -0.018364659 -0.026990583 0.011723665 0.020687623
000290 09 65 95 bd 6c bb 35 be 56 d2 06 be c6 c8 13 3e
       -0.072946616 -0.17747277 -0.13166174 0.14432058
0002a0 99 39 84 3d e2 9e cc 3d 2c 10 2c bd 87 c1 bd 3c
       0.064562984 0.09991242 -0.04200761 0.02316357
0002b0 27 0f 37 3c 91 c8 b5 bc 69 0c 0a 3d 4c 5c 0c 3e
       0.011173046 -0.022190364 0.03370324 0.13707083
0002c0 50 5b bf 3b 43 eb 0b bc c3 bc f8 3c bc 70 59 bd
       0.0058397427 -0.0085399775 0.030363446 -0.053086028
0002d0 66 97 6e bc ed cb 90 be bd a5 8b bd e4 d0 67 bd
       -0.014562463 -0.28280583 -0.068187214 -0.056595698
0002e0 d5 5f e2 bc 77 00 f9 3c db 3a 89 bd 41 b8 6f bd
       -0.027633587 0.03039573 -0.06700679 -0.058525328
0002f0 5e 34 1c be f0 06 74 3d 2c 42 77 3c 0d 3b 1e 3d
       -0.15254351 0.05957693 0.01509146 0.038630534
000300 d1 88 9c 3e 05 1c 7f 3b c5 52 fd 3d ac 7d 4d 3d
       0.30573133 0.0038926613 0.12369303 0.05016868
000310 c9 c0 be bd 7b 65 9b 3d 4d 84 24 3d bd cb c1 bc
       -0.093141146 0.07587715 0.040165234 -0.02365672
000320 e9 13 b7 3c 8b e0 6b be 9e 7d 20 bd ac dc a1 3c
       0.022348361 -0.23034875 -0.039182298 0.019758545
000330 89 b3 aa bb 80 85 09 3a d2 25 fc bd c4 04 9c bd
       -0.0052093905 0.00052460283 -0.12311901 -0.076180965
000340 30 db 27 3e 90 37 56 3e 69 0c 81 bd 92 71 06 3d
       0.16392207 0.20919633 -0.06301195 0.032823153
000350 51 1b 10 3e 2f dc aa 3c d6 54 b2 3c 6c 6a e9 bd
       0.1407292 0.020856945 0.021768969 -0.113972515
000360 26 9b 4c 3d 83 61 2c bd 00 a1 1b 3c 53 9b ba 3d
       0.04995265 -0.042085182 0.009498835 0.09111657
000370 4e b2 43 3d 4d ba 1b 3d d5 c1 4f 3d a8 36 b7 bc
       0.047777466 0.038019467 0.050721962 -0.02236493
000380 27 84 c0 bd ae a9 90 bc 07 d7 59 3b 40 fb 65 3d
       -0.09400206 -0.017659035 0.0033239739 0.056147814
000390 4c 95 17 3d 26 13 df bd 75 1d df 3d 2a a6 80 bd
       0.037007615 -0.10892324 0.1089429 -0.06281693
0003a0 97 25 b9 bd 7a 13 2b be 63 4b a3 3c 57 e6 2a bd
       -0.09040373 -0.16706648 0.019933408 -0.041723575
0003b0 bc 6c 9d 3c f6 20 97 3d 48 46 48 b9 f6 b2 96 bd
       0.019216888 0.07379334 -0.00019099668 -0.07358353
0003c0 c5 66 e5 bd 5e 86 8f bd 7e 98 56 3b 78 36 d7 bc
       -0.11201242 -0.070080504 0.00327447 -0.02627109
0003d0 e4 d2 1e 3d 6c 10 fb bc 52 39 4f 3d 49 b5 4c 3d
       0.03877534 -0.030647479 0.050591774 0.049977574
0003e0 9d 0f bf 3d 5f 71 7a 3d f6 0c 15 3e 18 46 88 3c
       0.0932915 0.061143275 0.14555725 0.016634986
0003f0 95 80 b2 bc f1 d8 39 bc 1f 90 9a 3c b4 4d 40 bd
       -0.021789828 -0.011343227 0.01886755 -0.046949103

weight f4 [16]
000000 45 0c c5 3f 53 b1 d6 3f 29 85 d2 3f 08 83 b1 3f
       1.5394369 1.6772865 1.6446887 1.3868113
000010 31 5e c2 3f d0 48 d6 3f 14 83 be 3f f2 35 c2 3f
       1.5184995 1.6740971 1.4883752 1.5172713
000020 9d f0 b6 3f a3 29 c3 3f 87 9b b4 3f 4f b8 d5 3f
       1.4292179 1.5247082 1.4109963 1.6696872
000030 ad ed c3 3f e3 54 cb 3f a7 3c aa 3f e7 8c c7 3f
       1.5306908 1.588528 1.329976 1.5589875

bias f4 [16]
000000 5a c4 18 3f bc 96 3f be ac bf 83 3d 6b 24 03 3f
       0.5967461 -0.18709844 0.06433043 0.51227444
000010 b3 24 df 3d 37 8d 2e be 55 a5 c3 bc 41 85 98 3c
       0.10895672 -0.17046057 -0.023882547 0.018618228
000020 4f 43 92 3e 10 ed 24 3e 1c 87 1e 3f e4 13 ac be
       0.28566977 0.16106057 0.6192491 -0.33608925
000030 11 ae 11 3d 7a 59 9a 3e d3 7e b0 bd 1c 84 43 3e
       0.035566393 0.3014639 -0.0861794 0.19093364

running_mean f4 [16]
000000 f0 5c 50 bd ae d7 b6 bd 8b 15 88 bd 8e 87 58 bf
       -0.050869882 -0.089278564 -0.06644734 -0.8458184
000010 98 7a 11 be 35 5e d2 bd cc f4 64 3e 17 b7 39 3d
       -0.14206922 -0.10271875 0.22359008 0.045340624
000020 dd c4 dc be 68 26 aa be c9 e2 b6 be a5 d5 03 bb
       -0.43118945 -0.33232427 -0.35719898 -0.0020116356
000030 e6 c9 6b 3d 00 2b bf 3a c4 60 1f 3b d5 fa 43 3e
       0.057565592 0.0014584959 0.0024319151 0.19138654

running_var f4 [16]
000000 18 01 10 3e 81 da 3b 3d 13 b1 db 3d 03 13 85 3f
       0.14062917 0.04586268 0.107271336 1.0396427
000010 56 dc aa 3d fe ad 1b 3d f5 33 2e 3e d9 9e 3b 3d
       0.08342807 0.03800773 0.17012008 0.045805786
000020 2b da e5 3d b5 05 b4 3e 77 9a be 3d 5a 64 06 3d
       0.11223253 0.35160604 0.093068056 0.032810546
000030 be fe 92 3d 4d 99 1d 3e cd c2 5f 3d 9e 87 53 3e
       0.071774945 0.15390511 0.054629136 0.20657203

weight f4 [64, 192]
000000 48 8a aa bd f0 b6 bf bd 2a 33 5d 3e df 3d b7 3c
       -0.08327156 -0.093610644 0.21601549 0.02236837
000010 fc d9 5a be 57 d9 a0 3b cc de 66 bd 8d be 23 be
       -0.21372217 0.0049087214 -0.05636482 -0.15990658
000020 a2 bd 47 be 58 ab 2d be 31 91 30 be 8d 0d f4 bc
       -0.19505933 -0.16959894 -0.17242886 -0.029791618
000030 b2 5a d8 3c 3b 06 8b bd 4a ff 2a be b6 96 2e 3d
       0.026410434 -0.06788298 -0.16698948 0.042624198
000040 a2 2b 36 3e c0 52 72 3d f2 7d 08 3e 45 64 aa 3c
       0.17790082 0.059160948 0.13329294 0.020799765
000050 e4 f6 8d 3e 5d 48 65 3e 68 3b 4a be 8f 90 3e be
       0.27727425 0.22390886 -0.19749224 -0.18609832
000060 11 5e 9d bd 4b 83 04 be de ce ee 3d a9 f0 b6 bd
       -0.07683957 -0.1294071 0.116605505 -0.08932621
000070 9e dd 1f bd b7 c3 37 bd 3c 15 e5 3d 46 db 18 bd
       -0.03902971 -0.044864383 0.11185691 -0.03731849
000080 be c3 9e bd ee 1e 17 3e 9f 28 b5 3e 47 b1 6f 3e
       -0.077521786 0.14757892 0.35382554 0.2340747
000090 18 9c b6 bd d7 4f 6d be 08 4f 03 bf ca 86 3d be
       -0.08916491 -0.23174988 -0.5129247 -0.18508449
0000a0 74 cd 4e be cb ac 89 be 65 99 41 bd 2c b8 c9 bc
       -0.20195562 -0.26889643 -0.04726543 -0.024623953
0000b0 6b d5 1d be 66 2f 05 bf 20 ed b4 be 61 a5 3e be
       -0.15413444 -0.5202545 -0.35337162 -0.18617775
0000c0 dd 11 9a bd 1f a7 2d 3e 6e bb 51 3e d2 b0 25 bd
       -0.075229384 0.16958283 0.20481655 -0.040451832
0000d0 c6 00 18 bd 0e bb 42 be 26 f6 f0 3d a4 2b a8 3d
       -0.037110113 -0.19016668 0.11765699 0.08211449
0000e0 12 97 da bb 56 61 e3 bc 94 b1 6b 3e 52 f0 16 3e
       -0.006670841 -0.027756374 0.2301696 0.14740112
0000f0 97 fc da 3d 61 21 71 bd 45 ef 04 3d d6 fe 1f 3d
       0.10692709 -0.058869723 0.032454748 0.03906139
000100 a5 7c 8e 3d 73 fd e8 3c 24 71 b1 bd 69 58 cd 3c
       0.06957368 0.028441167 -0.08664158 0.025066571
000110 5e 72 8f 3e 72 eb 81 3e 63 cb 30 be 67 d7 99 3d
       0.28016943 0.25374943 -0.17265086 0.07511788
000120 d1 3d 2f be f7 3a a0 3d 33 5a 01 3e 4d 5c de bc
       -0.17113425 0.07823747 0.12632065 -0.027143622
000130 46 ad 7a bd a4 68 de bb 2f 5f 5b be 7b 0d e1 3c
       -0.061200403 -0.0067873765 -0.21423028 0.027472248
000140 6b a4 04 3e ec b4 b7 bd 8d 1f 90 be 2b bc e4 bd
       0.12953345 -0.08970055 -0.2814907 -0.11168703
000150 6d b0 87 3c 50 5e 0e 3e 39 6b 2d be 8a fa c8 3e
       0.016563619 0.13903165 -0.16935433 0.39253646
000160 dc 03 8c bd 2a 5c f2 bb a2 0f 8a 3d 6d 8c 86 bc
       -0.068366736 -0.0073962407 0.06741263 -0.016424382
000170 9a 17 84 bc 7f a4 90 bd 4f 72 7c bc 73 e4 60 ba
       -0.016124535 -0.07062625 -0.015408113 -0.00085789635
000180 ee e3 3a bd 60 db 8b be 36 fd 22 3e 4b 00 00 3d
       -0.045627527 -0.27315807 0.15916905 0.03125028
000190 d2 72 3b 3d a1 e4 1f be 21 78 5f 3d 36 60 67 be
       0.045763798 -0.15614559 0.054557923 -0.22595295
0001a0 3c 32 16 3e 9b 74 4f be 41 f6 01 be b8 c0 93 3a
       0.146676 -0.20259325 -0.12691595 0.0011272645
0001b0 15 b4 86 bd 56 5c 05 be 90 03 5a be f3 4c 32 bd
       -0.06577317 -0.13023505 -0.21290421 -0.043530416
0001c0 c9 51 d5 bd a0 99 6b 3c e7 c7 80 be 2d 33 1d 3d
       -0.1041599 0.014379889 -0.25152513 0.038378883
0001d0 a1 93 97 bd 2b 04 0b be f1 5e a2 3d 34 43 ea bd
       -0.07401205 -0.13575809 0.07928265 -0.11438599
0001e0 6f d2 9d bc b6 89 09 bc b7 7e 07 3e bc 85 e1 bd
       -0.019265382 -0.008394649 0.13231932 -0.11011836
0001f0 e0 9d 05 be 24 bf 4b be 6d d6 11 3d b7 ed 1f be
       -0.13048506 -0.19897133 0.035604883 -0.15618025
000200 22 0b 78 be 60 b2 14 be fc 94 0e 3e 77 f1 44 be
       -0.24222997 -0.1452117 0.1392402 -0.19232737
000210 e3 e7 ea bd 6a 3d 8a 3d 38 8d 9f bc d8 e7 0b 3e
       -0.1147001 0.06749995 -0.019476518 0.1366266
000220 56 30 30 3e e1 93 24 3d 23 aa f6 3d f5 fa b6 bd
       0.17205939 0.04018009 0.1204417 -0.08934585
000230 64 68 83 3e 63 6a 2a 3e b7 fc 18 3c a9 69 8b 3c
       0.2566558 0.16642146 0.009337596 0.017018156
000240 f4 80 e7 3d 58 15 96 3d e4 71 b8 3e 6c 3b 97 3e
       0.11303893 0.0732829 0.36024392 0.29537523
000250 24 1d ed 3d f1 d4 ae bc 12 2c 4d 3d 9a 96 e5 bb
       0.11577824 -0.021341773 0.050090857 -0.0070064785
000260 a6 d4 0f be e8 12 22 bd f9 31 41 bd 57 b9 4c 3d
       -0.14045963 -0.03956881 -0.0471668 0.04998144
000270 4c d1 6c bd 9e 50 9f 3c 1e 51 f6 3d fc 21 e8 3e
       -0.05781679 0.019447621 0.120271906 0.45338428
000280 20 fe 4b 3e ef 34 d3 3c a9 0f 85 bc 79 c3 04 3e
       0.1992116 0.025782077 -0.016242819 0.12965192
000290 04 62 9c bd 1e 9b c2 be bc 49 93 be 06 57 dd bc
       -0.076358825 -0.3800897 -0.28767192 -0.027019035
0002a0 08 2c 88 3e ed fd ef bd cc a2 52 3d a9 c0 83 3e
       0.26596093 -0.117183544 0.051424786 0.25732926
0002b0 b5 13 09 be 3e 56 45 3e 25 aa 3f be 01 56 06 bd
       -0.13386424 0.1927118 -0.18717249 -0.032796863
0002c0 62 ae b7 bd d5 a4 6a 3d f2 ae 3d 3d 8b 69 67 be
       -0.08968808 0.057286102 0.04630942 -0.22598855
0002d0 ed 04 84 3e ed 00 c8 3d 56 36 b2 3e 1a bc 4c be
       0.25785008 0.097658016 0.3480708 -0.1999363
0002e0 37 2f 80 3d 4b e8 4c 3e 59 05 45 bc d3 ac 09 be
       0.062590055 0.20010488 -0.012025201 -0.13444833
0002f0 67 36 e6 bd af b9 95 be 02 1a 39 be 37 72 9f bc
       -0.11240845 -0.29243228 -0.18076327 -0.019463642
000300 a1 f6 ea 3d 82 03 fe bc 6a 66 b7 bd 81 e8 12 3d
       0.11472822 -0.031007532 -0.08955081 0.035866264
000310 6d 53 a4 bc 95 73 f7 3c 1d 44 37 3d d1 a3 40 3d
       -0.020059312 0.030206481 0.044742692 0.047031227
000320 64 a4 fa 3c 6e 95 57 3d 68 20 a7 3c 51 04 9f 3c
       0.030595966 0.05263274 0.020401195 0.019411238
000330 f1 cd 29 bd 75 7b bd 3c fd b5 bb 3d e8 be e2 3d
       -0.041456167 0.023130158 0.09165571 0.11071569
000340 bb 6c ea bd 62 eb 4b 3d e2 fe 54 3e a8 e1 9f 3a
       -0.1144652 0.049785025 0.20800355 0.0012197988
000350 6f 5e 33 be 35 b2 77 bc f0 96 5e bc 74 96 bf 3c
       -0.17516492 -0.015118171 -0.013585791 0.023387171
000360 64 d8 48 3d bd 98 b7 3d 98 f5 2f bd 79 68 d5 3d
       0.04903449 0.089646794 -0.042958826 0.10420317
000370 dc 7f 8a 3d dc e7 c4 3d 34 5e 26 3e 7e 92 ab bc
       0.067626685 0.09614536 0.16246873 -0.020943876
000380 cb 6a 0a 3e 26 df 29 3e 09 5f 9c be 08 d9 2c bc
       0.13517301 0.1658903 -0.30541256 -0.010549791
000390 a2 41 5e bb c5 f0 c7 3d b7 0a 72 3d af ed 3f 3d
       -0.0033913632 0.0976272 0.05909225 0.046857532
0003a0 ff 9e 87 bc 0b 30 95 bc 25 e9 88 3c 1f 42 b8 bd
       -0.016555307 -0.018211385 0.016712734 -0.089969866
0003b0 e2 15 b1 3c bd 89 4d 3e d0 de 11 3e 46 bd 05 3b
       0.02161688 0.20072074 0.14245152 0.0020407005
0003c0 fc 84 5e 3d ad ce 25 3d 4f 29 f9 3d 71 7d ba 3d
       0.054326043 0.040480305 0.12166082 0.09105957
0003d0 38 0c ee 3d 59 97 d9 bd 72 02 02 3e e6 d3 08 be
       0.11623424 -0.106245704 0.12696245 -0.13362083
0003e0 13 51 92 3d 07 39 22 3d f6 bd c2 be b5 3e 86 bb
       0.0714437 0.039605167 -0.38035554 -0.0040968307
0003f0 ee dc 8f 3c 52 ff 8f 3c 59 73 2d bb 72 3e 52 3d
       0.017561402 0.0175778 -0.0026466458 0.051329084

bias f4 [64]
000000 fa 84 0e be 49 51 56 bd c8 78 58 3e 73 6a 6a be
       -0.13917914 -0.052323613 0.21139824 -0.2289217
000010 72 fd 18 3e 54 df 36 3e 0f 92 51 3e 5c 60 f7 3c
       0.14940432 0.1785863 0.20465873 0.030197315
000020 c4 50 94 3e d6 c4 74 3d f4 d6 bd 3d 2b 80 8d 3d
       0.2896787 0.05975803 0.09269515 0.06909212
000030 f3 41 6e 3e 22 a0 84 bd b8 94 86 3e 2c 49 bd bd
       0.23267345 -0.064758554 0.26285338 -0.09242472
000040 b1 16 36 3e 97 35 9d 3e 9e e3 20 3e 16 f1 b1 3e
       0.17782094 0.30704948 0.15711829 0.34754246
000050 0e 50 14 bd f9 ca 43 3e c3 f2 9c 3e d2 46 50 3e
       -0.03620916 0.19120397 0.30653962 0.20339516
000060 44 4a 86 3e 5a 03 ce 3d 80 50 2a 3e 8d 05 93 3e
       0.26228535 0.10059233 0.16632271 0.28715172
000070 26 a2 93 3e d3 20 98 3d 28 fd 80 3e 87 39 65 3e
       0.28834647 0.07428136 0.25193143 0.22385226
000080 ac d1 32 3e 5a 9a 94 3e 29 b8 37 3e b4 52 ba 3e
       0.17462796 0.2902401 0.17941345 0.36391222
000090 0e 38 3b 3e 84 b4 52 3e 6b 41 21 3e 7b 00 c3 3e
       0.18283102 0.20576674 0.15747611 0.38086304
0000a0 2f da 1e 3e 5b 02 54 3e e2 11 49 3e d2 6d c0 3e
       0.15512918 0.20704024 0.19635728 0.37583786
0000b0 72 a4 80 3d b2 f7 0a bd 9a a1 37 3e e1 39 db 3c
       0.062813655 -0.033927627 0.1793274 0.026760997
0000c0 df 05 30 3e c7 89 cb 3d fd f9 7b 3e d1 62 57 3e
       0.1718974 0.09938388 0.24607082 0.21033789
0000d0 a1 d9 6b 3e 33 3b 2c 3e f3 da 9e 3d 42 05 18 3e
       0.23032238 0.16819458 0.07756605 0.14845756
0000e0 fa 89 7b 3e d6 2c 82 3e a9 7f 13 3e bc f8 74 3e
       0.24564353 0.25424832 0.14404167 0.2392301
0000f0 15 55 62 3e fa 9c 17 3e ad 65 82 3e 6a 8d 83 3e
       0.22102769 0.14805976 0.25468197 0.25693828

weight f4 [8, 64]
000000 fe 5c 11 bf 45 29 e7 3c 5b 03 c4 be 1e ce 16 3f
       -0.5678252 0.028217921 -0.3828381 0.5890826
000010 9d 63 87 3d ca fd a9 be 5a 69 11 be b1 63 0e 3e
       0.066107966 -0.33201438 -0.14200345 0.13905217
000020 39 96 d7 be 3c 62 7e 3d 24 47 82 3e e5 d4 33 3e
       -0.42106798 0.062105402 0.254449 0.17561682
000030 da 08 5d 3e bd db 8d bc 0b 9e b1 be 85 68 51 bd
       0.21585408 -0.017316693 -0.3469089 -0.05112507
000040 92 69 8b 3e df a0 8d be c6 ab 46 3e 1c 75 87 be
       0.2722898 -0.27661797 0.19401464 -0.26456535
000050 5f 3f c3 3e 19 65 4a 3e ef 1d a6 3e 21 24 d9 be
       0.38134286 0.19765128 0.32444713 -0.42410377
000060 94 24 43 be 45 7c 3b 3e 93 9c ad bc 5e ca e8 be
       -0.19056922 0.18309124 -0.021192824 -0.45466894
000070 8a e5 1f bd 03 ea 48 3e 94 e3 e0 be 14 24 9c be
       -0.039037265 0.19620518 -0.43923628 -0.30496275
000080 53 79 92 3e 99 8d 9a be 55 96 88 be cb 2d 91 be
       0.28608188 -0.30186155 -0.26677194 -0.2835525
000090 a4 d4 65 be 6c 2a 72 be 6d e0 6a 3e d5 88 4b be
       -0.22444397 -0.23648995 0.22937174 -0.19876416
0000a0 dc 74 62 3e 45 8e 25 be 86 37 6b 3e 4e 06 b9 be
       0.22114891 -0.16167553 0.229704 -0.36137623
0000b0 d4 71 32 3e 01 b2 18 3e 1c fc 80 3e 34 26 2e 3e
       0.17426234 0.14911653 0.25192344 0.17006761
0000c0 e5 f7 fc 3d 0e d8 34 3e 92 29 ac be ea ec be be
       0.1235197 0.17660543 -0.33625466 -0.37290126
0000d0 3a 25 b6 be 6a 3b 07 3e cf 2b 48 3e a9 a2 60 be
       -0.35575277 0.13206258 0.19547962 -0.2193705
0000e0 cd fe 8d be 18 3f ba be 53 aa 71 3e a0 6c 8c 3e
       -0.2773346 -0.36376262 0.2360013 0.27426624
0000f0 f3 50 74 3e 58 01 4c 3e e0 ac b5 be 84 2f 9b be
       0.23859005 0.19922388 -0.35483456 -0.3030969
000100 f0 5f 1c 3e ad b5 83 3d fb 47 2f be c1 f9 0b 3f
       0.15270972 0.06431136 -0.17117302 0.5467797
000110 07 47 7c bc 50 42 d3 bd 86 39 56 bd d4 02 10 3d
       -0.015397794 -0.103153825 -0.052300952 0.035158947
000120 e0 61 e5 bd 01 be 77 3e 09 d9 a7 3d 2d 94 27 be
       -0.11200309 0.24193574 0.08195693 -0.16365118
000130 d6 c2 1b be f4 64 3c bb e0 02 0f bd b5 1c 30 3d
       -0.15211043 -0.0028746696 -0.03491485 0.042996127
000140 a1 47 bb bd d3 f6 ba bd ae b4 a5 3e 6f f2 89 be
       -0.091445215 -0.09129109 0.3236441 -0.26942775
000150 05 99 48 3e 58 6a 0c 3d 9a 89 89 be 19 a8 85 bc
       0.19589622 0.034281105 -0.26862794 -0.016315507
000160 ef 2b 32 be f9 ad 1e 3e b0 22 9a 3e 01 1f 48 bd
       -0.17399572 0.15496053 0.3010459 -0.048857693
000170 6e 4f 8a be ec 23 00 3e d4 c3 6f bd 3d c3 03 be
       -0.27013725 0.12513703 -0.058536366 -0.12867446
000180 8d d8 6d 3e 94 de 5d be 60 cc b9 be da e0 0e be
       0.23227139 -0.21666938 -0.36288738 -0.13952962
000190 be e7 e8 3d 82 1c 1c be ac 86 af 3e 46 25 50 be
       0.11372326 -0.1524525 0.34282434 -0.20326719
0001a0 aa 84 2f 3e ae 22 0d 3d f0 36 03 3c 08 e2 66 be
       0.17140451 0.0344569 0.008008704 -0.22547162
0001b0 5e dc 9d 3c 2c 3a bf bd 78 1e 82 3e ff c9 08 3c
       0.019270118 -0.09337267 0.2541387 0.008348941
0001c0 ae 50 28 bd 58 65 8c 3e 77 73 1c be 82 a9 2a be
       -0.041092567 0.2742107 -0.15278421 -0.16666225
0001d0 e1 e1 9d be 5a 5d 58 3e b0 0d a7 3d 39 3b d4 bd
       -0.30836394 0.21129361 0.081569076 -0.10362858
0001e0 96 d2 0a be 39 9d 8e be 8e 3b 27 3d 13 d8 8c 3e
       -0.13556895 -0.27854326 0.04082828 0.27508602
0001f0 c9 44 9d 3d d3 ae 5f 3e ab dd 88 be 73 a9 64 be
       0.07679135 0.21844034 -0.2673162 -0.22330265
000200 69 bb 0b be 4e 02 21 bd 09 4d 67 bd ea a4 3f 3f
       -0.1364571 -0.03930884 -0.05646995 0.74861014
000210 31 3a 90 3d 9e d4 03 be b4 5b 08 be 5c 81 e6 3d
       0.07042349 -0.12874076 -0.13316232 0.11255142
000220 b0 4b 99 be d3 9b 11 bd e1 a5 d0 3d 68 9e 64 3e
       -0.29940557 -0.035548996 0.10187889 0.22326052
000230 2d 5b 9d bd 6d cb 7c 3d 0b 7c 57 bd 08 c1 07 3e
       -0.07683406 0.06171744 -0.05260853 0.1325723
000240 a1 7c 78 3e 50 28 0d be 32 2b 3f 3e ee ac 2c be
       0.24266292 -0.13784909 0.18668821 -0.16862842
000250 1b fa 16 3e e2 7e 5b bd 0a ef 32 3e 22 c6 1e be
       0.14743845 -0.0535878 0.17473999 -0.15505269
000260 d0 bd 9e be 68 ed 17 3e 16 ac 4a 3e 72 a5 b0 be
       -0.3100419 0.14836657 0.19792208 -0.34501225
000270 91 29 6e be 64 bd 6e 3e b2 ec ba be 36 af bd be
       -0.23258044 0.23314434 -0.3650871 -0.37047738
000280 82 1c e2 3d b9 d8 a3 be 6a e3 4f be 9b aa 9e be
       0.11040594 -0.32001284 -0.20301595 -0.30989537
000290 41 d5 1a be 6e 88 3f be 2e b4 ae 3e 34 79 8b be
       -0.15120412 -0.18704388 0.3412184 -0.27240908
0002a0 d6 6e b6 3c 3f de c4 3d 63 4d c2 3d dd 74 86 be
       0.022269648 0.096127026 0.094874166 -0.26261035
0002b0 de 58 13 3e 77 5d a8 3d 4d 93 85 3e ab 6a c4 bc
       0.14389369 0.08220952 0.26088944 -0.023976645
0002c0 2c 9e 99 3d 52 eb 55 3e 73 f1 2f 3c 02 ec 95 be
       0.07500872 0.20890549 0.010738718 -0.29281622
0002d0 ff dd 70 be 86 d8 7d 3e da ff dc 3d 28 dd 98 bd
       -0.23522185 0.24789628 0.10790987 -0.07464057
0002e0 de d7 46 bd fb 5c a8 be 07 e0 73 3e 36 51 e4 3d
       -0.04854571 -0.32883438 0.23815928 0.11148302
0002f0 e3 09 3e 3e 59 0b f0 3d 26 e3 5d be fa 10 ea bd
       0.18558459 0.117209144 -0.21668682 -0.11429019
000300 b6 80 84 3d 4e c2 a3 bd dd a0 b5 be 55 33 97 3e
       0.06469862 -0.07996045 -0.3547429 0.2953135
000310 b3 1d 8f 3e 43 ff d7 bd 93 a2 d2 3c 53 e7 f9 3d
       0.27952346 -0.10546734 0.025712287 0.12202325
000320 e1 f3 81 be 2d 28 4a 3e 58 cd 06 3d 61 08 6f be
       -0.25381377 0.19741888 0.032910675 -0.2334304
000330 e5 2d a9 3d 89 9e 4c 3d 21 b6 29 be 96 cb 50 3d
       0.08260707 0.04995588 -0.16573383 0.050975405
000340 af 03 94 be eb 49 41 be 35 d1 74 3e 38 8d 10 be
       -0.2890906 -0.18875854 0.23907931 -0.1411637
000350 f2 67 08 3f 30 08 b6 3c 46 d5 ae 3c f5 4d 9b be
       0.5328361 0.022220701 0.021341931 -0.30332914
000360 54 b2 d0 bd 16 ec 86 3e 8a d8 c0 3d d1 a7 1f be
       -0.101902634 0.26351994 0.094163015 -0.1559136
000370 71 11 84 be 2e a5 99 3e ba f5 3a be 20 8c b5 bd
       -0.25794557 0.30008835 -0.182578 -0.08864617
000380 45 66 5e 3e 49 37 ae be 20 a1 0a be e5 1a 85 bc
       0.217187 -0.34026554 -0.13538027 -0.016248176
000390 da cb 84 3d 00 0f a1 be af b3 cb 3e 4a af b8 bd
       0.06484194 -0.31456757 0.39785525 -0.09017809
0003a0 56 8e 87 3e 20 13 3c be f4 10 01 bc dd fa 7c bd
       0.2647578 -0.1836667 -0.007877577 -0.06176268
0003b0 80 24 8c 3d 84 c0 16 bc 14 4e ca 3e 59 f9 b6 3d
       0.06842899 -0.009201173 0.39512694 0.08934278
0003c0 e2 1c 34 be 25 05 da 3c 60 4b b7 be 71 2e 74 be
       -0.17589143 0.026613781 -0.35799694 -0.23845841
0003d0 bb 7e 93 be 95 df 70 3e 30 49 ec 3c 73 ff 88 bd
       -0.28807625 0.2352279 0.028843492 -0.06689348
0003e0 df 3c 44 be 8e 34 7a bd 67 7b 4b bd 0e e5 ae 3e
       -0.19163845 -0.061085276 -0.049678233 0.3415913
0003f0 44 f6 45 be 10 18 58 3e 52 7d 92 bd 53 48 55 be
       -0.19332224 0.21102929 -0.07152809 -0.20828371

bias f4 [8]
000000 69 7e 2c 3e e0 10 32 be 21 e7 e8 bb 68 43 c0 3d
       0.16845097 -0.1738925 -0.007107631 0.09387857
000010 d5 ec eb bc bc f6 b1 bc cb 95 ea bd 0a f5 20 be
       -0.028799454 -0.021724097 -0.11454352 -0.15718475
