checkpoints/duel.pth (torch, 74975 bytes, 27 tensors)

weight f4 [8, 1, 3, 3]
000000 92 2b 34 be c4 33 1a 3e e2 23 66 3e 44 96 d6 3d
       -0.17594746 0.1505881 0.22474626 0.1047788
000010 0d 04 a9 be 51 51 c6 be b8 2e ab 3e b0 e2 a1 be
       -0.33010903 -0.38733914 0.3343408 -0.3161826
000020 b0 fd 3b 3e c0 04 2b be 50 91 9f 3e 38 a9 a8 3e
       0.18358493 -0.1670103 0.31165552 0.32941604
000030 4d 66 80 be dd 8d 4c 3d 8f 20 02 be ef 01 67 be
       -0.2507805 0.04993998 -0.12707733 -0.22559331
000040 a3 35 07 3e b3 6e 98 be 41 df 8f bd de 58 7a be
       0.13204055 -0.29771957 -0.07025004 -0.24447963
000050 29 fe 6c 3b 6c 1e 62 3d a7 ed 25 bd ac ab 26 be
       0.0036162233 0.055204794 -0.040509846 -0.16276425
000060 cf 83 c3 be fc bd 43 3e c5 71 6b 3d 7a 42 47 3d
       -0.381865 0.19115442 0.057481546 0.04864738
000070 ee fc 8c 3d f9 ad 38 3e d6 0b 7c bd b8 b7 33 be
       0.0688418 0.18035115 -0.061534725 -0.17550552
000080 55 94 df bc 60 5d b9 3e 9e 64 1f 3e b5 da 9c 3e
       -0.02729241 0.36204052 0.15565726 0.3063561
000090 f0 e6 06 3e d3 4b 59 be 9e 76 b0 be b6 e7 55 3e
       0.13174033 -0.21220331 -0.34465498 0.20889172
0000a0 25 67 6e bb c6 be 9f be 55 4a 73 3b 93 38 90 3e
       -0.0036377397 -0.31200236 0.0037123163 0.28168163
0000b0 e2 bc 76 3e 6c 9d 8d be 28 c4 1e be d7 ec 5f 3e
       0.2409549 -0.27659166 -0.15504515 0.21867691
0000c0 c5 4e 1a 3d 49 74 6f 3e ea e4 a7 3e 50 7e 0f bc
       0.037672777 0.23384203 0.32791835 -0.008758143
0000d0 29 59 93 3e 13 cd 5a 3d b6 c7 21 3e 83 51 8e 3e
       0.2877896 0.05341823 0.1579884 0.27796564
0000e0 58 82 8d 3e 03 e1 7a 3e cb 88 02 3e 53 cb 99 bd
       0.27638507 0.24499898 0.12747495 -0.07509484
0000f0 49 2a a7 bd 06 79 20 3e 04 ca ad 3e 54 77 96 be
       -0.08162362 0.15671167 0.33943188 -0.29387915
000100 c3 3a 04 be 68 b5 58 3e 69 b3 2a be d8 13 87 be
       -0.12913041 0.21162951 -0.16670002 -0.26382327
000110 32 8b 25 3e e6 23 c5 3d 25 03 0d be d4 cd 30 3d
       0.1616638 0.09625988 -0.13770731 0.043165043

weight f4 [8]
000000 52 0a 85 3f 41 2f 7b 3f ad 01 9a 3f 19 b5 74 3f
       1.0393775 0.9811898 1.2031761 0.95588833
000010 6c 7f 7c 3f aa 84 59 3f ff 0e 6d 3f 3a a5 89 3f
       0.9863193 0.84968054 0.9260101 1.0753548

bias f4 [8]
000000 63 b2 57 bd 51 75 cf bb ca a0 04 3e aa 4f 72 be
       -0.052660357 -0.006331124 0.12951961 -0.23663202
000010 a2 09 bc 3d 99 1b c8 bd de af 3b be de d9 c8 bd
       0.09181525 -0.09770889 -0.18328807 -0.0980718

running_mean f4 [8]
000000 36 b2 8a bd 30 e8 a9 bd 54 4c 41 be 4d 5b 8d 3e
       -0.06772272 -0.082962394 -0.18876773 0.2760872
000010 8f 0d 63 3b 0a 04 6d 3e e3 3c e8 3e 24 b1 1c be
       0.0034645533 0.23146072 0.45358953 -0.15301949

running_var f4 [8]
000000 09 87 0e 3b ae be 69 3b 22 d4 87 3b 09 77 fe 3b
       0.0021747968 0.0035666632 0.0041451612 0.007765655
000010 97 7c 84 3b 6c 05 06 3c 04 fb b5 3c cd b2 89 3b
       0.0040431726 0.008180004 0.02221442 0.004202223

weight f4 [8, 8, 3, 3]
000000 fe d9 e8 bd 71 f5 88 bd 1b 38 90 be 74 c7 90 bc
       -0.11369704 -0.06687439 -0.28167805 -0.017673232
000010 d9 b9 f1 3d fc 00 5f bd 55 ff 6d bb 9a f7 d1 3d
       0.11803026 -0.0544443 -0.003631552 0.102523044
000020 f8 c8 10 3e 7d db ac ba 47 84 65 3d 4d 61 24 be
       0.14139163 -0.0013187971 0.056034353 -0.16052742
000030 d0 cc de bc 4e 23 4f 3d 0b a0 10 3e 20 24 12 be
       -0.027197272 0.05057078 0.14123552 -0.14271593
000040 f2 08 71 3e ae 10 ee bc 46 44 ac bd c6 c7 f0 bd
       0.23538569 -0.029060688 -0.084114596 -0.11756854
000050 dc 0f d6 bb cc cd 25 3e 24 e8 c1 bd f8 94 cf bd
       -0.0065326523 0.16191787 -0.094681054 -0.101358354
000060 61 61 4d 3d 96 d9 0d be 84 e8 07 3c bc 68 3d be
       0.050141696 -0.13852534 0.008295182 -0.18496984
000070 1b 61 2b 3c 36 09 0b bd 34 27 25 3c c5 35 5e bd
       0.0104601635 -0.03394433 0.010080148 -0.054250497
000080 85 b1 13 3e 01 15 65 3c 3c 01 13 be df 0d fd 3d
       0.14423187 0.0139820585 -0.1435594 0.12356161
000090 8f 4a 89 bd e3 09 08 3e 13 a1 8a be 3e d1 c4 3d
       -0.06703674 0.13285021 -0.27076015 0.09610222
0000a0 ac 65 f8 3d 5a 5b d5 3d 29 99 35 3e c5 dd 4c 3d
       0.12128767 0.104178146 0.17734207 0.050016183
0000b0 84 44 dd bc a4 16 e4 3d 6b 17 72 bd b8 eb ad bc
       -0.02701021 0.11137131 -0.059104364 -0.021230564
0000c0 33 e5 b9 bb 34 97 a1 bb 05 cd 84 bd 3b f7 2a 3d
       -0.0056730746 -0.004931355 -0.06484417 0.041739684
0000d0 8f 12 0b 3d 62 89 48 bd de f7 80 bc fc 84 b8 3c
       0.033953246 -0.048959143 -0.015743192 0.02252435
0000e0 cb 8b ac bd 14 9d 33 3d 26 65 b0 bd c3 14 a3 bd
       -0.08425101 0.043850973 -0.086130425 -0.07962944
0000f0 58 37 de 3d f1 21 e2 bd 7d 92 7d 3d ac 42 82 bc
       0.108504 -0.1104163 0.06190728 -0.015900932
000100 9f e1 85 3b 1d 36 06 be c8 e9 ad 3d a4 b4 85 bd
       0.004085734 -0.1310658 0.08491856 -0.06528595
000110 29 3b 13 be 75 b3 8f be cb 65 37 be 4b 5d 15 3d
       -0.14378037 -0.28066602 -0.17909925 0.036465924
000120 29 b2 45 bc 32 65 c8 bd 04 c6 6f 3d a4 9d ca bd
       -0.0120664025 -0.097849265 0.05853845 -0.09893349
000130 20 07 28 be 5b 97 2f 3d 3d 4f e0 3d 22 ed e0 bd
       -0.16408968 0.042868953 0.109526135 -0.109827295
000140 0a 0a c9 ba 7b 70 b3 bc 5e ee 8f bb 8e 5b 78 bd
       -0.0015338075 -0.02190422 -0.0043924293 -0.06063419
000150 39 03 e5 bc 8c 00 e2 bd 56 f3 a5 bd d1 13 a1 3d
       -0.027955638 -0.110352606 -0.08103053 0.07865108
000160 00 f3 aa 3d 88 2b eb 3c da 2d 97 be e3 4e 05 be
       0.0834713 0.02870728 -0.2952717 -0.13018374
000170 b5 02 1c be 49 be d9 bd 0b 84 bc 3b b5 1a 24 3e
       -0.15235408 -0.10631997 0.0057530454 0.16025813
000180 73 b1 45 be 92 9a 97 bd bf dd de 3d ad c9 24 3e
       -0.19305973 -0.07402529 0.108821385 0.16092558
000190 ab 64 58 3d bd ef 3f be b5 ec 8f bd 37 40 01 3d
       0.05283038 -0.18743797 -0.0702757 0.03155538
0001a0 31 95 2f ba f8 5e 29 bd 29 d7 3f 3d 84 04 1b 3d
       -0.00066979515 -0.041350335 0.046836052 0.037846103
0001b0 72 28 30 bd 50 43 03 bc c6 27 f4 3d a0 bd 0b 3e
       -0.04300732 -0.008011654 0.11921649 0.13646555
0001c0 03 b0 d2 3b 3a 50 df 3d ed 5d 6d 3d 50 82 e4 3c
       0.0064296736 0.10903974 0.057950903 0.02789417
0001d0 02 90 37 bd 69 d6 ce bc 81 ac b5 bd 3a 33 ce bc
       -0.04481507 -0.025248723 -0.08870793 -0.025170911
0001e0 ae 0f c4 bd a9 b9 3c be e3 6c 9d bd 96 3d 62 bd
       -0.09573303 -0.18430199 -0.07686784 -0.055234514
0001f0 79 c0 91 bd fb 1f 49 bd 64 69 b4 3d 09 af 9a bd
       -0.07116789 -0.049102765 0.08809164 -0.075529166
000200 fb 89 8b bd de fa ae 3b 43 c2 a2 bc 04 66 e4 3d
       -0.06813427 0.0053399643 -0.019868022 0.111522704
000210 d4 9c 01 3c 31 3d a9 bd e1 74 81 3c 0a 41 20 be
       0.007910926 -0.082636245 0.015802803 -0.1564981
000220 8a 14 8f bb 80 1e bb 3d 81 5e 7a bd 31 12 07 be
       -0.004366462 0.09136677 -0.061125282 -0.13190533
000230 c0 16 66 3c b7 8a 83 be 7f f4 6d be 66 04 12 3e
       0.01404351 -0.2569177 -0.23237799 0.1425949
000240 04 08 f1 bd 91 8b 22 bd c2 9e 0c be 01 f2 bc 3b
       -0.11769107 -0.039683882 -0.13732436 0.005766154
000250 26 9e c5 bc 67 b9 ea 3d 01 54 eb bc ef c0 6e 3e
       -0.024123263 0.11461144 -0.02872658 0.23315786
000260 0c bd 0e 3e 83 d3 44 3d 32 9d 9e 3c 31 7e 15 be
       0.13939303 0.048053276 0.019362066 -0.1459892
000270 97 f0 ea 3d f1 8a cd 3d 72 80 2c 3e a4 22 51 bc
       0.1147167 0.100362666 0.16845873 -0.012764607
000280 0b 25 57 bd a2 1d 84 bd 0d fb bb bd 34 6d 01 be
       -0.05252556 -0.064509645 -0.091787435 -0.12639314
000290 2e 23 87 bc 75 d7 cd 3d 5d ab 80 bd 20 5b ee 3d
       -0.016496267 0.10050861 -0.06282685 0.116384745
0002a0 46 9b 49 bd a4 93 0e 3d b6 64 16 bd 88 51 69 bc
       -0.049220346 0.03480877 -0.03671714 -0.01424063
0002b0 8e e5 c7 bc 10 e1 c7 bd 6f 6c 86 3d c1 f5 be 3d
       -0.024401452 -0.09759724 0.06563651 0.093242176
0002c0 e9 df dd bd 26 ab f4 bd 0a 48 11 3d 79 3f 5c 3d
       -0.10833723 -0.119467065 0.035469092 0.05377147
0002d0 cb 25 1d be c7 d7 da bd 91 3f 42 3d 0f 84 37 be
       -0.15346448 -0.106856875 0.047423903 -0.1792147
0002e0 5b 51 b9 3d 22 e3 75 bb 9d ba 99 bd f0 af cb bc
       0.090487204 -0.0037519415 -0.07506297 -0.024864167
0002f0 fe 09 37 3b fd 25 17 bd 61 16 40 b8 3c a5 a2 bd
       0.002792954 -0.036901463 -4.579721e-05 -0.07941672
000300 b4 49 94 bb cd 5c 03 3d 39 81 b2 bd f2 b0 15 be
       -0.0045253877 0.032070924 -0.087160535 -0.1461828
000310 b2 3f 00 bd 51 87 a1 3d ac d1 1e be f2 49 15 be
       -0.031310745 0.07887138 -0.15509671 -0.14578989
000320 6a eb 49 be e0 58 a6 3d ad bd 14 bd 5a 8a e5 bd
       -0.1971871 0.0812242 -0.0363137 -0.11208029
000330 ba 05 00 bc 82 19 8a be 83 73 88 3d 9a 3a f5 3d
       -0.007813865 -0.26972586 0.06662657 0.11974068
000340 f1 24 c9 3d 9b 80 0a bd d9 42 fe bc 94 f5 09 3e
       0.09821499 -0.033814054 -0.031037735 0.13472587
000350 56 6e 8b 3b 11 10 e8 bd bf dd 7e 3d b8 5f 5c bc
       0.0042550964 -0.113311894 0.062223192 -0.0134505555
000360 b0 2c ff bc d9 17 e9 3d a4 b6 01 3e 2a 29 f2 bd
       -0.031149238 0.11381502 0.12667328 -0.11824258
000370 93 a0 90 3d 7e db 43 3c 79 32 d7 bc 97 9a 0c 3e
       0.07061877 0.0119541865 -0.026269184 0.13730846
000380 51 37 b4 3d cb c6 29 be d7 06 98 bd dc 19 7d 3d
       0.08799613 -0.1657974 -0.074231796 0.06179224
000390 3a de 49 bc 9c 90 8c bd c3 85 e6 bc 08 c3 7a bd
       -0.012321049 -0.068635195 -0.028139954 -0.061221153
0003a0 eb 7e 2d 3e e1 6a 15 3e 39 e0 37 3e 56 8c 52 3c
       0.16942947 0.14591552 0.17956628 0.0128508415
0003b0 9f 14 d3 3d fd 47 8c be 77 a0 46 be 13 9b a4 bd
       0.103066675 -0.27398673 -0.1939715 -0.080373906
0003c0 78 50 25 3e 3b fa 03 bc d9 7c 04 bd 47 6d d8 bd
       0.16143978 -0.008055265 -0.032345627 -0.10567718
0003d0 d4 d1 8a 3d 35 f4 aa 3d 55 d8 2a be 91 44 15 3b
       0.06778303 0.0834736 -0.16684087 0.0022776464
0003e0 98 31 c8 3d 97 48 b1 bc ec 08 10 be 9f 29 a1 3c
       0.09775084 -0.021641059 -0.14065903 0.019673167
0003f0 c5 57 a4 3c 20 c2 ac 3d 73 64 4f 3d 12 22 53 be
       0.020061383 0.08435464 0.050632905 -0.20618466

weight f4 [8]
000000 48 4f 5d 3f 6c 1e 74 3f fd 02 91 3f d3 ba 86 3f
       0.864491 0.9535892 1.1329037 1.0525764
000010 98 b3 7c 3f 3d 10 8c 3f a2 68 7a 3f 63 23 73 3f
       0.9871154 1.0942456 0.97815907 0.9497587

bias f4 [8]
000000 9b b5 bf bd 10 01 c4 bc 4e 37 b9 3d 52 14 31 3e
       -0.0936081 -0.023926288 0.09043752 0.17292908
000010 3e 47 df b9 c3 8c 96 bd 35 36 5d be c3 fe 33 3d
       -0.00042586954 -0.07351067 -0.2160271 0.04394413

running_mean f4 [8]
000000 89 f2 dc be 96 09 59 bf 49 ea ed be 9b 52 b5 be
       -0.4315379 -0.8478025 -0.46467808 -0.35414585
000010 ca 1b 51 be 20 1b d5 3b 23 8f ad 3e b4 bf f3 be
       -0.20420757 0.0065034777 0.33898267 -0.47607195

running_var f4 [8]
000000 1c 75 5e 3e c8 ba a8 3e 47 85 a5 3e c0 c7 9a 3e
       0.21724361 0.32955003 0.32328245 0.30230522
000010 11 36 8b 3e 5d d1 e3 3e c6 e8 cf 3e 33 ce 7b 3e
       0.27189687 0.4449567 0.4060728 0.24590378

weight f4 [8, 8, 3, 3]
000000 37 a0 8e 3d ab 6a 8c bd 68 4c cc bd f5 ad 1a 3e
       0.06964152 -0.06856283 -0.09975511 0.15105422
000010 3a 3d fc 3d fd 93 98 bc 35 01 69 bd 8b 4f d9 bc
       0.123163655 -0.018625254 -0.056885917 -0.026527187
000020 3b ce 47 3e b6 de d2 bc a3 e1 5c bd 1b 3b e1 3d
       0.19512264 -0.025740962 -0.05392612 0.109976016
000030 8e 09 b5 3c f1 04 b1 bc 42 48 c9 3c a8 7b 4e be
       0.022099283 -0.021608802 0.024570588 -0.20164359
000040 7b 27 15 3e 17 6d ec bd 05 26 7b bc 87 54 b4 3d
       0.14565842 -0.11544245 -0.015328889 0.08805185
000050 55 a6 4f 3e 9f 2c 0f 3b 63 ea 7a bc 43 b3 95 3d
       0.20278294 0.0021846665 -0.015314671 0.07309582
000060 40 38 2a 3e 43 db e9 3d 45 d3 ec 3d 70 a3 e9 bb
       0.1662302 0.11418774 0.11563734 -0.007130079
000070 d8 cf 47 3d de e2 2c 3d d4 4b 49 3d e4 95 f4 37
       0.0487822 0.042208545 0.04914458 2.9156865e-05
000080 ae 01 49 bd 61 ea e4 3d f7 42 1f 3d 3b d8 ab be
       -0.049073867 0.11177517 0.038882222 -0.33563408
000090 55 37 ca 3c b4 47 92 3c 18 ca bf 3d cb 50 20 be
       0.024684587 0.017856456 0.09364718 -0.1565582
0000a0 04 be e3 3c e3 9c ce bb 8c 72 62 3d 4c 93 d5 3d
       0.027800567 -0.0063053234 0.05528502 0.10428485
0000b0 92 17 30 be b3 2d 87 3c 1b 52 a8 bd b6 7b 43 bd
       -0.17196491 0.016501283 -0.082187854 -0.0477254
0000c0 75 fa 07 3e a2 8a 71 3d b5 5c 81 bc 02 c2 53 3d
       0.13279136 0.0589701 -0.015791276 0.051698692
0000d0 68 7e 27 3e 46 31 56 3d cf 8b 03 bd fd 2a a3 bc
       0.16356814 0.052293085 -0.032115754 -0.01991796
0000e0 b0 1f 29 3d 7f 3b 03 be 14 a6 35 bd 07 29 52 be
       0.041289985 -0.12815665 -0.044347838 -0.20523463
0000f0 02 cc a7 bd 9f 21 3d bd b0 15 61 3d 95 fc cb 3b
       -0.08193208 -0.04617464 0.054952323 0.0062251785
000100 58 16 7c bb dd d1 25 3c c9 3d 4b bd 95 2c 07 be
       -0.0038465466 0.010120836 -0.04961947 -0.132006
000110 e3 12 a8 3d bb 25 9c bd 4a 6f 43 bd b6 83 90 3c
       0.08206727 -0.07624384 -0.047713555 0.01764093
000120 00 c1 15 be bb cf 5f bd fb f3 bb bd 93 96 9e 3d
       -0.14624405 -0.054641467 -0.09177395 0.077435635
000130 3c ca 86 bd c8 f3 99 bd e6 b5 47 be 3c ae ef 3c
       -0.06581542 -0.07517201 -0.19502982 0.029257886
000140 61 52 24 be 36 94 66 3d f5 c5 e0 3c 15 14 aa 3d
       -0.1604705 0.05629369 0.027438143 0.083046116
000150 f8 50 ac bd 0c d4 f6 bd e0 3d d4 3d 0c a6 51 3d
       -0.08413881 -0.120521635 0.10363364 0.051183745
000160 4c 07 89 3d 73 3f 9e bc a4 34 9c 3d b0 87 e0 bc
       0.06690845 -0.019317364 0.07627228 -0.02740845
000170 9b 09 0a 3e 7b c4 24 3e 15 c8 c3 bd c1 bd c1 bc
       0.13480227 0.16090576 -0.09559647 -0.023650052
000180 1a e9 1c 3d 93 08 b2 bd 5e 8a 84 3d 41 bd b3 bd
       0.03830824 -0.08693042 0.06471704 -0.08776332
000190 f5 0c 81 bd 9a d3 ed 3d 5b bb 03 bc d3 ae 22 3e
       -0.063012995 0.116126254 -0.0080402745 0.15887003
0001a0 18 67 3e 3d ab 64 03 be b0 c6 2d be 83 5a f3 bb
       0.046485037 -0.1283137 -0.16970325 -0.0074265613
0001b0 d2 bc 21 be a2 d9 05 be e7 70 18 be b5 ed bb bb
       -0.15794685 -0.13071302 -0.14886819 -0.005735124
0001c0 ba c9 14 bd 0a e6 2e 3d 70 b3 3d 3e 75 e6 b1 3c
       -0.036325194 0.04269985 0.18525481 0.021716336
0001d0 51 df 30 3d 61 5c 57 be 2e 37 db bc b3 d2 3c 3e
       0.04318172 -0.21031334 -0.02675971 0.1843975
0001e0 ff 62 dd 3d 00 3d 57 3d f8 69 bf 3d 46 e9 e9 bd
       0.10809898 0.05254841 0.09346384 -0.114214465
0001f0 81 76 49 3e 0b 33 e5 3d 35 1d d8 bd 04 78 0f bc
       0.19674112 0.11191376 -0.10552446 -0.008756641
000200 4a ea dd 3c 58 12 05 be df 1b bc bc ae 99 e7 3c
       0.027089257 -0.12995279 -0.022962509 0.028271522
000210 17 bd 9f bd ea 63 03 bd 10 88 76 b8 65 f8 01 3e
       -0.07799738 -0.032077707 -5.877769e-05 0.12692411
000220 8f 78 38 3e b9 f2 a0 bb fe 8c 01 3e d8 fa 4e 3e
       0.1801474 -0.0049117473 0.1265144 0.20212877
000230 fd 50 47 3c 46 8b c4 3d 8e aa 3c 3d a2 34 0d be
       0.012165305 0.09596877 0.04606109 -0.13789609
000240 a9 1d dc bd 0f 5c 02 be 18 f5 2c 3b a5 53 e6 3d
       -0.10747845 -0.1273043 0.0026391204 0.11246423
000250 5e 95 f1 3d e4 50 5c 3d 84 59 f9 bc 6c 73 18 bd
       0.11796068 0.05378808 -0.030438192 -0.03721945
000260 bc ac 36 3c 6d 76 98 bd 06 97 29 3d 83 fc ab bd
       0.0111495815 -0.07444463 0.041403793 -0.08397772
000270 fe 1f e4 3a 80 ef 64 3c 83 ab c2 3a 0d 6c a1 3d
       0.0017404554 0.013973117 0.001485214 0.07881937
000280 be 3e 87 bd 19 cd 00 be 26 1a 69 3e 81 8a 4a 3e
       -0.06603764 -0.12578239 0.22763881 0.19779398
000290 e2 a5 30 3d fc 44 4f 3d 4a a4 42 bd 08 4a cf bd
       0.04312695 0.050602898 -0.04751996 -0.10121542
0002a0 4b 99 04 3e b6 db 20 3e cd c1 62 bd 7c fc f3 3c
       0.12949102 0.15708813 -0.055360604 0.02978348
0002b0 b9 ea 12 be 7f 6c 77 bd bb 5a 93 be ab 81 e2 3c
       -0.14347352 -0.060406204 -0.2878016 0.027649721
0002c0 40 22 f3 3d 74 22 4e 3e ea 03 a1 be da 93 ff bd
       0.11871767 0.2013033 -0.314483 -0.12479372
0002d0 89 68 06 bc ae 86 44 bd ed a7 8e 3d af e8 92 bb
       -0.008203634 -0.047980003 0.06965623 -0.0044833045
0002e0 59 87 80 bd de d2 34 3e c3 64 d9 3d a6 5a 61 bc
       -0.062758155 0.17658564 0.10614922 -0.013754522
0002f0 47 47 fd bd 46 51 04 3e 56 8f 69 3d e2 77 a3 3c
       -0.12367111 0.12921628 0.05702146 0.019954626
000300 b7 b4 29 bd e3 e1 88 3d 9e c1 44 bd 38 dc 9e bd
       -0.04143211 0.066837095 -0.04803621 -0.07756847
000310 aa b3 a3 3d 30 89 8b 3d 54 fc 22 3c b6 0d 05 be
       0.079932526 0.06813276 0.009947855 -0.12993512
000320 f9 62 53 bd 5b a5 b9 bd 5e e3 48 3d 4a 78 37 3d
       -0.05160806 -0.09064742 0.04904496 0.04479245
000330 ec aa f1 3c ca fb 4f bd eb ec 72 3c 55 74 be bc
       0.029500447 -0.050777234 0.014826993 -0.02324883
000340 60 2a 16 3d 7f 6c 6c 3c fc 91 c9 bd 39 54 61 be
       0.036661506 0.014430164 -0.098422974 -0.22004785
000350 38 4e c8 3d 20 47 75 3d c4 0e 9b bd 24 88 ee 3c
       0.09780544 0.059882283 -0.07571176 0.029117651
000360 d4 e6 05 3e 18 22 d9 bd a8 ce 13 be d2 a6 4b 3b
       0.13076335 -0.10602206 -0.14434302 0.0031074774
000370 63 80 aa 3d 04 c9 52 3d 3a 43 83 3d 36 5f c6 bd
       0.08325269 0.051461235 0.06409307 -0.09686129
000380 d1 8b 52 bd b0 24 77 3b d6 b6 bb 3a 87 85 01 3e
       -0.05140287 0.0037711076 0.0014321457 0.12648593
000390 96 b8 ad bd a7 e7 dd bc 21 74 1a 3e 5b 49 90 3d
       -0.084824726 -0.027088 0.15083362 0.070452414
0003a0 75 05 8c bd 3e d1 04 3e bf 4d 12 be eb 1a 7e bd
       -0.06836978 0.12970445 -0.1428747 -0.06203739
0003b0 64 d9 82 3d cb 4e 46 3c d8 01 a9 bd 62 62 30 be
       0.0638912 0.012103747 -0.08252305 -0.1722503
0003c0 68 0d a8 bd 46 c3 57 3e 68 95 15 3c 72 8f e0 bd
       -0.08205682 0.21070585 0.0091298595 -0.1096486
0003d0 95 f5 c0 bd 91 96 e8 3d 1d 15 11 bd 10 77 2c bd
       -0.09421841 0.11356843 -0.035420526 -0.042105734
0003e0 dd 41 5a 3d e9 b5 1b 3d 65 62 dc bd d0 ef b4 bd
       0.05328547 0.03801528 -0.10760955 -0.08834803
0003f0 fd 6a 36 bd 38 32 39 bd b3 b0 21 be 14 27 90 3d
       -0.044535626 -0.045213908 -0.15790062 0.070387036

weight f4 [8]
000000 90 2e 83 3f 29 aa 77 3f 25 8c 69 3f e3 6e 82 3f
       1.0248585 0.9674402 0.9122947 1.019009
000010 bb 10 75 3f 4f 4f 57 3f 29 a2 73 3f 78 61 65 3f
       0.95728654 0.8410539 0.9516931 0.8960185

bias f4 [8]
000000 b5 f7 66 be bb 0e bc be 52 9f ae be fa d9 83 be
       -0.2255543 -0.36729988 -0.34105927 -0.2575224
000010 6e f1 e3 be 2f 05 00 be 24 7d bb be c0 6a 95 be
       -0.44520134 -0.12501977 -0.36618912 -0.29183006

running_mean f4 [8]
000000 21 cd 08 3e e3 51 02 bc f7 ff c9 bd 4e d5 97 3e
       0.133595 -0.007954094 -0.098632745 0.29654926
000010 0a b3 dd be 9b 05 04 3e 25 1a 3d be 0d 74 9a 3c
       -0.43300658 0.12892763 -0.18467005 0.018854165

running_var f4 [8]
000000 6a eb 8c 3e 65 4d 92 3e f3 2b 6d 3e 7e a9 a7 3e
       0.27523357 0.28574672 0.23161297 0.327465
000010 93 a9 86 3e 2e cd 07 3e 13 18 5e 3e 9f 76 6e 3e
       0.2630125 0.13261864 0.21688871 0.23287438

weight f4 [16, 8, 3, 3]
000000 7b d9 bf 3d 30 36 37 3d 35 3a 24 3d 97 22 b8 bc
       0.09367653 0.04472941 0.040094573 -0.022477431
000010 4e 34 d9 3d 8a 97 4f bd 45 24 06 bc 46 af 16 bd
       0.106056795 -0.05068163 -0.008187358 -0.036788248
000020 79 ce 42 3d 09 36 ae bc 29 ff cd 3c 92 51 3d bc
       0.04756019 -0.021266 0.025146084 -0.011555092
000030 2c c9 ea bc 81 60 99 be 84 a4 5c bd f3 6c 4b bc
       -0.02866038 -0.2995644 -0.05386783 -0.012416112
000040 01 10 bc 3d 9c 0d 49 3d 3c 8b 1c bc 42 fb e9 bb
       0.0918274 0.049085245 -0.00955468 -0.007140548
000050 a3 a0 75 3d 9d 6a b0 bd 4f 78 60 3d dd ce 3f 3e
       0.05996765 -0.08614085 0.054802235 0.18731256
000060 92 c5 8a 3c 43 f9 9f 3d b9 ae 3f 3e 81 db f7 bc
       0.016939912 0.07811215 0.18718995 -0.030256035
000070 bc 90 c1 bd f3 98 80 3e a4 bd 00 be 7a 6e 71 bc
       -0.09451434 0.2511669 -0.12572342 -0.014735812
000080 ea 62 17 be 21 10 28 bc 9e a7 54 bd af 6b 34 3d
       -0.14783826 -0.010257752 -0.051917665 0.044048008
000090 37 42 0b bd 85 88 4e 3d b4 c4 0c 3e 0e ba 9e 3d
       -0.033998694 0.050423164 0.13746911 0.07750331
0000a0 90 94 b3 bd 2e 01 33 3e 84 6b 47 be 1a 28 8c 3e
       -0.087685704 0.17480919 -0.19474608 0.27374345
0000b0 91 2c 32 bd 42 c4 6e bd da 55 eb bd bf 32 c0 bd
       -0.043499533 -0.058292635 -0.11490984 -0.09384679
0000c0 df fd 47 bd bb 4f 65 bd 2b d0 a3 bd 55 fd 4c bd
       -0.048826095 -0.05598424 -0.07998689 -0.050046284
0000d0 e9 e9 a5 bd 45 40 3d bc 19 57 e8 3a 68 db 4e 3d
       -0.081012554 -0.011550968 0.0017726152 0.05050221
0000e0 7b 95 87 bd 75 b4 8d 3e 2b d0 a1 3c 9a ea 11 3e
       -0.06620308 0.2767674 0.019752583 0.1424965
0000f0 c5 d3 2c bd 0b 4d 85 be 40 4c 25 be e5 80 98 bc
       -0.042194147 -0.26035342 -0.16142368 -0.01861615
000100 f6 50 89 bd fa 29 d5 3d 41 43 29 3d f3 24 01 be
       -0.06704895 0.10408397 0.041323904 -0.12611751
000110 d1 5a da bc ff 0c 86 bd a3 3f 19 be 87 a9 9f bd
       -0.026654633 -0.065454476 -0.14965682 -0.07796007
000120 2b fe c1 bd ea 17 49 3d bd dc 02 bd 36 e9 ec 3d
       -0.09472307 0.04909507 -0.031948794 0.11567919
000130 cc 3f 07 3e 5a 88 b6 bc d3 22 be 3d 2e 1b d0 3d
       0.1320793 -0.022281814 0.09283986 0.10161434
000140 8b 17 0f be 68 11 a5 3d 09 08 b5 bd 9b cc 78 ba
       -0.13973825 0.080599606 -0.08839423 -0.0009490938
000150 08 26 47 be 29 95 11 be 99 af 83 be c6 cc e7 3d
       -0.19448102 -0.14217056 -0.25719908 0.11318354
000160 58 b4 80 3d 85 a7 f3 3c 88 df 43 3c 11 c1 14 bc
       0.06284398 0.029742965 0.0119551495 -0.009079234
000170 5d 07 35 3c 9d 83 0b 3c 33 fb 4f be f5 8a 81 3c
       0.011049119 0.008515266 -0.20310669 0.01581333
000180 82 d6 a6 3d aa c4 80 be 73 88 3c bd e0 0a fb bc
       0.08146383 -0.25150043 -0.046028566 -0.030644834
000190 e2 b0 c1 bd 71 6f bb bd 2b 44 3e 3e 35 73 e3 3c
       -0.09457566 -0.09152115 0.18580692 0.027764896
0001a0 5f 18 60 be 58 e6 b0 bd 57 cb f3 3d 22 6e 57 bc
       -0.21884297 -0.086376846 0.11904018 -0.013148816
0001b0 8a 8c 90 3d 45 04 f7 bd 5c 35 3a 3d ba 93 94 3d
       0.07058056 -0.12061361 0.045461044 0.07254739
0001c0 ce f6 7b 3c 1d 4e 54 bd 9d ba 0e 3e 09 87 fb bd
       0.015378667 -0.051832307 0.13938375 -0.12281615
0001d0 37 1f 43 3d 8f bf 18 3d 48 d7 39 bd c2 7c 9d 3b
       0.04763719 0.03729206 -0.045371324 0.004806132
0001e0 65 ee 0d 3d ab 9a e5 3c dd 39 ba 3c 45 d1 cd bb
       0.03465118 0.028027853 0.02273267 -0.0062810504
0001f0 3d 38 f5 bd 26 68 fd 3d 6d 4f a3 bd a6 a2 74 3d
       -0.11973617 0.1237338 -0.07974134 0.059725426
000200 c8 a5 78 3d b5 a0 33 3e b3 af 5c 3e 95 73 9d 3d
       0.060704976 0.17541774 0.21551399 0.07688061
000210 6f 2f 42 be ad dc a1 be 01 87 1a bd 9a c6 ad bd
       -0.18963407 -0.31613675 -0.037726406 -0.08485146
000220 31 0e 3b bc aa 37 07 3e 67 b1 81 bc 7f 9d 4d bd
       -0.011416958 0.13204828 -0.015831662 -0.050199028
000230 51 a7 15 bd 57 af 51 be b6 2c 12 3d 07 b6 95 bd
       -0.03653652 -0.20477043 0.03568717 -0.073101096
000240 0d 0f 64 be dd 45 7f be 4c 09 f3 bc c2 2b 85 be
       -0.22271366 -0.24928994 -0.029667519 -0.26009947
000250 72 e6 3b bc a1 84 63 bd f3 4c f6 bd 29 1e e1 bd
       -0.011468517 -0.055546407 -0.12026396 -0.10992081
000260 14 11 9a 3d 71 e3 14 bd cb da 08 be 20 07 04 be
       0.07522789 -0.036349718 -0.13364713 -0.12893343
000270 00 4d a4 be fb 3a 3a 3e 81 6e 80 3e 1c 86 e0 3d
       -0.32089996 0.18186562 0.25084308 0.10963079
000280 e9 23 94 bd 73 dd 14 bd 56 e1 ae 3d 0a b4 2e 3d
       -0.07233412 -0.036344003 0.08539073 0.042652167
000290 9d dd 66 3c e8 6a 0d be 4b 1b a5 3d fc 32 8a be
       0.014090923 -0.13810313 0.08061846 -0.26992023
0002a0 d1 2b a5 bd 41 fc 45 3c 43 bd 68 be bc f9 ad bd
       -0.08064998 0.012084068 -0.22728448 -0.08494899
0002b0 db 1d 2d 3d ac 78 4c bc ac 0d ca 3b 26 cb 2b 3c
       0.0422648 -0.012479942 0.0061661806 0.010485446
0002c0 78 ad aa bd 52 8f 1a bc e0 c0 d5 3d 52 7c e1 bd
       -0.08333868 -0.009433584 0.104371786 -0.1101004
0002d0 e4 5c a5 bc 03 99 2f 3d 57 ed 1c bc 3b 61 cb bb
       -0.020185895 0.042870533 -0.009578071 -0.006206659
0002e0 39 f3 da bc 27 b6 32 be b5 d1 b9 bd ef b4 10 bd
       -0.026727306 -0.17452298 -0.090732016 -0.0353288
0002f0 6b 35 82 3d d9 db 08 bd f2 e8 ae bb cd 44 00 3e
       0.06357845 -0.033412788 -0.005337828 0.12526245
000300 a3 2b be bd 4b a2 3a 3d 3a 55 18 3d 55 ba ad bb
       -0.09285667 0.04556493 0.037190653 -0.0053017535
000310 f7 99 7e 3c 67 6e c6 3d 94 35 92 3b 25 b0 bf bc
       0.015539638 0.09689026 0.0044619534 -0.023399422
000320 22 91 87 3d ba 1d 76 bc 5a ad 10 be d0 f1 f6 bc
       0.06619479 -0.015021736 -0.14128628 -0.030144602
000330 cc 24 d6 3d 77 f4 70 3e d2 35 73 3d 8c 81 1e bc
       0.10456237 0.23530756 0.0593775 -0.009674441
000340 ab a3 4b be 4d 8f b1 bd a5 9f 90 3d c8 64 3b 3b
       -0.19886653 -0.086699106 0.070617 0.0028594006
000350 9c fb e9 3d 5b b2 12 be 9a 06 83 3d 70 03 88 bd
       0.11424944 -0.1432585 0.063977435 -0.06641281
000360 a9 c8 2f bd 43 84 b5 3c 41 08 aa 3d 51 86 73 3d
       -0.042915974 0.022157794 0.083023556 0.059454266
000370 ec dd bc bd 90 00 ef bd 4f e4 4a 3e 56 58 06 bc
       -0.09222016 -0.11670029 0.19813655 -0.008199772
000380 12 ca 1b be 02 19 eb 3c 8e d6 3b 3d 9d 74 da bd
       -0.15213802 0.028698448 0.045858912 -0.106667735
000390 08 93 e2 3c 07 a3 b9 3b ed 27 22 be 85 23 31 be
       0.027658 0.0056651863 -0.15835543 -0.17298706
0003a0 20 47 2d bd 57 5b 24 be 97 b7 56 3c 09 a6 da 3c
       -0.04230416 -0.16050468 0.013105295 0.0266905
0003b0 4b 48 bb 3c 49 ac 3b 3c 0e 07 09 3d 65 43 b0 bd
       0.02286162 0.01145465 0.033453993 -0.086066045
0003c0 45 b3 88 bd 23 da 94 3c e8 6f fc 3d 33 21 a6 3d
       -0.06674818 0.018170422 0.12326032 0.08111801
0003d0 8a 7f 83 be 3f e4 e5 3d 3c c2 11 be 6c 2b bb bd
       -0.25683242 0.11225175 -0.14234251 -0.091391414
0003e0 42 b3 09 bd ba 7c 08 3e a3 99 c9 bd 71 07 eb 3b
       -0.03361822 0.1332883 -0.09843757 0.007172518
0003f0 0f 6e 20 3c 23 4f 50 3d 39 30 dc bb 95 7d 1f bc
       0.009791865 0.05085672 -0.006719616 -0.009734531

weight f4 [16]
000000 65 38 e6 3f b2 c3 c7 3f 28 a0 b9 3f ba 26 c9 3f
       1.798596 1.5606596 1.4502001 1.5714943
000010 3c bf bc 3f 49 08 cd 3f 57 46 dc 3f 7d 4d d0 3f
       1.474586 1.6018153 1.7208966 1.6273648
000020 ea 86 d9 3f 31 32 e0 3f 9e 36 ef 3f 27 21 f5 3f
       1.6994298 1.7515317 1.8688543 1.9150742
000030 95 f2 fe 3f 36 20 db 3f 7a 59 d1 3f 2d 80 f2 3f
       1.991778 1.7119205 1.6355431 1.8945366

bias f4 [16]
000000 55 cb 58 3e 84 13 8d 3e 93 ee bd 3e 92 d0 d8 3e
       0.21171315 0.27553952 0.3709608 0.42346627
000010 6c 6b db 3e 87 ba d4 3e 3e f2 b6 3e 3e 2d 4e 3e
       0.42855394 0.4154856 0.3573169 0.20134446
000020 c8 d5 0d be 63 c4 24 3e 36 ea 82 3e b3 67 1c bb
       -0.13851082 0.1609054 0.25569314 -0.002386552
000030 11 27 d1 3e a8 f2 3e 3e c0 ad 8d 3a dd 55 92 bd
       0.40850118 0.18647254 0.0010809228 -0.07145283

running_mean f4 [16]
000000 72 cf 8f bd cf 54 7f bd 12 21 c6 be 60 e0 ea bd
       -0.07021989 -0.06233674 -0.38697106 -0.114685774
000010 65 d6 b0 be b6 45 5e bd 66 ec 8c bd a6 bf 9b be
       -0.3453857 -0.0542657 -0.06881027 -0.30419654
000020 86 c6 0c 3f c4 78 4d 3e d5 d8 10 3e 1b 5b 63 3e
       0.5499042 0.200656 0.14145215 0.22202723
000030 32 25 b4 be 6c 29 4c be c6 89 c3 3b f9 56 50 3e
       -0.35184628 -0.19937676 0.0059673516 0.20345677

running_var f4 [16]
000000 40 a2 cd 3d 07 11 06 3e 7a 29 67 3e 13 cd c3 3d
       0.10040712 0.13092433 0.22574416 0.09560599
000010 1e 19 43 3e 9b 52 cc 3d dc 5b ad 3d 9e 7d e4 3d
       0.1905255 0.09976693 0.084647864 0.11156772
000020 e1 1d a4 3d f7 12 ed 3d 1d 3c 11 3e 69 f1 bc 3d
       0.080135114 0.11575883 0.14183088 0.09225733
000030 7b ae e9 3d f5 f5 07 3e 8d 72 07 3e 6c 2b c5 3d
       0.11410233 0.13277419 0.13227291 0.09627423

weight f4 [64, 96]
000000 51 ab 59 bd 29 45 67 bd 61 e9 ec bc 03 ae 18 be
       -0.053141896 -0.05646244 -0.028919877 -0.1491013
000010 85 34 bf bd cd f7 1d 3e 36 2a 06 3e 09 ee 04 3e
       -0.09336189 0.1542656 0.1310204 0.12981428
000020 a0 88 92 be 8d 53 33 bf 43 c4 cf 3d 19 c8 29 bd
       -0.28619862 -0.70049363 0.10144856 -0.041450594
000030 bc 86 dc bd 78 43 5b 3d c8 db e9 3d 82 98 1a 3e
       -0.10767886 0.05353114 0.11418873 0.1509724
000040 ec 8a 33 be 04 09 3b be 3d 33 c7 bd f8 e9 b6 3c
       -0.17533463 -0.18265158 -0.0972657 0.022328362
000050 52 f3 91 be e4 77 8f bd 5f 21 20 bd af 80 21 bd
       -0.2850595 -0.07005289 -0.039094325 -0.039429363
000060 6f ee ac 3d 6d e7 37 3e dc d7 05 3e a1 f6 ba 3e
       0.08443915 0.17959376 0.13070625 0.36516288
000070 33 4d 9d 3c 4f 92 58 3e a0 2d 97 3e 5b 4b 26 3e
       0.01920185 0.21149562 0.29526997 0.16239683
000080 76 cb 25 3e 91 df 99 3e 3e 6f 99 3e b1 f5 85 3e
       0.16190895 0.3005338 0.29967684 0.2616401
000090 9d a3 0f 3e 54 b8 7f 3e 4b 3a a2 bd 91 58 2d 3c
       0.14027257 0.2497266 -0.07921275 0.010580198
0000a0 0b 9f 50 3e 97 70 e1 3d b0 4a 07 3e 0a 56 02 3e
       0.2037317 0.11007803 0.13212085 0.12728134
0000b0 0b a6 0b 3e 7c 2f 49 3e 6e 46 1f 3e ee ab 9e 3d
       0.13637559 0.1964702 0.1555421 0.07747637
0000c0 d9 26 c3 3d 34 17 02 3e dc d9 86 3e f9 0f 94 3d
       0.09528894 0.12704164 0.2633809 0.07229609
0000d0 15 f2 30 3e 07 22 d8 3d 7f b6 57 3e 26 35 15 3e
       0.17279847 0.10553365 0.2106571 0.14571056
0000e0 20 c9 48 3e 25 ae 93 3e 17 f6 08 3e c0 b5 83 3e
       0.19607973 0.288438 0.13375126 0.25724602
0000f0 f7 35 c8 3c 58 3e 1e 3e b8 34 57 3e 7b a0 e8 3d
       0.024439795 0.1545347 0.21016204 0.11358734
000100 a9 fd 2c 3e 4c bc c6 3d 24 61 6f 3e ad 39 71 3e
       0.16893639 0.097038835 0.233769 0.23557158
000110 af f5 ff 3d e3 d7 78 bf 41 36 31 3d 32 de 14 3e
       0.12498032 -0.97204417 0.04326463 0.14537886
000120 bd 1b a7 bb e5 f9 13 3e c3 2a f7 3d c3 25 10 3e
       -0.005099742 0.14450796 0.12068703 0.14076905
000130 24 44 d6 3d e5 b6 ae 3d 52 24 27 3e 4d 3a 25 bd
       0.104622155 0.08530978 0.16322449 -0.040338803
000140 fc 9c 5b 3d ec f9 12 3e 21 c5 29 3e 23 ae 27 3e
       0.05361651 0.1435315 0.16579105 0.16375022
000150 c4 0c bd bb 7e 70 c1 bb db ab 7f 3d ab ed 72 be
       -0.005769344 -0.0059033027 0.062419754 -0.23723476
000160 a6 e6 0e be 7b 0e e4 bd 2f 32 9d bd 68 a3 5b 3a
       -0.13955173 -0.111355744 -0.076755874 0.00083785364
000170 37 ef 21 bc 43 fd 3b be 86 7f 88 3d f5 26 6f bd
       -0.009883693 -0.1835833 0.06664948 -0.05838676
000180 50 c8 25 3d e1 82 e4 3c 27 f5 76 bb 8d 72 6d bd
       0.040474236 0.02789444 -0.0037682743 -0.057970572
000190 31 54 56 bd 8a a5 29 3e 17 23 b6 3d 13 10 ed 3d
       -0.052326385 0.16567054 0.088934116 0.115753315
0001a0 d6 4c 6b be 9e 0b 1c bf 10 82 7e 3d 79 84 2f bd
       -0.2297853 -0.60955226 0.062135756 -0.042850945
0001b0 b6 9d 0d bd 95 fc 70 3d ab e0 3e 3c 63 75 a5 3d
       -0.034574233 0.05883463 0.011650245 0.0807903
0001c0 8e 05 40 be 66 41 6d be fc ec a5 bd 2c 60 54 bd
       -0.18752119 -0.23169479 -0.08101842 -0.05184953
0001d0 f4 70 aa be e3 21 a9 bd d9 f3 f7 bd 9d a3 cc bd
       -0.332893 -0.082584165 -0.12107057 -0.09992144
0001e0 02 d6 66 3e 80 cd 1e 3e 49 86 04 3e 29 e9 a5 3e
       0.22542575 0.1550808 0.1294185 0.3240445
0001f0 58 b5 1a 3c 6b 31 10 3e b8 6e 5f 3e c8 3f 20 3e
       0.00944265 0.14081351 0.2181958 0.1564933
000200 c9 0b 9a 3e 1e e3 8c 3e 95 74 81 3e 28 ee 53 3e
       0.30087116 0.27517027 0.25284258 0.20696318
000210 4c 40 61 3e cb 5c 51 3e 0b 6f ce bd 5b 20 84 bc
       0.21997184 0.20445554 -0.100797735 -0.01612871
000220 bc d7 58 3e 52 b1 58 3e a4 30 54 3e 83 5a 1a 3e
       0.21176046 0.21161392 0.2072168 0.1507359
000230 9f ae d9 b9 5e 28 a0 3e 6d 56 2f 3e a7 bc 7c 3d
       -0.00041519568 0.31280798 0.17122813 0.06170335
000240 f3 f2 3e 3e 74 3f 4c 3d 86 17 d5 3e 49 b7 2f 3e
       0.18647365 0.0498652 0.4161951 0.17159761
000250 74 5b 2d 3d 15 79 7e 3d 9a 62 2e 3e d8 20 2d 3e
       0.042323545 0.06212719 0.17029801 0.1690706
000260 13 de 26 3e e2 4b 59 3e 9e 30 af 3d 63 0e 5c 3e
       0.16295652 0.21220353 0.08554195 0.21489863
000270 ea dc a5 3c 30 a6 f8 3d 5c 84 46 3e 7d 44 15 3e
       0.020246942 0.12141073 0.19386429 0.14576907
000280 af 14 03 3e 48 5f 3e 3c 80 09 06 3e e7 e8 8c 3e
       0.12800859 0.0116193965 0.13089561 0.2752144
000290 f3 dc 60 3e 3c 4a 7a bf b9 d4 9a 3c 7b 4d 4e 3d
       0.21959285 -0.9776952 0.018900262 0.05036686
0002a0 06 28 9a 3d d6 7f d4 3d 33 47 06 3e 49 a2 41 3e
       0.07527165 0.10375945 0.13113098 0.18909563
0002b0 46 c1 84 3d 11 cc f6 3d 36 e5 46 3d ee 1a 24 be
       0.064821765 0.12050641 0.048558436 -0.16025898
0002c0 70 77 b6 3d 2d e7 65 3e fd e2 68 3d f6 98 35 3e
       0.089095 0.22451468 0.056857098 0.17734131
0002d0 94 9c cd 3d ff 15 da 3d 02 e2 02 3d 4e 58 8c be
       0.100396305 0.10648727 0.03195382 -0.2741112
0002e0 fb ce 3a be 70 cd f1 bc 16 6a f7 bc b6 a9 96 3d
       -0.1824302 -0.029516906 -0.030201953 0.073565885
0002f0 2a 08 2f bc c2 a4 86 bd 8c 6c 87 3d 08 96 89 bd
       -0.010683099 -0.06574394 0.066125005 -0.06718069
000300 d6 e1 83 3d a4 99 8e be 3d ee b5 3d e0 c9 a5 3e
       0.06439559 -0.27851593 0.08883331 0.3238058
000310 9f 21 dd 3e c9 a2 ba bd d2 8d 2e 3e 2b 46 1f be
       0.43189713 -0.0911308 0.17046288 -0.1555411
000320 69 7c 82 3e 77 9f 1a 3e 1b 04 71 3a 67 e4 94 bd
       0.25485542 0.15099894 0.0009194032 -0.07270127
000330 ac 75 e4 3e d1 a9 05 be c1 c3 f2 be ab f7 47 bf
       0.44621027 -0.13053061 -0.47414973 -0.78112286
000340 47 69 5a 3e 46 35 b6 3e f8 35 85 3c 26 c5 83 3e
       0.21329223 0.3558752 0.016261086 0.2573635
000350 2c ae 9b 3d 18 cf 6c 3e 07 9f 42 3e d0 37 6a 3e
       0.0760158 0.23125875 0.19005977 0.22872853
000360 de 47 16 bd 53 fc 95 3d bb bf ce 3d e5 81 dc be
       -0.03668963 0.07323518 0.100951634 -0.43067852
000370 0a cf d6 3e 68 c5 00 bf e2 17 a0 3d 00 ab b0 3e
       0.41954833 -0.5030122 0.07817055 0.34505463
000380 01 15 09 bf 7a 05 21 bf c8 77 eb be 1e 6a d1 bd
       -0.53547674 -0.6289898 -0.45989823 -0.10225318
000390 62 76 97 bd 8a d3 a9 be 3c c3 e5 3e 9e af b4 3e
       -0.073956266 -0.33169204 0.44875515 0.35290235
0003a0 8b c0 ab be 64 c7 60 be 3b 0f 6f 3e a1 0b 31 bd
       -0.33545336 -0.21951061 0.23345654 -0.04322398
0003b0 08 b6 be 3c b2 b5 83 be c2 09 37 bf 9d 95 32 3d
       0.023280159 -0.2572456 -0.71499264 0.043599714
0003c0 40 df 45 3e 45 9f 8a be 67 23 37 bf c8 7f 16 3e
       0.19323444 -0.27074638 -0.71538395 0.14697182
0003d0 b4 ab 12 bf 92 e9 fe bc 84 08 53 3d d1 fc b0 bd
       -0.5729325 -0.031117234 0.051521793 -0.08641971
0003e0 14 9a 8a 3e 57 c8 d3 3e 0d cd 42 bf 5f 0e 16 3d
       0.27070677 0.41363785 -0.7609413 0.0366348
0003f0 6e 2c 9c 3e 30 8a 13 3b ee 24 65 bd a3 76 45 be
       0.30502647 0.0022512786 -0.055943422 -0.19283538

bias f4 [64]
000000 6f 2c 6f 3e 7a 8a 84 3e 71 93 69 3e 9f fb 95 3e
       0.23356794 0.258869 0.2281015 0.29293534
000010 d4 6e cd 3e c5 61 8d 3e 75 2a 64 3e 6f 59 88 3e
       0.40123618 0.27613655 0.22281821 0.26630732
000020 24 f6 ab 3e 98 2d b1 3e d8 b6 6c 3e 1e fe a1 3e
       0.33586228 0.34605098 0.23116624 0.3163919
000030 50 42 b4 3e 0a 73 fb 3d 17 4c 5f 3e ca cd cb 3e
       0.35206842 0.12277801 0.2180637 0.39805442
000040 14 1f b4 3e 2f 66 42 3e 3d da 73 3e de 3d a1 3e
       0.3517996 0.18984292 0.2381372 0.31492513
000050 62 a3 8d 3e 21 fb df 3e b9 b1 59 3e a5 23 51 3e
       0.27663714 0.43746284 0.21259202 0.20423754
000060 23 41 c4 bd b9 45 82 3e 84 2f ff 3e 55 68 58 3e
       -0.09582736 0.2544382 0.4984094 0.2113355
000070 cc 4b 8f 3e 54 4c 5a 3e f6 32 91 3e 88 da a7 3e
       0.27987516 0.2131818 0.28359193 0.32783914
000080 c1 db 20 3e 76 75 be 3e 66 74 bb 3e ec 29 56 3e
       0.1570883 0.3719899 0.36612242 0.2091443
000090 46 7b e7 bd a1 3c 83 3e 7d 96 61 3e 5a 31 ae 3e
       -0.113028094 0.25632194 0.22030063 0.34022027
0000a0 52 ca 84 3e d1 4f 76 3e ea 37 18 3e 18 ae 5b 3e
       0.25935608 0.24053885 0.1486508 0.2145313
0000b0 0b 60 f9 3e 53 d2 e0 bd 68 88 c0 3e 3b 8a 9f 3e
       0.48706087 -0.10977616 0.3760407 0.3116015
0000c0 d6 d0 14 3e 47 77 a7 3e e7 b5 b6 3e 38 81 9c 3e
       0.1453279 0.3270819 0.35685655 0.30567336
0000d0 87 bc b4 3e d5 6b 8e 3e ab a8 9f 3e 6d 65 54 3e
       0.35300085 0.27816644 0.3118337 0.20741816
0000e0 56 ea 7c 3e c9 dc a3 3e 7b 3f 49 3e 7b ad a8 3e
       0.24698767 0.32004383 0.19653122 0.32944855
0000f0 ae 22 7d 3e 57 04 6a 3e c7 3c a6 3e 9d 94 1e bd
       0.2472026 0.22853218 0.32468244 -0.038715947

weight f4 [1, 64]
000000 68 ff 99 be c1 bd b7 be 05 5c 51 3f 3a 88 72 3f
       -0.30077672 -0.35886958 0.81781036 0.94739115
000010 0d a4 70 be 8e 40 71 3f 48 12 a6 be 12 40 96 be
       -0.2350008 0.9423913 -0.32435822 -0.29345757
000020 0f 89 58 3f 21 f9 9c be 32 11 aa be 97 2d 79 be
       0.84584135 -0.3065882 -0.33216244 -0.24333797
000030 21 be 64 3f 5b f3 59 3f 4d 81 62 3f 37 38 a0 be
       0.89352614 0.85136956 0.8847855 -0.3129289
000040 78 96 96 be f9 e2 6b 3f e2 b8 69 3f 4e 8a 58 3f
       -0.29411674 0.9214321 0.91297734 0.84586036
000050 1a c1 9d be 02 c6 e6 be 3f bb 99 be 16 1c 64 3f
       -0.30811387 -0.45072943 -0.3002567 0.89105356
000060 70 09 b1 3d ba c8 87 be 3f 93 e2 be cb 63 a9 be
       0.08644378 -0.2652033 -0.44252965 -0.33083948
000070 74 7d 7a be 45 a8 66 3f 59 8d 78 3f 4c d3 ac be
       -0.24461919 0.9010051 0.9709068 -0.33754957
000080 23 12 5f 3f b7 b1 b7 be 86 af 9e be 17 97 8e be
       0.8713705 -0.35877773 -0.3099329 -0.27849647
000090 8f a8 60 3f 6f 03 a4 be 07 42 b4 be f8 ce 9a be
       0.877572 -0.3203387 -0.35206625 -0.3023603
0000a0 2a 8b a2 be 7a 62 6c 3f 88 02 7a 3f dc d9 9a be
       -0.317468 0.92337763 0.9766011 -0.3024434
0000b0 6c bc ba be 09 6d 7f 3f 59 5b ad be 87 6d 64 3f
       -0.3647188 0.9977575 -0.33858755 0.89229625
0000c0 9b ee 60 3f 14 45 89 be 69 27 80 be 88 b3 69 3f
       0.87864083 -0.26810515 -0.25030068 0.9128957
0000d0 05 19 b2 be de 44 a9 be 87 c5 72 3f ce 3e b3 be
       -0.34784713 -0.33060354 0.9483265 -0.35008854
0000e0 e1 24 70 3f 5c a1 80 be 81 7a 81 3f 9e 4d 6f be
       0.9380627 -0.25123107 1.011551 -0.23369452
0000f0 58 8e 68 3f 93 d8 7d 3f a9 fc 84 be 97 4c 70 3f
       0.908422 0.9915859 -0.25974014 0.93866867

weight f4 [64, 96]
000000 34 cd a0 3e 52 70 a6 3e 17 b5 2f bd b7 0f e8 3a
       0.31406558 0.3250757 -0.04289731 0.0017704879
000010 cc e8 13 be ed 83 b5 be a2 1a 4b bc 91 82 68 be
       -0.14444274 -0.35452214 -0.0123964865 -0.22706057
000020 d8 a0 56 3d 06 6f ba 3e a4 ff 9d bd c5 8f 16 3e
       0.052399486 0.3641283 -0.07714775 0.14703281
000030 d8 be 19 bf ef 49 9e 3d 74 da 19 ba 75 9c 7d 3d
       -0.6005683 0.077289455 -0.0005869039 0.061916787
000040 2f d0 11 3e ec 00 8f 3d d4 66 2e bd 61 2f 22 3e
       0.14239572 0.06982598 -0.042578533 0.15838386
000050 fa 12 0e bf 8b d8 9c bc 18 79 6f 3e 5b 01 1b be
       -0.55497706 -0.019146224 0.23386037 -0.15137236
000060 23 83 7f bc dc ab ba be c4 37 73 bd f7 27 d2 bc
       -0.01559523 -0.36459243 -0.059379354 -0.025653822
000070 35 cf 18 be 19 68 20 be bd 7a 8a 3b 47 d4 93 bb
       -0.14922793 -0.1566471 0.0042260573 -0.0045113894
000080 60 53 03 bc ca 7d e8 3c 4c e8 3a 3e 1b 32 52 be
       -0.008015484 0.028380293 0.18252677 -0.20526926
000090 80 ce 2b 3e cd 96 27 3d fd d9 8f bd 86 35 7c 3e
       0.16777992 0.0409153 -0.07024 0.24629793
0000a0 7d 62 01 be c0 9d 70 be 8f ea ce 3d 4d 3d eb 3d
       -0.12635227 -0.23497677 0.10103332 0.114863016
0000b0 1e 6c df be 83 82 5b be 19 10 20 3d 19 06 9a bd
       -0.43637174 -0.21436505 0.039077852 -0.07520694
0000c0 c6 8d 90 be c6 8f 88 be f4 52 07 3e 11 30 db bd
       -0.28233165 -0.2667219 0.13215238 -0.10702527
0000d0 15 d7 6f be 89 df fe be 19 d7 51 3e 81 38 c5 be
       -0.23421891 -0.4977992 0.2049221 -0.38519672
0000e0 9e 2a 51 3d a4 81 aa 3e c7 47 e6 3d 9f 8f 80 3d
       0.051066034 0.33302033 0.11244159 0.062773935
0000f0 3f 40 11 3e ba 20 bc be b0 b6 fe bd b0 6a 49 3e
       0.14184664 -0.36743718 -0.124371886 0.19669604
000100 f5 40 46 bd 08 17 5b 3e d9 38 e0 3c ed b8 43 be
       -0.04840179 0.21395504 0.027370857 -0.19113512
000110 1b 0a 78 be 38 49 04 3d ed 8d 8c 3e e5 fe d0 3c
       -0.24222605 0.03229639 0.2745203 0.025512168
000120 03 6d 92 bc e5 01 11 3c 94 3f 93 3e 1e 28 58 3d
       -0.017874246 0.008850549 0.28759444 0.052772634
000130 e4 21 a4 3e 60 10 15 3e 01 8e ab be 4b 3a 65 bc
       0.32057106 0.14557028 -0.33506778 -0.013990949
000140 83 96 f4 ba 5d 8f 9f 3e a9 e6 23 3e bf 83 eb be
       -0.0018660579 0.31164065 0.16005959 -0.45998952
000150 25 8f 4b be 64 29 9b be 00 a0 da be 4a 73 b7 bc
       -0.19878824 -0.30305016 -0.42700195 -0.022393841
000160 a5 3b 32 3e 10 04 de 3d e7 b5 ae bd 23 2d 5e 3e
       0.17405565 0.108406186 -0.08530789 0.21696906
000170 fc 19 14 bf d4 b6 82 3d 26 88 e0 3d 1d bc 66 bc
       -0.5785215 0.06382528 0.10963468 -0.014082936
000180 57 4e fe 3e 74 1f 94 3e d3 af 5d be 7d c0 d1 b8
       0.49669144 0.28930247 -0.21649103 -0.0001000175
000190 f2 cf ce bd bd aa a6 ba ec 3e 82 bd 4a ae 2b bd
       -0.10098256 -0.0012715679 -0.06359658 -0.041914262
0001a0 d5 de 82 3e cb 24 d9 3e 6f ed 8d 3d 2b 7f f2 3d
       0.25560632 0.42410883 0.069300525 0.118406616
0001b0 9a 99 37 bf 48 4c 3b 3e 0b 3a 3a 3c 2e fb 75 3e
       -0.7171875 0.18290818 0.011366378 0.24021599
0001c0 01 45 00 3d fe 55 45 3c 96 0c 79 be a2 49 34 be
       0.031315807 0.012044428 -0.24321207 -0.17606214
0001d0 d8 f2 83 be 91 d7 ce 3d 07 b5 2e 3d e3 df a1 be
       -0.25771213 0.1009971 0.04265311 -0.31616125
0001e0 c1 c5 8a be dd c6 b4 be c8 0a 91 b9 d6 b5 92 3d
       -0.27104 -0.3530797 -0.00027664588 0.07163589
0001f0 1d ae 8e bc 73 76 76 be 62 ab 20 be b5 a2 e6 3d
       -0.017417008 -0.24068622 -0.15690377 0.11261503
000200 16 e7 e0 3d 38 68 de bd 5d d0 48 3e d8 71 76 be
       0.10981576 -0.10859722 0.19610734 -0.24066865
000210 e9 c6 aa 3a 67 24 b3 bd 4b d6 5f 3d b3 73 e0 3d
       0.001302925 -0.087471776 0.054647725 0.10959568
000220 2a a3 bc bd 62 9d c0 be f3 38 de 3d 84 2c 0a 3e
       -0.092108086 -0.37620074 0.10850706 0.13493544
000230 7f 73 07 bf d3 7e 5e be 81 d9 44 3e a0 e0 18 3d
       -0.5291061 -0.21728067 0.19223596 0.037323594
000240 f6 77 15 be 0b 59 c4 be 52 16 95 3e 91 a2 a0 bd
       -0.14596543 -0.38349184 0.29118592 -0.07843507
000250 7f 13 c9 be 18 a0 0c bf 41 72 c9 bd ec 18 ec be
       -0.39272687 -0.54931784 -0.09836245 -0.46112764
000260 24 1a 62 3e bd 92 2e 3e 68 c9 a4 3e 7a f8 2c bd
       0.22080284 0.17048164 0.3218491 -0.042229153
000270 22 aa 56 3e d7 a5 c7 be b0 01 0f bb 28 96 94 3e
       0.20963338 -0.38993713 -0.0021821074 0.2902081
000280 8a a3 40 be d8 8f 13 3e 78 1a d3 bd b0 70 ed 3c
       -0.18812385 0.14410341 -0.10307783 0.028984398
000290 24 9c 14 bf d6 be 43 be f8 54 29 3e 90 6b f2 bd
       -0.5805075 -0.19115767 0.1653632 -0.11836922
0002a0 8e c3 00 3e 85 de 0b 3e a7 ba 0c 3e be 6c b7 3e
       0.12574598 0.13659103 0.13743077 0.3582515
0002b0 b4 09 20 3e c8 6d 33 3e 04 94 0f 3e 39 06 59 3d
       0.15628701 0.17522347 0.14021307 0.05298445
0002c0 d9 f3 9f 3d 66 08 79 3e 04 53 96 3e b9 88 83 be
       0.07810182 0.2431961 0.2936021 -0.2569025
0002d0 8e 6d da be 28 ab a4 3c 54 b6 26 bf 50 1e fc 3d
       -0.4266171 0.020101145 -0.6512196 0.12310469
0002e0 7b 2d 0d 3e e1 c2 5a 3e ff fd 21 be 5c 87 a3 3d
       0.1378688 0.21363403 -0.15819548 0.07984802
0002f0 e4 74 2a bf 59 2c 06 3e 32 e8 b6 bc b8 cc 6d bd
       -0.6658461 0.13102855 -0.022327516 -0.058056563
000300 3d 51 56 be 92 bf d7 bd 51 d4 14 3e 4d be 60 3e
       -0.20929427 -0.10534586 0.14534117 0.21947594
000310 02 d7 49 be a3 52 36 be 06 b3 80 be b7 94 7d 3e
       -0.19710925 -0.17804961 -0.25136584 0.24763761
000320 e4 e6 2d 3e d4 67 32 be 11 a2 e8 3d d9 06 96 3e
       0.16982609 -0.1742242 0.11359037 0.293021
000330 5d 9c e1 bd 5d 52 8a bd b4 56 3b 3d 22 ac b7 bd
       -0.11016152 -0.06753991 0.045736983 -0.089683786
000340 ba 7f 8d bd 7f c6 a0 bd bf 0f 3b bd 8d de 08 bd
       -0.069091275 -0.0785036 -0.045669314 -0.033415366
000350 cf ab 28 be e0 be e3 bb 3f a9 c8 bd 71 46 c3 bd
       -0.1647179 -0.0069502443 -0.09797906 -0.0953492
000360 f5 6a 31 3e f4 d4 67 3e 02 89 92 be 9d d6 13 3e
       0.17325957 0.22639829 -0.28620154 0.14437337
000370 45 67 1e be e8 d7 0c 3e cc 68 49 3e 37 c6 3c bd
       -0.15469082 0.13754237 0.19668883 -0.04608747
000380 c0 0d 36 3e b2 71 5a 3d d4 42 76 bd e5 db 0e 3e
       0.17778683 0.053331085 -0.060122326 0.1395107
000390 1e 54 88 3e 0f a4 89 be 6c ea dc 3d 05 b8 ff 3c
       0.26626676 -0.2688298 0.107869 0.031215677
0003a0 57 b1 b4 bd 27 3c d4 bd c8 a8 fd 3c 2d de 4e be
       -0.088228874 -0.10363036 0.03096427 -0.20201941
0003b0 5c 51 cb 3e 9f 02 74 bb 6d 9b c4 be a6 0b be bc
       0.3971051 -0.0037233008 -0.3839983 -0.023198914
0003c0 19 5b 3a bd 8c ab b4 bc 5b 52 19 be da 07 17 3e
       -0.045497034 -0.022054456 -0.14972822 0.14749089
0003d0 b0 72 52 3e 07 d3 bd be 70 0c e3 bd 8b 09 b1 3d
       0.20551562 -0.37075064 -0.11086357 0.08644398
0003e0 ca 75 db 3c 3b be d6 be 33 41 cf bd 97 fc 59 be
       0.026789565 -0.4194201 -0.10119858 -0.21287762
0003f0 36 d2 4a be 0f bf f1 3d de cd 8e 3e d2 b3 9f be
       -0.19806752 0.1180402 0.2789144 -0.3119188

bias f4 [64]
000000 c3 85 5a be 44 dc 3d be 31 23 8d 3d 97 08 2c 3e
       -0.21340089 -0.18541056 0.06891478 0.16800152
000010 4f cc bf bc 8c 34 db bd 01 39 80 bd e5 8f 83 3e
       -0.023412852 -0.10703382 -0.06260873 0.2569572
000020 2f 8d 4b be 5e 43 fa bd 11 5b e0 3c b4 43 98 bc
       -0.19878076 -0.122198805 0.027387174 -0.01858697
000030 1d c9 30 3e e8 ff 52 3e 86 79 f6 bd 73 98 61 3e
       0.17264219 0.20605433 -0.120348975 0.22030811
000040 50 cd 2f 3e c7 c9 15 be 5c a9 d0 bd 3d 72 31 be
       0.17168164 -0.14627753 -0.10188553 -0.17328735
000050 45 3b 21 be 07 ad 58 be 43 aa ef 3d 29 0b d8 3c
       -0.15745266 -0.21159755 0.11702397 0.02637251
000060 30 1d e2 bd d5 43 5d be d9 e6 8b 3d 01 80 90 be
       -0.11040723 -0.21607907 0.0683114 -0.2822266
000070 0d 62 2d 3d 6f 83 6d be 99 ae 2c be a0 bc 48 3e
       0.042329837 -0.23194669 -0.16863479 0.19603205
000080 7d f9 39 be 71 e6 16 3e da f8 8f be 1f 40 7c be
       -0.18161578 0.14736344 -0.28119546 -0.24633835
000090 41 3b 91 bd 76 67 54 be 07 fd 4f 3d 05 40 7d bd
       -0.0709138 -0.20742592 0.050778415 -0.061828632
0000a0 dc 54 fb bd 77 f2 a6 3d a2 44 36 be ca 1d ec bd
       -0.12272045 0.08151715 -0.17799619 -0.11529119
0000b0 0d 75 5a be 57 65 14 be 8c 43 70 bb 7e 91 3d be
       -0.21333714 -0.14491783 -0.0036661355 -0.18512532
0000c0 19 8a 71 be d2 59 e4 bd a9 d0 5d bc a6 08 f0 3d
       -0.23587836 -0.11149944 -0.013538518 0.117203996
0000d0 b3 27 8f be 72 51 05 3e 7e 8e 79 bd e5 f2 3d bc
       -0.27959976 0.1301935 -0.060926907 -0.011593555
0000e0 81 9d 43 bd 74 da 17 be f9 15 14 3e 32 eb 8b 3d
       -0.04775763 -0.14829427 0.14461507 0.06831969
0000f0 b6 69 1b be 4f ac f1 bd d1 cb 29 be 61 c1 1b be
       -0.15177044 -0.118004434 -0.16581656 -0.15210487
