checkpoints/o_duel.pth (torch, 75043 bytes, 27 tensors)

weight f4 [8, 1, 3, 3]
0	0x3e35c7d1	0.17752005
1	0xbdb5dd53	-0.08880105
2	0x3f15e854	0.5855763
3	0xbf620f4d	-0.883046
4	0xc049af20	-3.1513138
5	0x3f0382d5	0.5137151
6	0xbef1b9ec	-0.4721216
7	0xc00f0f0d	-2.2352936
8	0x3e8d8719	0.27642134
9	0x3e92e0fc	0.28687274
10	0xbeb47b0c	-0.35250127
11	0x3db118bd	0.086472966
12	0x40207e1c	2.507697
13	0x3ede356c	0.43400133
14	0x3ef09b00	0.46993256
15	0x40372230	2.8614616
16	0x3d82e3e0	0.0639112
17	0x40134458	2.3010464
18	0x3f942050	1.1572361
19	0xbe2a4450	-0.16627622
20	0xbf20eb72	-0.6285926
21	0xbf9d7392	-1.2300894
22	0x3e995a9a	0.29951936
23	0x4003ac3d	2.0573876
24	0x3f23fce5	0.6405776
25	0x3f8b92ee	1.0904214
26	0x3fc66cf9	1.5502006
27	0x3f854872	1.0412734
28	0x3f2518d4	0.6449101
29	0x3f825bc3	1.0184253
30	0xbeecf88b	-0.46283373
31	0xbf8baaf7	-1.0911549
32	0xbcf561b6	-0.029953819
33	0x3f80a1ba	1.0049355
34	0xbf48934a	-0.78349745
35	0xc071d9bb	-3.7789142
36	0x3f3f347d	0.74689466
37	0xbfac7924	-1.3474469
38	0xbf8dbbce	-1.1072938
39	0x3e6b64d3	0.2298768
40	0xbf0443e4	-0.5166609
41	0x3f98e1d2	1.1943915
42	0x3f4693bc	0.77569175
43	0xbe2f87f6	-0.17141709
44	0xc0840232	-4.125268
45	0xbe037611	-0.12838008
46	0x3d0bb7e8	0.034110934
47	0xbf0c7a74	-0.5487435
48	0x3eb1a057	0.34692642
49	0x402caa44	2.6978922
50	0x4045d834	3.091321
51	0xbf3a2c67	-0.72724
52	0x3deaf185	0.114718474
53	0xbfe399ea	-1.7781346
54	0xbf1b3125	-0.60621864
55	0xbf987015	-1.1909205
56	0xbfa73a81	-1.3064729
57	0x3fb90e2c	1.445745
58	0x3f6aebb5	0.9176591
59	0x3e7c2f08	0.24627316
60	0xc001a6cc	-2.0258055
61	0xbfd25c49	-1.6434413
62	0x3f6ece7d	0.93283826
63	0x3f701522	0.93782246
64	0x3f95b8a5	1.1696974
65	0xbe8acc15	-0.27108827
66	0xbf8ec470	-1.1153698
67	0x3f924d1e	1.1429784
68	0x3fa6bdd7	1.3026685
69	0x3edcec8b	0.43149218
70	0xbf970d0c	-1.1800857
71	0xc04c1322	-3.1886678

weight f4 [8]
0	0x3f5f860b	0.8731391
1	0x3ffcdcc2	1.975487
2	0x3f09407c	0.5361402
3	0x3fea47aa	1.830312
4	0x4019f1a6	2.405374
5	0x3ff07b57	1.878764
6	0x3f9882c6	1.1914909
7	0x40387b28	2.8825169

bias f4 [8]
0	0xbf67938d	-0.9045952
1	0xbf2892f5	-0.6584924
2	0xbfa9404f	-1.322275
3	0xbf7926d5	-0.9732488
4	0xbf65e865	-0.8980773
5	0xbe80c9fe	-0.25154108
6	0xbec22f94	-0.37926924
7	0xbf9b52d5	-1.2134653

running_mean f4 [8]
0	0xc0075abe	-2.1149135
1	0x405ec510	3.4807777
2	0x3ff2dbcd	1.8973328
3	0xbf7335bf	-0.95003885
4	0xbfd9b3c8	-1.700799
5	0x3f9c7879	1.2224265
6	0xbfa69835	-1.30152
7	0xbe99c79d	-0.30035105

running_var f4 [8]
0	0x3f271e67	0.65280765
1	0x3fc5e140	1.5459366
2	0x3ef0a5a0	0.47001362
3	0x3e8e9222	0.27845865
4	0x3ecdce56	0.40196484
5	0x3e94e971	0.29084352
6	0x3e5aeb32	0.21378782
7	0x3df9f630	0.1220516

weight f4 [8, 8, 3, 3]
0	0xbde089cf	-0.10963785
1	0xbfbbf490	-1.468401
2	0xbee03013	-0.43786678
3	0xbefefcef	-0.49802348
4	0xbd16a197	-0.036775198
5	0x3f9702d8	1.1797743
6	0xbe59bad2	-0.21262673
7	0x3fa2d698	1.2721739
8	0x3eb54230	0.3540206
9	0xc02784b5	-2.6174748
10	0xbf298883	-0.66223925
11	0x3e746646	0.23867139
12	0xbfa95911	-1.3230306
13	0x3fb72739	1.4308845
14	0x3edc080a	0.42974883
15	0x3fa8d339	1.318946
16	0xbed4cad6	-0.41561002
17	0x3e9db21c	0.3079995
18	0xbecc48ce	-0.39899296
19	0x3f8437e5	1.0329558
20	0xbd0e7e28	-0.03478828
21	0xbf94d5fe	-1.1627805
22	0xbef18082	-0.47168356
23	0x3e0974ab	0.13423412
24	0xbe32ac57	-0.17448555
25	0x3e988938	0.2979219
26	0x3fa3f6b8	1.2809668
27	0xc0052bb6	-2.080793
28	0x3e05aa82	0.13053325
29	0xbf4361af	-0.7632093
30	0xbf8c67f8	-1.0969229
31	0xbf8d5dc8	-1.1044245
32	0x3f7111b3	0.9416763
33	0xbf565613	-0.8372509
34	0x401c5a2b	2.4430034
35	0x3f3e6153	0.74367255
36	0xbfd4b15f	-1.6616629
37	0x3e3bc34c	0.18336219
38	0xbeaa6912	-0.33283287
39	0x3d993239	0.07480282
40	0x3f8c8589	1.0978252
41	0x3e774fb0	0.24151492
42	0xbfb4c72d	-1.4123284
43	0x3fe0ac00	1.755249
44	0x400550ff	2.0830686
45	0xbfadfe95	-1.3593317
46	0x3ee86242	0.45387465
47	0xbf0c15d0	-0.54720783
48	0xbfeff105	-1.8745428
49	0x3f43551a	0.7630173
50	0xc005d9eb	-2.0914257
51	0xbf2c9749	-0.6741834
52	0x3f018494	0.50592923
53	0x3f5acb9e	0.85466945
54	0x3f2957df	0.66149706
55	0xbf3ec43c	-0.7451818
56	0x3dbf1790	0.09330666
57	0xbf04d297	-0.51883835
58	0x3ee7b1a0	0.45252705
59	0xbf70a20d	-0.9399727
60	0x3fc2b37a	1.5211022
61	0xbfa2d210	-1.2720356
62	0x3fd2c0b8	1.6465063
63	0xc019a953	-2.4009597
64	0xbef06cb7	-0.46957943
65	0xbfdbcd66	-1.7172058
66	0xbf6800f0	-0.9062643
67	0xbf9f5423	-1.2447551
68	0x3f269aea	0.6508013
69	0xbf28138c	-0.65654826
70	0x3faee872	1.3664687
71	0x40257907	2.585512
72	0xbf7b76a4	-0.98227906
73	0x4015376e	2.3315082
74	0x3f12fe3b	0.57419175
75	0x3da119c5	0.07866243
76	0xc04564ff	-3.0842893
77	0x3fa8988c	1.3171554
78	0x3e9d6c1b	0.3074654
79	0x3e083435	0.13301165
80	0xbe8603bb	-0.2617472
81	0xbe0b27ab	-0.13589351
82	0xbfbbb084	-1.4663243
83	0xbf8290db	-1.0200456
84	0x3de1b802	0.11021425
85	0x3ec70b36	0.3887574
86	0x3f8cfbab	1.1014303
87	0xbf626878	-0.88440657
88	0x3f4e0fc4	0.80492806
89	0xbf0fca08	-0.5616765
90	0xbe92590b	-0.2858356
91	0xbfa5eb16	-1.2962368
92	0xbe84b0f5	-0.25916258
93	0xbe81dda2	-0.25364405
94	0x3f8c3589	1.0953838
95	0xbf9afca1	-1.2108346
96	0x3ef1dd7a	0.47239286
97	0xbcf7a2c0	-0.030228972
98	0xbf0fcb24	-0.56169343
99	0x3f8a28b8	1.0793676
100	0x3f369baf	0.71331304
101	0xbf8b465b	-1.0880846
102	0xbf981c0b	-1.1883558
103	0xbf4f70f7	-0.81031746
104	0x3f54a32f	0.830615
105	0x3ead7396	0.33877248
106	0xbd84873b	-0.06471106
107	0x403879a6	2.8824248
108	0x3f98956c	1.19206
109	0x3f621bb1	0.88323504
110	0xc04fde5f	-3.2479475
111	0xbfd03af3	-1.626799
112	0x3df0669e	0.11738323
113	0xbe2bb590	-0.1676848
114	0xbfa30f52	-1.273905
115	0xc03036e6	-2.7533507
116	0x404abe84	3.1678782
117	0x3f83cb10	1.0296345
118	0xbf4602cc	-0.7734802
119	0xbe19457a	-0.1496791
120	0xbf0001c0	-0.5000267
121	0x3e8c8c46	0.2745077
122	0xbf7f9870	-0.99841976
123	0xbf13c88c	-0.57727885
124	0x3f1eb392	0.6199275
125	0xbf488a1c	-0.7833574
126	0xbf15d16b	-0.5852267
127	0x3facbd1b	1.349521
128	0x3fca9c53	1.5828956
129	0xbf69659f	-0.91170686
130	0xbfa8f85c	-1.3200793
131	0xc02b4845	-2.676286
132	0xbefe7d21	-0.4970484
133	0xbff0e671	-1.8820325
134	0xbfbf6dd9	-1.4955398
135	0x3f3d5d07	0.73970073
136	0x3fbd9ec7	1.481408
137	0xbd9d640a	-0.076850966
138	0xbf57f44c	-0.8435714
139	0xbfe8b7dc	-1.818111
140	0x3d6ecaa6	0.05829873
141	0xbf4b09e8	-0.7931199
142	0x3f5ff67e	0.8748549
143	0x401e63a8	2.4748325
144	0x3f88f74d	1.070047
145	0x403a3f8e	2.910129
146	0x3f85df04	1.0458684
147	0x3e13b109	0.14423002
148	0x3e28369b	0.1642708
149	0xbe3e7965	-0.18600996
150	0xbead06f2	-0.3379436
151	0x3f56ee32	0.8395721
152	0x3e7e71d6	0.24848112
153	0xbf6a6b1e	-0.915697
154	0xc002ad8c	-2.0418425
155	0xbfe734b2	-1.8062956
156	0xbfce9057	-1.6137799
157	0xbf717c65	-0.94330436
158	0xc00e58eb	-2.2241771
159	0xbfd5c82f	-1.6701716
160	0xbf12b0ad	-0.57300836
161	0xbfc17996	-1.511523
162	0xbfe2ca1e	-1.7717931
163	0xbf0d50cd	-0.5520142
164	0xc03e6e01	-2.975464
165	0x3dabaeef	0.08382975
166	0xba811fd1	-0.0009851401
167	0x3ed832d4	0.4222628
168	0x3f0c1b72	0.5472938
169	0x3f41ab4c	0.75652003
170	0xbf761477	-0.96124977
171	0x3fa696ff	1.301483
172	0x3df6ea96	0.120564625
173	0x3fe1565a	1.7604477
174	0x3f63605d	0.88818914
175	0x3f773f18	0.9658065
176	0xbeb207ee	-0.34771675
177	0xbfef95ea	-1.8717625
178	0xbf104718	-0.5635848
179	0xbf0280c4	-0.5097773
180	0xbd9c40b1	-0.076295264
181	0xbfac59d7	-1.3464917
182	0xbf42fea1	-0.7616978
183	0x4023a6c8	2.5570545
184	0x40233892	2.5503278
185	0xbc61c987	-0.013780958
186	0x3e432ae2	0.19059327
187	0x3fbb7c76	1.4647357
188	0xbf49f9dd	-0.78896886
189	0x3ecc23ed	0.3987116
190	0xbf5d75f0	-0.86508083
191	0xbf9a4bbd	-1.2054363
192	0x3f2cf5c0	0.67562485
193	0x3f7515df	0.957365
194	0xbfa83b06	-1.3143013
195	0xbfbed58e	-1.4908922
196	0xbfe37bef	-1.7772197
197	0xbf63c181	-0.8896714
198	0x3e9d7b94	0.30758345
199	0xbfc75d54	-1.5575356
200	0xbfaab7e2	-1.3337367
201	0x3fad50a5	1.3540236
202	0x3faa1516	1.3287685
203	0x3fc94f5a	1.5727341
204	0x400e115c	2.2198095
205	0x3f312ae3	0.69206065
206	0x3f1d0846	0.6134075
207	0x3db25bcc	0.08708915
208	0x3fd4a430	1.6612606
209	0x3ef2f421	0.4745188
210	0x3fb02822	1.3762248
211	0xbe82859d	-0.25492564
212	0x3db173b4	0.08664647
213	0xbff983b1	-1.9493314
214	0x3f98a0b2	1.192404
215	0xc030b6b9	-2.7611525
216	0xbfc6e47c	-1.5538478
217	0xc01e6186	-2.4747024
218	0xbf849771	-1.0358716
219	0x3e00f9c4	0.12595278
220	0xbe667ef3	-0.22509365
221	0x3e34faae	0.17673752
222	0x3fb4172e	1.4069574
223	0xbf2e842b	-0.6817042
224	0x40147fa0	2.3202896
225	0xbda76eff	-0.08175468
226	0x3ed680f6	0.41895264
227	0xc0125ba3	-2.286843
228	0x3f339b8e	0.7015923
229	0xbec4a9b3	-0.3841072
230	0xbe8fad7c	-0.28062046
231	0x3ffd581f	1.9792517
232	0xbf39557f	-0.7239608
233	0x3ea03052	0.31286865
234	0x3f2492b5	0.6428636
235	0x3f9587ae	1.1682031
236	0x3e1a5827	0.1507269
237	0x3eb3ce92	0.35118538
238	0xbde02524	-0.10944584
239	0x3f49590d	0.78651506
240	0x3fb62589	1.4230205
241	0x3dd9af77	0.106291704
242	0x3fa000df	1.2500266
243	0xc0295165	-2.645593
244	0xbe8e456e	-0.27787346
245	0x3eac9665	0.33708492
246	0xbfb6a558	-1.4269209
247	0x3f56691a	0.8375412
248	0xc02298c4	-2.540574
249	0xbe7a2aa7	-0.24430333
250	0x400c53d7	2.1926172
251	0xbe4157d4	-0.1888116
252	0xbfa688b8	-1.3010473
253	0xbdc076ee	-0.09397684
254	0x3f7fc01c	0.9990251
255	0xbed25a65	-0.4108459

weight f4 [8]
0	0x401a5729	2.4115698
1	0x3fbc2908	1.4700022
2	0x3f70da3a	0.9408299
3	0x3fce446e	1.6114633
4	0x40436e64	3.0536127
5	0x3f8aab53	1.0833534
6	0x3fdc97e0	1.7233849
7	0x3faccd72	1.3500197

bias f4 [8]
0	0xbfcd9dad	-1.6063744
1	0xbe9e11a1	-0.30872825
2	0xbe739124	-0.23785836
3	0xbfce64dd	-1.6124531
4	0xbf315cc1	-0.69282156
5	0xbf059651	-0.5218249
6	0xbf7de99b	-0.9918458
7	0x3f1302e6	0.574263

running_mean f4 [8]
0	0xbfe4fa60	-1.7888908
1	0xc0a61d70	-5.1910934
2	0xc128ddd5	-10.554158
3	0xc0495111	-3.145573
4	0xc1aa1b1c	-21.263237
5	0xc1a1b15f	-20.211607
6	0xc17682c9	-15.40693
7	0x408772c9	4.232762

running_var f4 [8]
0	0x42cd2595	102.5734
1	0x430b8039	139.50087
2	0x43a90ffb	338.12485
3	0x42c21963	97.04958
4	0x4331bb98	177.73279
5	0x43ac5db7	344.73215
6	0x4370fdab	240.99089
7	0x42f1b7dd	120.85911

weight f4 [8, 8, 3, 3]
0	0x3fa2795b	1.2693285
1	0xbf83e389	-1.0303813
2	0xc01038a5	-2.2534573
3	0x3ebb054f	0.36527488
4	0xc02d1ef1	-2.7050135
5	0xbf8c6548	-1.0968409
6	0xbff2a255	-1.895579
7	0x3ee1092b	0.43952307
8	0x3ef62f39	0.48082903
9	0x3f29a3d4	0.66265607
10	0xbfed95e7	-1.8561372
11	0x3ebb65c1	0.3660107
12	0xbf28723d	-0.65799314
13	0x40150c73	2.3288848
14	0xbeac43e1	-0.33645537
15	0x3fd2b6ce	1.6462038
16	0xbe896136	-0.2683198
17	0xbfa6a4cf	-1.3019046
18	0xbf24a6a8	-0.643168
19	0x3f010af9	0.5040737
20	0x3f88b726	1.0680892
21	0x3ef2533b	0.47329125
22	0x3f281ddb	0.65670556
23	0xbe17a2fc	-0.14808267
24	0x3ebb12ba	0.36537725
25	0x3f62a00b	0.88525456
26	0x3e6b343c	0.22969145
27	0x40300594	2.7503405
28	0x3fc7007f	1.5547026
29	0xbe98801e	-0.29785246
30	0x3f34aea1	0.7057896
31	0xc00338ba	-2.0503373
32	0xbf799bcb	-0.97503346
33	0xbfaadf35	-1.3349367
34	0xbfa988db	-1.324489
35	0x3efc8b2b	0.49324927
36	0xbf8c5980	-1.0964813
37	0x3fe01ce3	1.7508816
38	0x40369542	2.85286
39	0xbc73b19e	-0.01487389
40	0x3febc6fe	1.8420103
41	0x3f9ae361	1.210064
42	0x3f6b38e5	0.9188369
43	0x3cd4a3f3	0.025957083
44	0xbfe06d81	-1.7533418
45	0x3f3db7a9	0.7410837
46	0xc036aa75	-2.8541539
47	0x3ec495de	0.3839559
48	0xbdb36e84	-0.087613136
49	0xbe874617	-0.26420662
50	0x3f954e63	1.1664547
51	0xbf1d6a1e	-0.61490047
52	0xbf4bfc54	-0.796819
53	0xbfb17920	-1.386509
54	0x4017f357	2.3742273
55	0xbfe5a9c3	-1.7942432
56	0x3f0c1f2d	0.5473507
57	0xbe39df4d	-0.18151589
58	0x3f8572fb	1.0425714
59	0x3edaa673	0.42705116
60	0xbf0d29d0	-0.55141926
61	0x3eb10805	0.3457643
62	0xbfc30354	-1.5235391
63	0x3f561c5d	0.8363703
64	0xbf7b0c3e	-0.98065555
65	0xbfc1babc	-1.5135112
66	0xbfa4dbbe	-1.287956
67	0xbe5fc040	-0.21850681
68	0xbe1c2544	-0.1524859
69	0x3f208ef0	0.62718105
70	0xbf39a624	-0.72519135
71	0xbfbf2aaf	-1.4934901
72	0xbff70002	-1.9296877
73	0x3f69a3f5	0.91265804
74	0x3f4d38eb	0.80164975
75	0x3f475643	0.77866
76	0x3eec3513	0.46134242
77	0xc037b44e	-2.87038
78	0xbe9a813d	-0.30176726
79	0x3f9cd3d1	1.2252141
80	0xc0486095	-3.130895
81	0xc006e41c	-2.1076727
82	0x3f7c8c6a	0.98651755
83	0x3fb5727f	1.4175566
84	0x3f16ed43	0.5895578
85	0xbf5182b4	-0.8184006
86	0x3ecfc51b	0.40580067
87	0xbf371159	-0.71510845
88	0x3fd529f9	1.6653434
89	0xc0801fa8	-4.0038643
90	0x3ec30ffb	0.3809813
91	0xbc9cf0be	-0.019157764
92	0xbf407c24	-0.75189424
93	0xbf805bf6	-1.0028064
94	0xbf8c84f1	-1.097807
95	0x3f022327	0.5083489
96	0xbf204c3c	-0.62616324
97	0xbf1ecbc9	-0.620297
98	0x3fb22724	1.3918195
99	0xbe848cac	-0.25888574
100	0xbfb84c93	-1.4398369
101	0x3fb9c15f	1.4512137
102	0xc047351e	-3.112617
103	0x3ec3a8d8	0.38214755
104	0xbf94ef6c	-1.1635566
105	0xbfc32eb0	-1.5248623
106	0xbf5ebbf0	-0.8700552
107	0xbf0349ff	-0.51284784
108	0xbf182df1	-0.594451
109	0x3e480fd6	0.19537291
110	0xbfceee2f	-1.6166438
111	0xbfd134b5	-1.634421
112	0x3ecc7474	0.39932597
113	0xbd2c476f	-0.042060312
114	0xc05c4234	-3.4415407
115	0xbd168954	-0.03675206
116	0x3cde61cf	0.027146248
117	0x4035bf50	2.8398018
118	0x3f8dbece	1.1073854
119	0x3ed9c78d	0.42535058
120	0xbf0e490b	-0.55580205
121	0xc0127364	-2.288293
122	0x3eb2281b	0.34796223
123	0x3f534427	0.8252587
124	0xbe7373bc	-0.23774618
125	0x3d51a90c	0.051186606
126	0xbf3cef8f	-0.7380304
127	0x3f7718ae	0.96522033
128	0x3fc654d7	1.5494641
129	0x3ea226d7	0.31670257
130	0xbf201055	-0.6252492
131	0x3e2776b2	0.16353872
132	0xbee711cc	-0.45130765
133	0x3f10196a	0.5628878
134	0xc04034a1	-3.0032122
135	0x40242b2b	2.5651348
136	0xbd27f355	-0.041003544
137	0x3e55e575	0.20888312
138	0x3e659c5e	0.2242293
139	0xbe8522cf	-0.2600312
140	0x3fd00143	1.6250385
141	0xbef078dd	-0.4696721
142	0x3dae8a3f	0.08522462
143	0xbe95c7c2	-0.29253966
144	0xbeb4e6fd	-0.3533248
145	0xbfb07d25	-1.3788191
146	0xbf8f8e92	-1.1215384
147	0xc064f0d5	-3.5771992
148	0x3f923c6e	1.1424692
149	0xbf967295	-1.1753718
150	0xbfa4d691	-1.287798
151	0xbf616708	-0.8804784
152	0x3f37ae94	0.7175076
153	0x3f0c75d3	0.54867285
154	0x3e79c6d2	0.2439225
155	0xbf891c65	-1.071179
156	0xbf7c1cb0	-0.98481274
157	0xc00437ee	-2.0659137
158	0xbda1f9c1	-0.07908965
159	0xbffa370e	-1.9548051
160	0xbf183cf6	-0.5946802
161	0x3f53f0df	0.82789415
162	0x3fac9835	1.348395
163	0xbed10564	-0.40824425
164	0x3ef70e38	0.48253036
165	0x3e53e0c8	0.20691216
166	0x3f245f21	0.64207655
167	0xbe548d73	-0.20757084
168	0x3f31d83d	0.6947058
169	0x3eb792d1	0.358542
170	0xbfdf1851	-1.7429296
171	0xbf428df6	-0.75997865
172	0x3f88201a	1.0634797
173	0xbf8acec5	-1.0844351
174	0x3b67a145	0.0035343927
175	0x3f3a4f2c	0.72777057
176	0xbf8b546d	-1.088514
177	0xbfcf22fe	-1.6182554
178	0xbe4a2f31	-0.19744565
179	0x3f28216b	0.6567599
180	0x3f5935d1	0.8484774
181	0xbe5b5667	-0.21419679
182	0x3eb5b8a1	0.35492423
183	0x3feaaecb	1.8334593
184	0x4030b6df	2.7611616
185	0x40290d38	2.6414318
186	0x3d986283	0.074406646
187	0x3fd9a20f	1.7002581
188	0xbf9418a0	-1.1570015
189	0xbfa76bf3	-1.3079818
190	0xc00098cc	-2.009326
191	0xbf58ac50	-0.8463793
192	0x3fdd933e	1.731056
193	0x3eedfe21	0.46482947
194	0x3f86fd9a	1.0546143
195	0x3df3bf45	0.11901716
196	0x3d08e084	0.03341724
197	0x4014f3c6	2.3273787
198	0x3fb4e85e	1.4133413
199	0xbf68b721	-0.9090443
200	0xbf1159af	-0.5677747
201	0xbef28f75	-0.47375074
202	0xbf8e5d5a	-1.1122239
203	0x3f3fbd54	0.74898267
204	0xbfcb2d92	-1.5873282
205	0xbfbc21ee	-1.4697855
206	0x3fb5e28e	1.4209764
207	0x3fa46884	1.2844396
208	0xbff37aea	-1.9021885
209	0x3f5dba1c	0.86612105
210	0x3eb1f45b	0.3475674
211	0x3e95e552	0.2927652
212	0xbf19131a	-0.5979477
213	0xbf23b18d	-0.63942796
214	0x3eff94c0	0.49918175
215	0xc039ba5e	-2.902
216	0x3f5d4050	0.8642626
217	0xbe6751e7	-0.22589837
218	0xbef5c34f	-0.4800057
219	0xbf24d7bd	-0.6439169
220	0x400c883d	2.1958153
221	0xbf643845	-0.8914836
222	0x3f8f0e31	1.1176206
223	0x3f9105ee	1.1329935
224	0x3eb5d982	0.35517508
225	0x3fdb2c83	1.7122959
226	0xbf92ac8d	-1.1458908
227	0x3f155c12	0.58343613
228	0xbf524392	-0.82134354
229	0x3f78aa4e	0.97134864
230	0xbe2722ae	-0.16321823
231	0x3eae4d0e	0.34043163
232	0x3fb6f823	1.4294475
233	0x3fffd146	1.998574
234	0x3f7f370f	0.9969339
235	0x3f418d17	0.7560591
236	0x3f4d6c83	0.802437
237	0xbf4bf1d1	-0.7966586
238	0xbfb26ac3	-1.3938831
239	0x3f93e041	1.1552812
240	0xbfd2c245	-1.6465536
241	0xbfd063b3	-1.6280426
242	0xc00e33a5	-2.2219021
243	0x3d6e0c6b	0.05811731
244	0x4048769e	3.1322398
245	0x3f613d97	0.87984604
246	0x3f57fe63	0.8437254
247	0x3fed5e2c	1.8544364
248	0x3f2e7b9a	0.6815735
249	0xbebc6ba5	-0.36800876
250	0x3f63bc6b	0.8895938
251	0xbe7e0b59	-0.24809016
252	0x3c6bb715	0.014386912
253	0x3fb8955c	1.4420581
254	0x3f404c85	0.7511676
255	0x402f78d5	2.74175

weight f4 [8]
0	0x4013561a	2.3021302
1	0x3f553c55	0.83295184
2	0x3fd4cff8	1.6625967
3	0x4023b22c	2.5577497
4	0x3fd8dc0b	1.6942152
5	0x3fc07e37	1.5038518
6	0x3f07a067	0.5297913
7	0x3fac74ec	1.3473182

bias f4 [8]
0	0xbfd1452b	-1.6349233
1	0xbd65eb62	-0.05613268
2	0xbf343bfb	-0.7040402
3	0xbf730105	-0.9492343
4	0xbe83f9e3	-0.25776586
5	0xbe783f40	-0.24242878
6	0xbfab9319	-1.3404266
7	0xbf92c2aa	-1.1465657

running_mean f4 [8]
0	0xbfeebb96	-1.8650997
1	0xc090173c	-4.502836
2	0x3f90f906	1.1325996
3	0x3fedab9e	1.8567998
4	0xc03c5c2c	-2.9431257
5	0xc009d7be	-2.1537929
6	0xc0629823	-3.5405357
7	0xc0c29b1e	-6.081435

running_var f4 [8]
0	0x42e26481	113.1963
1	0x42d51e3d	106.55906
2	0x4359cdf9	217.80458
3	0x4321d190	161.8186
4	0x4287e3c8	67.944885
5	0x42f24ee6	121.1541
6	0x43019955	129.59895
7	0x424ce1de	51.220573

weight f4 [16, 8, 3, 3]
0	0xbf605b0d	-0.8763893
1	0xbd4d9b4e	-0.05019694
2	0xbf5ca03d	-0.86182004
3	0xbf73cc57	-0.9523367
4	0xbee94a1b	-0.4556435
5	0xbf39a673	-0.72519606
6	0x3f6a8d63	0.9162199
7	0x3e55fc19	0.20896949
8	0xbf1f59dd	-0.62246495
9	0x3faca4fc	1.3487849
10	0x3f9f54e6	1.2447784
11	0x3f00a138	0.50246
12	0x400856c5	2.130296
13	0xbf2c0947	-0.67201656
14	0x3e94a185	0.2902948
15	0xbf6558c6	-0.8958858
16	0xbf53bcc4	-0.8270991
17	0x3fa0efd6	1.2573192
18	0xc018d4aa	-2.38798
19	0xbfba2b6d	-1.4544502
20	0xbf0e7edd	-0.5566233
21	0x3f6cca2b	0.92495984
22	0x3e990d37	0.29892895
23	0xbf892613	-1.0714744
24	0x3ffa54e9	1.9557163
25	0x3fc71fbc	1.555656
26	0x3ed7cc67	0.42148134
27	0xbeadf98e	-0.33979458
28	0xbfedb1bd	-1.8569866
29	0xbeddcd20	-0.4332056
30	0xbf0addfa	-0.5424496
31	0xbfdd0333	-1.7266601
32	0xbef87fce	-0.48535007
33	0x3ff67f6e	1.9257638
34	0x407b8d45	3.9304974
35	0x3fc7224c	1.5557342
36	0x3c1d7b63	0.009611937
37	0x3f13888c	0.5763023
38	0xbff1c143	-1.8887104
39	0x3ea253b4	0.31704485
40	0xbf374236	-0.71585405
41	0xbfab5a8f	-1.3387011
42	0x3fbbf6e0	1.4684715
43	0x3f131b3e	0.57463443
44	0xbedafff7	-0.4277341
45	0x3fb8aa68	1.4427004
46	0xbf83a882	-1.02858
47	0xbf0a2840	-0.53967667
48	0xbf8ab215	-1.0835596
49	0x3ecbaf91	0.39782384
50	0xbef9fcb9	-0.48825625
51	0x3f940eec	1.1567054
52	0xbfadb4fa	-1.3570855
53	0xbe45faff	-0.19334029
54	0x3f174566	0.5909027
55	0x3f80acf5	1.0052782
56	0x3f975f75	1.1826006
57	0x3eba5c65	0.36398616
58	0x3e3ccaed	0.18436785
59	0x3db3fe78	0.087887704
60	0x3ec5b407	0.38613912
61	0x3e6ea4ee	0.23305103
62	0xbe984233	-0.29738006
63	0x3f8848d0	1.0647221
64	0x4003d055	2.0595906
65	0xbec50619	-0.38481215
66	0xbf272c09	-0.6530157
67	0xbfa7efd0	-1.312006
68	0xbf2ad06f	-0.66724294
69	0xbe83a893	-0.2571455
70	0x3f04b040	0.51831436
71	0x3ecad83b	0.39618096
72	0x3f724479	0.9463573
73	0x3ec641ad	0.38721982
74	0xbf91e5f3	-1.13983
75	0xbfe1175e	-1.7585256
76	0xbe8913dd	-0.26772967
77	0xc03dccfd	-2.9656365
78	0xbf850851	-1.0393163
79	0xbd03474e	-0.032050423
80	0xc01eafbb	-2.4794757
81	0xbf84e61c	-1.0382724
82	0x3e960e6f	0.29307887
83	0x3f6aa123	0.91652125
84	0x3fa31c52	1.2743018
85	0xc033787f	-2.8042295
86	0x3fe8a226	1.8174484
87	0x3f8d96e5	1.1061674
88	0xbf936797	-1.1515988
89	0x3edc6acd	0.43050233
90	0xc016a6c4	-2.3539286
91	0xbe861cb6	-0.2619378
92	0x3f408faa	0.75219214
93	0xbf011fc7	-0.50439113
94	0xbf8a5031	-1.0805722
95	0xbfbde755	-1.4836222
96	0x400c8205	2.1954358
97	0x3f90270c	1.1261916
98	0x3f4145ba	0.7549702
99	0xc0082c29	-2.1276953
100	0xbf946328	-1.159276
101	0x3fb1e929	1.389928
102	0x3e9dae95	0.30797258
103	0xbf0ce4c7	-0.55036587
104	0xc024a011	-2.5722697
105	0xbff9e0d7	-1.9521741
106	0x3f663959	0.89931256
107	0xbdf8e56d	-0.121531345
108	0xbf2df8a8	-0.67957544
109	0xbf3eacb5	-0.7448228
110	0xbfbd992c	-1.4812369
111	0xbd76adad	-0.060224224
112	0x3ecf11bb	0.40443215
113	0x3f3e95a4	0.74447083
114	0xbeb6dc94	-0.35715163
115	0x3e0f0363	0.13966136
116	0x3c3568a8	0.011072315
117	0x3fa783a8	1.3087053
118	0xc007023d	-2.1095116
119	0x3e4af99b	0.1982178
120	0x3d5947b1	0.053046886
121	0x3faf4eea	1.3695958
122	0x4015bd88	2.339693
123	0xbf2f66fb	-0.6851651
124	0xc02c88e9	-2.6958563
125	0x401a9c7a	2.4158006
126	0x3f30de51	0.6908923
127	0x3f09e1b6	0.5386003
128	0xbefdae56	-0.4954707
129	0xbf81a4aa	-1.0128376
130	0x3f5f53cf	0.87237257
131	0x4013e0cf	2.3105962
132	0x3f362309	0.7114721
133	0xbfc95494	-1.5728936
134	0x4007b5a7	2.1204622
135	0x3fb9166f	1.4459971
136	0x3f5e7908	0.8690343
137	0x3b054a97	0.0020338648
138	0x40160bd7	2.3444726
139	0xbe530984	-0.20609099
140	0x3ff2e87e	1.8977201
141	0x3f85c0e9	1.0449497
142	0xbf9893ca	-1.1920102
143	0x3fb310e3	1.3989528
144	0xbfbbb20e	-1.4663713
145	0x3ececb44	0.40389454
146	0x3f9cf4ff	1.2262267
147	0xbf800382	-1.000107
148	0x3fc9be39	1.5761176
149	0xbfdf0a00	-1.7424927
150	0x3f0132fe	0.5046843
151	0xbfea8132	-1.8320677
152	0x3e556f13	0.20843153
153	0xbf51f0c0	-0.8200798
154	0xbf20bd0b	-0.62788457
155	0xbeab6de8	-0.3348229
156	0x3ea1ee35	0.3162705
157	0xbf631150	-0.8869829
158	0x3f562e8f	0.8366479
159	0x3f53ef47	0.82786983
160	0x3f8b4860	1.0881462
161	0x3ff8b630	1.9430599
162	0x3f9fd772	1.2487624
163	0x3e496e90	0.19671082
164	0xbe2a5dd5	-0.16637357
165	0x3fc3a064	1.5283322
166	0xc0323035	-2.7841923
167	0xbef53cd0	-0.4789796
168	0xc02a97f3	-2.6655242
169	0xc016e024	-2.3574305
170	0x3f4d3a49	0.8016706
171	0x4022b751	2.5424387
172	0x3f876f74	1.0580888
173	0xbf5b7d54	-0.8573811
174	0x3c4d1fb8	0.012519769
175	0xbd3953d8	-0.045245975
176	0x3ea9f9d3	0.33198413
177	0xbf93901c	-1.1528354
178	0xbf4c6a5c	-0.7984979
179	0xc02a4bae	-2.6608691
180	0x3eb72b7b	0.3577536
181	0x3f9e8505	1.2384344
182	0x3f422c7d	0.75849134
183	0xbe463b64	-0.19358593
184	0xc0686374	-3.6310701
185	0x3eb7c5eb	0.35893187
186	0xbeb3ddb8	-0.35130095
187	0xbfc11adf	-1.5086325
188	0xbeb74fd3	-0.3580309
189	0xbf11c320	-0.5693836
190	0xbf64b2cf	-0.8933534
191	0xbf906f11	-1.1283895
192	0xc077119d	-3.86045
193	0xbf0be5de	-0.54647624
194	0x3f0b4cb8	0.5441394
195	0xbe770e8d	-0.24126644
196	0xbf0a1bba	-0.5394856
197	0x3f266735	0.6500123
198	0xbfbb8fe6	-1.4653289
199	0x3ef5f966	0.48041838
200	0xbfce4b5e	-1.611675
201	0xbd979524	-0.07401493
202	0xbf947bb0	-1.1600246
203	0x3ec615ff	0.38688657
204	0xbf295b48	-0.6615491
205	0xbfa224ee	-1.266752
206	0x3f157558	0.5838218
207	0xbfcf5199	-1.6196777
208	0xc0182765	-2.3774045
209	0xc034cc9f	-2.824989
210	0xbf85bebd	-1.0448834
211	0xbf2204e0	-0.6328869
212	0xc00601bd	-2.093856
213	0x3f09b751	0.53795344
214	0xbdab42ee	-0.08362375
215	0xbee1f8e3	-0.44135198
216	0xbfbb2883	-1.4621738
217	0x3f977db0	1.1835232
218	0x3f827142	1.0190814
219	0x400baf72	2.1825833
220	0x3fef0117	1.8672208
221	0x3f8c62bc	1.0967631
222	0x4022ac80	2.5417786
223	0x3f1856ed	0.5950764
224	0xc05c8c04	-3.4460459
225	0x3fdcf721	1.7262918
226	0xbf896400	-1.0733643
227	0xbf6809ac	-0.9063976
228	0x3ec8eb14	0.3924185
229	0x3d8f8166	0.07007103
230	0x3fd4a170	1.6611767
231	0x3ecafdb4	0.39646685
232	0xc000a0a0	-2.0098038
233	0x3f3ae11a	0.7299973
234	0x3f9a9f0a	1.2079785
235	0x3f7f4add	0.9972361
236	0x3f1fcebf	0.62424845
237	0x40006205	2.0059826
238	0x3f0635ee	0.5242604
239	0x3f812d33	1.0091919
240	0xbedd2bad	-0.43197384
241	0x3d6dabc7	0.058025148
242	0xbf937a36	-1.1521671
243	0xbfc704dc	-1.5548358
244	0xbf7cde86	-0.98777044
245	0x3e44986c	0.1919877
246	0x3d888cae	0.066674575
247	0xbfc86960	-1.5657158
248	0x3e71251a	0.2354931
249	0xbf9ec863	-1.2404903
250	0xbf386a7b	-0.72037476
251	0xbefadff0	-0.48998976
252	0xbff7a4af	-1.9347132
253	0xbeb6a033	-0.35669097
254	0xbd021877	-0.031761613
255	0x3f72efa2	0.948969

weight f4 [16]
0	0x400cfa4e	2.2027774
1	0x3f58d3d6	0.84698236
2	0x3f84914f	1.0356845
3	0x3f9e35bf	1.2360152
4	0x3f5129ca	0.8170439
5	0x3fac9ce4	1.3485379
6	0x3f094c14	0.5363171
7	0x3ebcd97b	0.36884674
8	0x3f84bf52	1.0370886
9	0x3fc5c5c1	1.5450975
10	0x3f54fc7a	0.8319775
11	0x3fa6903e	1.3012769
12	0x3fa7867a	1.3087914
13	0x4003397f	2.0503843
14	0x3fa3f474	1.2808976
15	0x3fad9dd2	1.3563788

bias f4 [16]
0	0xbf63a739	-0.88927037
1	0x3e457021	0.19281055
2	0xbe29cbc1	-0.16581632
3	0xbca95b8e	-0.02067354
4	0x3e7df030	0.24798656
5	0xbf18054a	-0.5938307
6	0x3f4959f1	0.78652865
7	0xbc16465d	-0.009172049
8	0x3d99dee0	0.07513213
9	0xbdf95a62	-0.12175442
10	0xbf9f988e	-1.2468431
11	0xbf01e2b5	-0.5073655
12	0x3e02af00	0.1276207
13	0x3ea31021	0.31848243
14	0xbf963706	-1.1735542
15	0xbf8b413c	-1.0879283

running_mean f4 [16]
0	0x40b70d43	5.720369
1	0xc04c3d34	-3.1912355
2	0xc112e0de	-9.179899
3	0x4015d70a	2.34125
4	0xc0d0ccb4	-6.524988
5	0x3f996240	1.1983109
6	0x3f213ef7	0.629867
7	0xc0819e23	-4.050554
8	0xc125e621	-10.368684
9	0xc055789a	-3.335486
10	0xc043b115	-3.0576832
11	0xc0a0e057	-5.027385
12	0xc02692d3	-2.6027114
13	0x40fcbd74	7.8981266
14	0xc0392112	-2.8926435
15	0xc085a595	-4.1764627

running_var f4 [16]
0	0x431d2f72	157.18533
1	0x4226162b	41.52165
2	0x42b4355d	90.104225
3	0x42efcd5e	119.90111
4	0x427cdce0	63.2157
5	0x42a0856a	80.260574
6	0x4289b11c	68.84592
7	0x42b38b60	89.77222
8	0x42c55237	98.660576
9	0x422f88ea	43.883705
10	0x426d79aa	59.368813
11	0x4299755c	76.72922
12	0x427711b2	61.76728
13	0x433be2a7	187.88536
14	0x421a6938	38.602753
15	0x424ccdd4	51.201004

weight f4 [64, 96]
0	0xbc220e4d	-0.009891105
1	0x3befa646	0.0073135225
2	0xbdfad19d	-0.12247012
3	0xbd98e022	-0.07464625
4	0xbd1e2d9b	-0.03861771
5	0xbc33980d	-0.010961545
6	0xbda85a37	-0.08220332
7	0x3d1263c1	0.035739664
8	0xbc77e9ed	-0.015131456
9	0xbdaac4b8	-0.083383024
10	0x3c302547	0.010751075
11	0xbd7eba8c	-0.062189624
12	0x3cfb888b	0.030704757
13	0xbc861792	-0.016368661
14	0x39e3b1b0	0.00043429201
15	0xbd4cbfa1	-0.04998744
16	0xbe0fe52b	-0.14052264
17	0xbe23df57	-0.16003166
18	0x3c1f8899	0.009737157
19	0xbe09e7c7	-0.13467322
20	0x3cc2771a	0.023738433
21	0xbe0c9d43	-0.13731866
22	0x3c1eb8d6	0.009687623
23	0xbd43b2b0	-0.04777783
24	0xbe0f1840	-0.13974094
25	0xbe17dc73	-0.14830188
26	0xbca1b8d7	-0.019741459
27	0xbe1ae0ec	-0.15124863
28	0xbe188652	-0.14894989
29	0xbb330ac8	-0.0027319659
30	0xbd5c30df	-0.053757545
31	0xbd99f028	-0.07516509
32	0x3d1ae2cc	0.037813947
33	0xbd0b3f98	-0.033996195
34	0xbde86271	-0.11346901
35	0xbde6ee55	-0.11275927
36	0x3caf99cb	0.021435639
37	0xbdf9aae9	-0.12190802
38	0xbc15d7f3	-0.009145725
39	0xbdf7345a	-0.12070532
40	0xbde6af52	-0.112639084
41	0xbbc877aa	-0.0061177807
42	0xbd95b8aa	-0.073106125
43	0xbdba240c	-0.09088907
44	0xbcdab8e5	-0.026699493
45	0xbe2554a6	-0.16145572
46	0x3ce860e8	0.028366521
47	0xba6bdd0e	-0.0008997478
48	0xbe005160	-0.12531042
49	0xbcc65ac9	-0.024213212
50	0xbd9d4419	-0.07679004
51	0x3c2edacb	0.0106722815
52	0xbbbfb510	-0.0058504418
53	0x3d14d1e9	0.036333
54	0xbd19f93b	-0.0375912
55	0x3affcd4e	0.0019516142
56	0xbcbf7dfa	-0.0233755
57	0x3d081322	0.03322137
58	0xbc907bf1	-0.017637225
59	0xbd8d09d7	-0.068866424
60	0x3c342d8f	0.01099719
61	0xbdbacf1c	-0.09121534
62	0xbe1c685f	-0.1527419
63	0xbcf25377	-0.029580815
64	0x3cc593ff	0.024118422
65	0x3bb8b451	0.0056367298
66	0xbdce185f	-0.10063242
67	0xbe2859d4	-0.16440517
68	0xbdfbba62	-0.12291409
69	0x3c7e7b54	0.015532333
70	0xbe1883bd	-0.14894004
71	0xbdcc56cf	-0.09977495
72	0xbd307600	-0.043081284
73	0xbdb27655	-0.08713976
74	0xbdb1ee06	-0.086879775
75	0xbe0d7a6f	-0.13816236
76	0x3d03670c	0.032080695
77	0xbd8b1cb3	-0.06792583
78	0xbd66bd3b	-0.056332808
79	0xbd9ed58e	-0.07755576
80	0xbd8f5704	-0.06999019
81	0xbdb7cdfc	-0.08974835
82	0xbdb7130b	-0.08939179
83	0xbd371329	-0.044696007
84	0xbca4cf68	-0.02011843
85	0xbdfcd50f	-0.12345325
86	0xbccaf1c2	-0.024773482
87	0xbcf1869e	-0.029483136
88	0xbcf25626	-0.029582094
89	0x3d0dcb67	0.034617808
90	0xbc43128a	-0.0119062755
91	0x3ba89373	0.0051445304
92	0xbd8b1af5	-0.06792251
93	0xbdb061f3	-0.08612432
94	0xbe15e09e	-0.14636466
95	0xbd8665c1	-0.06562377
96	0xbddcd800	-0.10783386
97	0x3c8de292	0.017319951
98	0xbe031ee1	-0.12804748
99	0xbdf0bdd1	-0.117549546
100	0xbd9dba11	-0.07701505
101	0xbcff1c88	-0.031141534
102	0xbddbb1c8	-0.107272685
103	0xbdd310eb	-0.10305961
104	0xbdd26a1f	-0.10274147
105	0xbdeaf1b4	-0.114718825
106	0xbddcd174	-0.107821375
107	0x3d3f3f3d	0.046691168
108	0x3d56b1fe	0.05241584
109	0x3cacf328	0.02111204
110	0x3d126dc0	0.035749197
111	0x3b48ac5d	0.0030620315
112	0xbdf45c3f	-0.11931657
113	0xbe0c15d6	-0.13680205
114	0xbbd6ad78	-0.006551441
115	0xbd8aa611	-0.06769956
116	0xbdf69a6f	-0.120411746
117	0xbda827fb	-0.08210751
118	0xbd198a04	-0.037485138
119	0xbd0b6cfc	-0.034039482
120	0xbd9f9ea3	-0.077939294
121	0xbd70b019	-0.05876169
122	0xbde1d172	-0.11026277
123	0xbde029cc	-0.10945472
124	0xbd46d802	-0.048545845
125	0x3c10ce0d	0.008838189
126	0xbced2061	-0.028946104
127	0xbcf4799f	-0.02984315
128	0xbe055c2b	-0.1302344
129	0x3d54b626	0.051931523
130	0x3c2def35	0.010616113
131	0x3d50cbc9	0.050975595
132	0xbd04a036	-0.03237935
133	0x3c029f5e	0.007972566
134	0xbdfd3d18	-0.12365168
135	0xbdf95209	-0.1217385
136	0xbdc6aa79	-0.09700484
137	0xbc92905b	-0.0178911
138	0xbdc2a507	-0.09504133
139	0xbd9e5f2f	-0.077329986
140	0x3d359efc	0.044341072
141	0xbd9a194d	-0.07524357
142	0xbdbe20d0	-0.09283602
143	0xbc10b10e	-0.008831276
144	0xbe131e94	-0.14367133
145	0x3bb0ec80	0.0053992867
146	0x3c11c5db	0.00889727
147	0x3c806365	0.015672395
148	0x3bf8b778	0.0075902306
149	0xbe0ce241	-0.13758184
150	0x3d36a1d1	0.044587914
151	0xbde9f94f	-0.11424505
152	0xbbf8bfef	-0.0075912396
153	0xbdead3aa	-0.11466153
154	0xbe07a4fa	-0.13246527
155	0xbdcb6e89	-0.09933192
156	0x3ccdc63f	0.025118945
157	0xbd2cb073	-0.042160463
158	0xbd90cdb7	-0.07070487
159	0xbdea3898	-0.11436576
160	0x3c707e28	0.0146785155
161	0x3d2fc10e	0.04290872
162	0xbbaa6645	-0.0052001798
163	0xbdc5dcbf	-0.096612446
164	0x3c7cef57	0.015437922
165	0xbd841c41	-0.064507015
166	0xbdadc5c8	-0.084849894
167	0xbda3d9e3	-0.08000543
168	0xbd1cb2a9	-0.03825632
169	0xbd1b938b	-0.037982505
170	0x3d1d22a7	0.038363125
171	0xbd2a806f	-0.04162639
172	0x3d04500b	0.032302897
173	0xbdfaa283	-0.12238028
174	0x3c307eb3	0.010772395
175	0x3cd27650	0.025691181
176	0xbdbced32	-0.09224929
177	0xbdf2e6f0	-0.11860454
178	0xbc7c26c6	-0.015390104
179	0xbd5f205a	-0.054474212
180	0xbd8d9a22	-0.06914164
181	0xbc616aa3	-0.013758334
182	0xbd94f246	-0.072727725
183	0xbc75bd46	-0.01499874
184	0xbdc99775	-0.09843341
185	0xbe031fb7	-0.12805067
186	0xbe093a91	-0.13401248
187	0xbdfca530	-0.123361945
188	0xbd808546	-0.0627542
189	0xbe07cebc	-0.13262457
190	0xbe09c851	-0.13455321
191	0xbddc1f8b	-0.10748204
192	0xbe735212	-0.23761776
193	0xbf9cdd56	-1.2255046
194	0xbf0245aa	-0.5088755
195	0xbe82ec8c	-0.25571096
196	0xbf7f9ec0	-0.9985161
197	0x3f740762	0.95323765
198	0x3f33d2d1	0.70243555
199	0xc00ca9e8	-2.1978703
200	0xbff6c382	-1.9278414
201	0xc0ae4643	-5.446077
202	0xc0958ed7	-4.6736865
203	0xbf3c66fa	-0.7359463
204	0x3e3021d0	0.17200398
205	0xc0451093	-3.0791366
206	0x3f814306	1.0098579
207	0x3e6ab971	0.22922303
208	0xc080e811	-4.0283284
209	0x3fa90174	1.3203568
210	0x3eb7b85d	0.35882846
211	0x3e47c88b	0.19510095
212	0xc05fb155	-3.4951985
213	0xc061958a	-3.5247521
214	0xbe975f5f	-0.2956495
215	0x3f876077	1.0576314
216	0x3f16099c	0.5860841
217	0x3f8560fe	1.0420225
218	0x3e91d730	0.28484488
219	0x3eafe9aa	0.3435796
220	0x3f083c1a	0.5321671
221	0xbd9df2ac	-0.077123016
222	0x3f61ea03	0.882477
223	0xbf2a43b2	-0.66509545
224	0x3e34cfb7	0.17657362
225	0x3f552850	0.83264637
226	0x3ef14078	0.47119498
227	0xbf93f133	-1.1557983
228	0x3f0ad80a	0.542359
229	0x3f0605c2	0.52352536
230	0xc0dd6bb2	-6.9193964
231	0xbd9880d5	-0.07446448
232	0x3f4eaf06	0.80735815
233	0x3e6d9d5f	0.23204564
234	0x3dbc8a4e	0.09206067
235	0xbedcf9ea	-0.4315942
236	0x3f523889	0.82117516
237	0xbe55df7a	-0.20886031
238	0x3eadb28a	0.33925277
239	0x3de1e99c	0.110308856
240	0x3f64966e	0.8929204
241	0x3e49e0e3	0.19714694
242	0xbe86eb86	-0.26351565
243	0x3e9c8d3f	0.30576512
244	0xbf6b3c3a	-0.91888773
245	0x3f8798d9	1.059352
246	0x3f8b258b	1.0870832
247	0x3e9ce20c	0.3064121
248	0xbf2f4ad8	-0.6847358
249	0xc0bad233	-5.838159
250	0x3f9f23ad	1.2432762
251	0x3f0602cc	0.5234802
252	0x3eac5a13	0.3366247
253	0xbfb26d20	-1.3939552
254	0x3f83da9a	1.0301087
255	0xbf112ea3	-0.56711787

bias f4 [64]
0	0xbcf56005	-0.029953012
1	0xbd566bdc	-0.052348956
2	0x40580b94	3.3757067
3	0xbd49cb91	-0.0492664
4	0xbc0fc55f	-0.008775084
5	0x3d1b80dc	0.037964687
6	0xbdca9ed8	-0.09893578
7	0xbe03e7e3	-0.12881427
8	0x3e8e2375	0.27761427
9	0xbddf677d	-0.10908411
10	0xc06c1c61	-3.689232
11	0x4024028c	2.5626554
12	0x3d837761	0.06419254
13	0x3f95ffba	1.1718667
14	0x3f45f35c	0.7732446
15	0x3fb8fb19	1.4451629
16	0x3f86591e	1.0495946
17	0xbd7763d6	-0.060397945
18	0x403c74b1	2.9446223
19	0xbe46a0ba	-0.1939725
20	0xbda1a2a9	-0.07892353
21	0x4063f80e	3.562015
22	0xbd61d61c	-0.05513583
23	0x40031389	2.0480673
24	0xbcdaaa4d	-0.026692534
25	0xbd037833	-0.032097053
26	0xbd616487	-0.05502751
27	0x402fdb49	2.747759
28	0x40050349	2.0783255
29	0xbdaf5b7f	-0.08562373
30	0x3d513528	0.051076084
31	0xbceddf8c	-0.02903726
32	0xbe002ad7	-0.12516342
33	0xbd103407	-0.035205867
34	0xbd0095fd	-0.03139304
35	0x3fcba74b	1.5910429
36	0x3fa79195	1.3091303
37	0x40347889	2.819857
38	0x406d56fb	3.7084339
39	0x404e3fbf	3.2226408
40	0xbe20592c	-0.15659016
41	0x4000fa1f	2.0152662
42	0xbe162ff2	-0.14666727
43	0xbeaf08f8	-0.3418653
44	0xbdedc5d7	-0.116100006
45	0xbd800504	-0.06250957
46	0x3d3c1cec	0.04592602
47	0x3f95b7eb	1.1696752
48	0x3f469979	0.7757793
49	0x3c5e96ce	0.013585759
50	0xbcd3844e	-0.025819924
51	0xbd2361b9	-0.039888117
52	0x40054e5b	2.0829074
53	0xbcbf80dd	-0.023376876
54	0xbdaa21c7	-0.08307224
55	0x3da0fcf3	0.07860746
56	0xbd169736	-0.0367653
57	0x40232537	2.5491464
58	0xbe125a97	-0.1429237
59	0x406d4655	3.7074177
60	0x3eeb0b17	0.45906898
61	0xbf95478d	-1.166246
62	0xbf1011cd	-0.5627716
63	0x3efc8484	0.4931985

weight f4 [1, 64]
0	0x3d8406e4	0.06446627
1	0xbd057d01	-0.032589916
2	0x3fb5d930	1.4206905
3	0x3d9c8250	0.07642043
4	0xbc2c4d76	-0.010516515
5	0x3b810a5e	0.0039380034
6	0x3c9e2094	0.019302644
7	0x3d22e175	0.039765794
8	0x3d043215	0.032274324
9	0x3c1706b4	0.009217907
10	0x3e8e7bd0	0.27828836
11	0x3f29df5a	0.6635643
12	0x3d8b260c	0.06794366
13	0x3e4821d4	0.19544154
14	0xbdb2f421	-0.0873797
15	0xbcea54e7	-0.028604938
16	0xbdea0452	-0.11426605
17	0xbd45d175	-0.048295457
18	0x3f389620	0.7210407
19	0x3df4c65a	0.11951895
20	0x3d981fa6	0.074279115
21	0xbec7bd67	-0.3901169
22	0xbd0e8611	-0.034795824
23	0x3d736140	0.059418917
24	0x3e145151	0.14484145
25	0x3da39331	0.07987059
26	0xbb8e76e3	-0.0043476685
27	0x3f2484d6	0.6426519
28	0xbea5103c	-0.32238948
29	0x3d1be080	0.038055897
30	0xbc601764	-0.013677452
31	0xbe1a4c9b	-0.15068285
32	0x3e229989	0.15878882
33	0x3d5ccf1d	0.053908456
34	0xbd015325	-0.031573433
35	0x3eb9ac23	0.36264142
36	0xba4faccd	-0.00079221727
37	0x3ec42716	0.3831107
38	0xbedcdd3b	-0.43137535
39	0xbd9b90e1	-0.07595993
40	0x3d7d6dab	0.061872166
41	0x403b6f24	2.9286585
42	0xbd158097	-0.036499586
43	0xbf0129cd	-0.5045441
44	0x3ad6ad71	0.0016378594
45	0x3d11cffc	0.03559874
46	0x3d8e529c	0.0694935
47	0x3de3b53a	0.111185506
48	0x3e1d2d45	0.153493
49	0xbe5ce351	-0.2157109
50	0x3d187fb1	0.03723115
51	0xbd0ce5e9	-0.034398947
52	0x3ed5157e	0.4161796
53	0xbe1f2f64	-0.15545422
54	0x3c737458	0.0148592815
55	0xbd94c14d	-0.07263432
56	0x3d90b4d4	0.0706574
57	0xbc49c102	-0.012314083
58	0xbd084fa5	-0.03327908
59	0x3fded9e9	1.7410251
60	0xbed6b9b9	-0.4193857
61	0x3e1b1d4e	0.15147898
62	0x3dcb95a4	0.09940651
63	0x3ed6ec44	0.4197713

weight f4 [64, 96]
0	0xbe83e65d	-0.2576169
1	0x3dd76791	0.105178006
2	0x3dd47a94	0.103749424
3	0xbed0a22f	-0.40748736
4	0x3e5f7a54	0.21824008
5	0xbe24332c	-0.16035146
6	0xbda87b3e	-0.082266316
7	0xbe50c989	-0.2038938
8	0xbe73e1f9	-0.2381667
9	0xbe2b0848	-0.16702378
10	0x3c85c864	0.016330905
11	0xbeaa5db7	-0.33274624
12	0xbe95967e	-0.2921638
13	0xbe48ed3d	-0.19621749
14	0xbe005917	-0.12533985
15	0x3e8b6ade	0.2722997
16	0x3e26f2e0	0.16303587
17	0xbdf08f3b	-0.11746069
18	0xbe552a38	-0.20816886
19	0xbe86d77d	-0.2633628
20	0xbf1da4a0	-0.6157932
21	0xbdd0b6f3	-0.10191145
22	0xbdc83cb6	-0.09777205
23	0xbe620d87	-0.22075473
24	0xbec1b9c1	-0.3783703
25	0xbe2bbf54	-0.16772205
26	0x3def8f65	0.11697272
27	0xbe3e2c87	-0.18571673
28	0xbe121335	-0.1426514
29	0xbe4266b1	-0.18984486
30	0xbdf72001	-0.12066651
31	0xbd31a8ec	-0.043373987
32	0xbe365470	-0.17805648
33	0xbcc2f5fc	-0.023798935
34	0xbd0bff7a	-0.03417919
35	0x3d863707	0.065534644
36	0xbccbe652	-0.024890099
37	0xbea1fc44	-0.31637776
38	0xbe02905f	-0.12750386
39	0x3d67014d	0.056397725
40	0xbdf80bc9	-0.12111623
41	0x3db562b0	0.08856714
42	0xbea7bd19	-0.32761458
43	0xbedc7325	-0.43056598
44	0xbda0cdd0	-0.078517556
45	0xbbc4c591	-0.006004997
46	0xbe85e342	-0.26149946
47	0xbe2cee6b	-0.16887824
48	0xbf36ded5	-0.71433765
49	0xbea2224b	-0.31666788
50	0xbed4ee4b	-0.41588053
51	0x3d889d49	0.06670625
52	0xbec9fd22	-0.39450938
53	0x3dd4e83a	0.10395856
54	0xbe05d58d	-0.13069744
55	0xbc1674d5	-0.009183128
56	0xbe9d4a98	-0.30720973
57	0x3dfa7288	0.12228876
58	0xbecf505f	-0.40491006
59	0xbe2ac1a5	-0.16675432
60	0xbcc1f948	-0.023678437
61	0xbe669c46	-0.22520551
62	0xbe123a58	-0.14280069
63	0x3dd7455d	0.10511277
64	0xbe428e5e	-0.18999621
65	0xbe9df174	-0.30848277
66	0xbe6af7c0	-0.22946072
67	0xbe46a97e	-0.19400594
68	0x3c5e0d20	0.013552934
69	0xbd4b5f6c	-0.04965155
70	0xbe38527a	-0.18000212
71	0xbf087337	-0.53300804
72	0xbe476ba4	-0.19474655
73	0xbea75a2a	-0.32685977
74	0x3d9930df	0.074800245
75	0xbd61d232	-0.0551321
76	0xbc1b636e	-0.009484155
77	0xbeb3a9cb	-0.3509048
78	0x3dbc57c3	0.09196427
79	0xbe027b95	-0.12742455
80	0xbe3a60c1	-0.18200971
81	0xbdf4d8d8	-0.11955422
82	0x3e01362f	0.12618326
83	0xbe3f6cbe	-0.18693826
84	0xbe806e34	-0.25084078
85	0xbe1ec08c	-0.15503138
86	0x3e6dcc0f	0.23222373
87	0xbd7d535c	-0.061847076
88	0xbda86e3f	-0.08224153
89	0x3e0e865e	0.13918445
90	0xbd3520f6	-0.044220887
91	0xbe81dea7	-0.25365183
92	0xbece0aa1	-0.40242484
93	0xbdf8f4d0	-0.12156069
94	0xbf05fd24	-0.52339387
95	0x3d548f03	0.0518942
96	0xbdcc57c3	-0.09977677
97	0xbdab2f1b	-0.08358594
98	0xbe1d7137	-0.1537522
99	0x3d122351	0.03567821
100	0xbe4119e9	-0.1885754
101	0xbc804284	-0.015656717
102	0xbd8e3322	-0.069433466
103	0xbe9b73a4	-0.30361664
104	0xbe138b90	-0.14408708
105	0xbdf3051d	-0.1186621
106	0x3cc90b2b	0.024541458
107	0xbc4ee612	-0.012628095
108	0xbe3b0725	-0.18264444
109	0xbe27de37	-0.16393362
110	0xbdc20b1d	-0.09474776
111	0xbcb74367	-0.022371007
112	0xbded33b4	-0.11582127
113	0xbd95dbf7	-0.073173456
114	0xbd1fde11	-0.03903014
115	0xbdb3e7c8	-0.08784443
116	0x3a5f2596	0.00085123756
117	0xbc2b6d08	-0.010463007
118	0xbd5503b5	-0.05200549
119	0xbe418628	-0.18898833
120	0xbe4097f6	-0.18807968
121	0xbda16d06	-0.07882123
122	0xbcf023da	-0.02931397
123	0x3ccc8df8	0.02497004
124	0xbc9eb7a5	-0.019374678
125	0xbd41c1f4	-0.04730411
126	0xbd28cd35	-0.041211326
127	0xbe0b7672	-0.13619402
128	0x3cb5a2d0	0.022172362
129	0xbde3aab7	-0.11116546
130	0xbd03ec4b	-0.03220777
131	0xbe30b284	-0.17255598
132	0xbe829708	-0.25505853
133	0x3d40cdf9	0.04707143
134	0xbd30e6d3	-0.04318888
135	0xbe158e66	-0.14605102
136	0xbc467e91	-0.012115137
137	0xbe2eb411	-0.17060877
138	0xbe02e42f	-0.12782358
139	0xbceaa586	-0.02864338
140	0xbdd418a9	-0.10356266
141	0x3dc2ca3e	0.09511231
142	0xbdd20910	-0.10255635
143	0x3d79788a	0.06090597
144	0xbe08c478	-0.13356197
145	0xbdd01a76	-0.10161297
146	0xbcc3e2d5	-0.023911873
147	0xbd73795d	-0.059441913
148	0xbe8e9df7	-0.27854893
149	0xbe8a470b	-0.27007326
150	0xbd87dc22	-0.06633784
151	0xbcb1fd05	-0.021727094
152	0xbc0a3bcf	-0.008437111
153	0x3d6587cb	0.056037705
154	0xbdf48595	-0.11939541
155	0xbe85bc2b	-0.26120123
156	0xbe01dfd7	-0.12683044
157	0xbd9e8444	-0.077400714
158	0xbcf3ef5e	-0.029777225
159	0xbe226fd7	-0.15862976
160	0xbe0f30da	-0.13983479
161	0x3d81810d	0.063234426
162	0xbea3d893	-0.3200117
163	0xbe3e8593	-0.18605642
164	0xbe47d855	-0.19516118
165	0x3d02a83e	0.03189873
166	0xbe9936d8	-0.29924655
167	0xbd829058	-0.06375188
168	0x3da96bce	0.08272515
169	0xbdf151a6	-0.11783151
170	0xbd84d0af	-0.06485116
171	0xbe0c8563	-0.13722758
172	0xbd31b22d	-0.043382812
173	0xbc069105	-0.008213286
174	0xbe207e32	-0.1567314
175	0xbdaf7aa0	-0.08568311
176	0x3c86ea32	0.016469095
177	0xbe05ce1a	-0.13066903
178	0x3cf84879	0.030307995
179	0x3d03a9a9	0.032144222
180	0xbdc5d590	-0.096598744
181	0xbd7ea2d6	-0.06216701
182	0xbe09824a	-0.13428608
183	0xbdc55855	-0.096359886
184	0xbdb61738	-0.088911474
185	0xbbb718f2	-0.0055876905
186	0xbe0b79fb	-0.1362075
187	0xbd22d4cd	-0.039753724
188	0xbde353c5	-0.11099962
189	0xbe577b40	-0.2104311
190	0xbe58725f	-0.21137379
191	0xbd7ed91f	-0.06221878
192	0x3e4cc723	0.1999784
193	0xc016f5b0	-2.3587456
194	0x3ef75cd8	0.48313022
195	0xbfdf3bdb	-1.7440141
196	0x3fa3dadd	1.2801167
197	0xc0224704	-2.5355844
198	0xbfb9e92b	-1.4524282
199	0x3e5b0a90	0.21390748
200	0xbf9ea347	-1.2393578
201	0x3d985052	0.07437195
202	0xbf476236	-0.77884233
203	0xbea7639a	-0.32693177
204	0xbece9d40	-0.40354347
205	0x3c32a4b7	0.010903529
206	0xbe85fdd5	-0.2617022
207	0xbfc750ad	-1.5571495
208	0x3de4e12b	0.1117576
209	0x3eaf6044	0.34253132
210	0x3f089d5c	0.5336511
211	0x3ecc11e0	0.39857388
212	0xc069bedc	-3.6522741
213	0xbf9c15f5	-1.2194201
214	0xbe1a79d2	-0.15085533
215	0xbee7d2cd	-0.45278016
216	0xbf19e73b	-0.60118455
217	0xbeb0e6df	-0.3455114
218	0x3f2e1b45	0.6801036
219	0x3e2eb349	0.1706058
220	0xbf41b2bf	-0.7566337
221	0x3f250728	0.64464045
222	0xbe9632f9	-0.29335764
223	0xbfbaf7ae	-1.4606836
224	0xbc547852	-0.01296814
225	0xbff71c5d	-1.9305531
226	0xbf0ee78f	-0.5582208
227	0xbf08d8a3	-0.5345556
228	0x3f357e4d	0.70895845
229	0xc06f23d4	-3.7365618
230	0xbefde81a	-0.49591142
231	0xbe621488	-0.22078145
232	0x3d013b72	0.031550832
233	0xbe79d938	-0.24399269
234	0x4004180a	2.0639672
235	0x3f468e9c	0.77561355
236	0xbeaa2087	-0.3322794
237	0xbfc24c99	-1.5179626
238	0x3f1142e5	0.567427
239	0x3f9caa82	1.2239535
240	0xbf13c81c	-0.5772722
241	0xbebd55ff	-0.36979672
242	0xc02b3b9c	-2.6755133
243	0x3f92a98f	1.1457995
244	0xbed16f49	-0.40905216
245	0xbe546900	-0.2074318
246	0x3fadb6af	1.3571376
247	0x3e60ec1c	0.21965069
248	0xbd10dbce	-0.035365872
249	0xbf809d33	-1.0047973
250	0xbf6a98a8	-0.91639185
251	0xbf4eaa30	-0.80728436
252	0xbe632bf5	-0.22184737
253	0xbf2d462d	-0.67685205
254	0xbd4edefd	-0.050505627
255	0x3f7593ea	0.95928824

bias f4 [64]
0	0xbed2811c	-0.41114128
1	0xbe8bc2d6	-0.27297086
2	0x3e9eba0d	0.3100132
3	0xbf52c140	-0.82326126
4	0xbe31d4f0	-0.17366385
5	0xbeca3a6e	-0.39497703
6	0xbeb1aaff	-0.34700772
7	0xbe23a993	-0.15982656
8	0xbef2022b	-0.4726728
9	0xbe2d9201	-0.16950227
10	0xbe25c427	-0.16188107
11	0xbf21edf5	-0.6325372
12	0xbeab6a96	-0.33479756
13	0xbf82032c	-1.0157218
14	0xbe7be3f3	-0.24598674
15	0xbe8bf06f	-0.27331874
16	0xbee61806	-0.44940203
17	0xbe5cd903	-0.21567158
18	0x3f6bebe4	0.92156816
19	0xbeab6e11	-0.33482412
20	0xbecfcad3	-0.4058443
21	0xbdaa5f63	-0.08318975
22	0xbe266b70	-0.16251922
23	0xbf01fcc7	-0.5077633
24	0xbe92bb51	-0.28658536
25	0xbe450265	-0.19239195
26	0x40013077	2.018583
27	0x3f0ef360	0.5584011
28	0xbe5205f1	-0.20510079
29	0xbf3b5e10	-0.73190403
30	0xbf6576c5	-0.8963435
31	0xbea7e0f8	-0.32788825
32	0xbf5784f1	-0.8418723
33	0xbebcbe9b	-0.3686417
34	0xbea572fa	-0.32314283
35	0xbedc149c	-0.42984474
36	0xbd16ecfe	-0.036847107
37	0xbe3d552d	-0.18489523
38	0xbf0b6cd2	-0.5446292
39	0xbf4ef585	-0.80843383
40	0xbeb64869	-0.3560212
41	0x3f48d277	0.78446144
42	0x3b7d4a46	0.0038649007
43	0xbe4194cc	-0.18904418
44	0xbe351928	-0.17685378
45	0xbe2cc38f	-0.16871475
46	0x3f898e40	1.0746536
47	0xbf6ad5d2	-0.91732514
48	0x3bc649f6	0.0060512973
49	0xbeac2b7b	-0.33626923
50	0xbf73c63a	-0.95224345
51	0xbe83dc2c	-0.25753915
52	0xbe8a316e	-0.26990837
53	0xbf3a2bb5	-0.7272294
54	0xbe93abc7	-0.28841993
55	0xbdf7943f	-0.120888226
56	0x3eae8861	0.34088424
57	0xbe014279	-0.12623014
58	0xbe9f21ae	-0.31080383
59	0x3f867bc9	1.0506526
60	0xbec64c56	-0.38730115
61	0x3fa03a2b	1.2517751
62	0xbf59aeb9	-0.8503223
63	0xbde79f28	-0.113096535
