checkpoints/std.pth (torch, 72793 bytes, 24 tensors)

weight f4 [8, 1, 3, 3]
00000000: 92f2 e2bd 1f2e 8ebd 0653 c63d ff96 8ebe
00000010: 110a a23e ec76 763d cbee 063e 4b98 d33c
00000020: 0142 c3be b9c0 283c c91f 1a3e a73d c0be
00000030: 29b9 b83c 760d a0be 5ade 76be 0903 283e
00000040: 8233 973d 9d74 9e3e 4f9b ebbd f747 5f3c
00000050: 7d51 a53c b9d7 043e 20ce 61be 81d5 4e3e
00000060: 423b 37be 4261 1cbf f347 99be e52b 92bd
00000070: ce3f e0bd 5002 58bc d6fa 883e 896e 533e
00000080: 40e3 783e 6e5e 103e 56f5 debc 3a51 0d3c
00000090: 3bfe 9cbe 1463 ac3d 8f6d 523e e556 6dbe
000000a0: 5c4a 653e 72db 87bd b1e1 83bd 17b6 8d3d
000000b0: c4c4 193e 98d8 b43c 8aa8 813e d8e7 8ebe
000000c0: d575 303d b4ec 113d 7932 c4be fc3b aebd
000000d0: 08e7 d0be 3aca 153e e130 9e3e b1e6 f7bd
000000e0: 4caf c83c a52c 183e 76b0 183e dcb7 46be
000000f0: 2d6a c8be 201f 023d 5411 32be 82de 8cbc
00000100: db8b 203e c122 7c3e 79d7 913e 8bcb 9bbe
00000110: 5f51 8bbe 402e 8c3e 5d9c 8a3c 4f94 73bd
-0.11081423 -0.06942391 0.09683804 -0.27849576 0.31648305 0.060172006 0.1317703 0.025829455
-0.38136294 0.010299855 0.15051188 -0.37547037 0.022549229 -0.3126027 -0.24108258 0.16407408
0.07382871 0.30948344 -0.11504232 0.013627998 0.020180458 0.12972917 -0.22051287 0.20198633
-0.17893699 -0.61085904 -0.29937705 -0.071372785 -0.1094967 -0.013184145 0.26753873 0.20647635
0.24305439 0.14098522 -0.027216595 0.008625323 -0.30662712 0.08417335 0.20549606 -0.23177679
0.22391647 -0.06633653 -0.064395316 0.069194965 0.15016466 0.022075936 0.25323898 -0.27911258
0.043081123 0.03562613 -0.38319758 -0.08507535 -0.40801263 0.14627925 0.30896667 -0.12104548
0.02449765 0.1486078 0.14911065 -0.19406074 -0.39143506 0.031767964 -0.17389423 -0.017195944
0.1567835 0.24622633 0.28484705 -0.30428728 -0.2721052 0.27379036 0.016920263 -0.05946761

weight f4 [8]
00000000: d6f7 7b3f 6352 6c3f 8408 8e3f ddc7 933f
00000010: 5061 643f 14f5 663f e7f3 843f 38e5 593f
0.9842504 0.9231321 1.1096349 1.1545368 0.8921099 0.9021771 1.0386933 0.85115385

bias f4 [8]
00000000: d36a 46be 2c8c 9b3d eccb 8a3b 0fb9 b43d
00000010: 03eb 0fbe 9d7b 83be 10e8 c1bd 5357 a33e
-0.19376688 0.07595095 0.004235735 0.088243596 -0.14054494 -0.25680247 -0.094680905 0.3190256

running_mean f4 [8]
00000000: 42bb 99bd dce0 86bd 7e15 c2be 9c8a 6b3e
00000010: fb7d 9b3c 4393 6cbe 241e 9ebd d883 f13d
-0.0750642 -0.06585857 -0.37907022 0.23002094 0.01898097 -0.23103051 -0.077205926 0.11792725

running_var f4 [8]
00000000: 738c 953a 241a 603b 670f 9e3c e646 f93b
00000010: bdb4 b43a 538f f23b 21eb 243b fd64 3b3b
0.0011409655 0.0034195269 0.019294454 0.0076073287 0.0013786774 0.0074023395 0.0025164562 0.002859413

weight f4 [8, 8, 3, 3]
00000000: 3a5e 65be c1aa 943d e683 573c 582f 21bc
00000010: 69e3 b3bc 79da 833d 81a9 f43d e9ec 8abd
00000020: 4e76 133e b90e 8c3d a62e 493d 76e3 4abe
00000030: 7d36 ccbe 4d13 9d3d 3251 263d 0d01 b33b
00000040: 10a5 a13d 6b7b 4ebd 1521 623d 1307 f13d
00000050: a7be 92bd e51b 313d 1b8a 15be 091b 5f3d
00000060: c834 1b3e c465 e3bc 51d7 6a3c 1e6c 4d3e
00000070: dae5 253e 4862 603c c60d 24bd ca27 e0bd
00000080: 7e09 2c3e 1a98 ecbc 231d 21be dd7b 4ebe
00000090: 7be1 6fbc ca68 c3bd 41a0 4cbe 4a98 a2bd
000000a0: 6928 1dbc 6da3 293d 2a66 5b3d 4fb2 b73c
000000b0: e65c 323d bfc7 19bd 5609 0ebe 44a3 dbbc
000000c0: 64d8 fe3b 713c 073d f821 cc3b f739 823d
000000d0: 2685 bbbc 8459 333d 9f5a 973d 2adc 13bd
000000e0: f67e 7ebe e442 ee3c 505e 433c cdd5 b73d
000000f0: ae8b 11be 730f 3a3d 7bf7 373d c274 dbbd
00000100: 6506 823d c2a1 26bd 3575 cebc 549d d4bd
00000110: 0a76 cb3c 90b5 6fbd eed4 463e 5abe 68b8
00000120: 7436 e4bd 118c 0f3e db41 e13c 1ce3 1dbe
00000130: e3a8 52bd bbbc e73a b224 963d dd6a c33c
00000140: bb10 3d3d 71c3 df3d acac 823d 7cd6 c3bd
00000150: 3d17 bd3d 972f 4fbd d65a a7bb 21c5 023e
00000160: 6635 873e b1ab 46bd 483b 89bd 2461 cebd
00000170: b664 1e3c 992c 303d 346a 5c3c 2660 09be
00000180: 7513 1f3c 6f76 4f3d cdbe 27bc 7ca1 89bd
00000190: e7c6 55bd 3a17 85bc 7a49 67be c7fb 21bc
000001a0: 2168 93bb 8c6a 793e b463 603e 2729 323c
000001b0: 07e5 e83d eef2 abbc 365d 153d c855 c4bd
000001c0: e892 053e 68ea af3d 0abf 72bd 511b 423d
000001d0: c058 16be 226f c93c d5ca 7d3c 70b8 3fbe
000001e0: b0d0 173d db0b f03b d40c e83d a829 a5be
000001f0: c172 09be 457d 30be b795 cdbd bdaa 573e
00000200: b4ab 15bd 9559 1dbd b631 053c f04c b2bb
00000210: 27cf 66be 2c14 97bd e45c 0a3e bd03 cdbc
00000220: 7bd5 c4bd 7e8d c0bd c65b 43bd dc00 a03c
00000230: 2ae5 d2bd 6871 84bc ad67 1c3e b814 973d
00000240: 2157 f73b 4a62 2b3d 0d55 763c 7cc9 32bd
00000250: 9bea 56be cbf4 0bbe f58e 56be fb62 87bd
00000260: 4c22 b4bb c4f3 633d bcf5 b4bd 3f2d 2a3e
00000270: 5f0a 64bd f465 943d ecb0 6d3d 4620 583c
00000280: 18bb 7d3e 1447 483e 5ca7 a0bd d125 1dbd
00000290: 3474 8fbd 608e 67bc 116f 2b3c 7cc5 25bd
000002a0: fc58 ecbd 6614 3bbe fef3 3fbe 2bbc 563d
000002b0: ca24 b2bc af06 993d a856 a9bd c07f 0cbe
000002c0: b039 77be 5008 efbc 43ee 903c a701 08be
000002d0: 3805 fdbd e64f f3bd d814 3fbe 87ce fbbc
000002e0: 6224 173e 8638 cb3d dbbe 353d 37c6 58bd
000002f0: 3502 18bd 29eb 6ebd b718 d63d 87ca 24bd
00000300: 39be c73c d0d6 87bd ec02 febd cf5c 48bd
00000310: aa67 e6bd c643 b3bb 9484 83be 58d1 353d
00000320: 5cbd 14bd 2437 643d 1b21 763c f125 15bb
00000330: 7c7a cd3d 361c 72bd 36c8 b2bd d6ff 8fbe
00000340: 8337 b1bc 27ec a1bd 143e cabc 2f35 26bd
00000350: 5c11 ffbd 294d a03d 51ab e1bd 3f07 1fbe
00000360: 2580 eabb e4cb 8fbd 113c 8b3c 473a 553d
00000370: 30ef 803d b67a 82bd 920b a13d c5d2 a9bd
00000380: 9c50 19be f31c 933d b92a dd3d 2543 cdbd
00000390: 2fa0 d63c 1e1a 503d bf47 21be deac efbd
000003a0: 26eb 13bd d45c 54bd b37e 31be d6b2 223d
000003b0: e4b2 24be f06d 163e ae81 ddbc 64af 41bd
000003c0: 88f7 123e 38ed 493e f40f 263e 478f 19be
000003d0: fccf f33d a1cc 6f3e 4109 293c 58d4 05bc
000003e0: d652 20bd 63ce 023e 7931 ffbd 6db8 12be
000003f0: f3be d2bd 3049 003d 9c90 6c39 9164 87bd
-0.22399226 0.07259131 0.013154006 -0.009837948 -0.021959024 0.06438155 0.11946393 -0.06783468
0.14400598 0.068387456 0.049116753 -0.19813332 -0.3988532 0.07669697 0.040604778 0.0054627717
0.07892811 -0.05041067 0.05520733 0.117689274 -0.0716527 0.043239493 -0.14603464 0.054469142
0.15156853 -0.027758487 0.014333562 0.20060775 0.16200963 0.013695307 -0.040052198 -0.10945089
0.16800496 -0.028881121 -0.15733771 -0.20164438 -0.014641161 -0.09541471 -0.19983007 -0.07939203
-0.009592154 0.04141562 0.053564228 0.022423891 0.043545626 -0.03754401 -0.13870749 -0.02681125
0.0077772606 0.033016626 0.0062296353 0.06358712 -0.022890639 0.04378654 0.073903315 -0.036098637
-0.24853119 0.02908463 0.011924341 0.08976326 -0.1421344 0.04542489 0.04491375 -0.10715629
0.06348876 -0.040681608 -0.025202373 -0.103815705 0.024836559 -0.05852276 0.19417164 -5.549039e-05
-0.111431986 0.14018275 0.027497223 -0.15418667 -0.051430594 0.0017680147 0.07331218 0.023854667
0.046158534 0.10925949 0.06380591 -0.09562394 0.09232948 -0.050582495 -0.005107264 0.12770511
0.26407927 -0.04850358 -0.0670076 -0.10077122 0.009667566 0.04301128 0.013453055 -0.13415584
0.009709229 0.050650056 -0.010238362 -0.06720254 -0.05219164 -0.016246427 -0.22586623 -0.009886689
-0.004498497 0.2435705 0.21913034 0.010874069 0.113718085 -0.020989861 0.036465846 -0.09586674
0.13044322 0.08589631 -0.05926422 0.047389332 -0.14682293 0.024589125 0.015490253 -0.18722701
0.037064254 0.007325632 0.11330572 -0.32258344 -0.13422681 -0.17235287 -0.100383215 0.21061225
-0.036540702 -0.03841551 0.008129528 -0.0054413006 -0.2253996 -0.07376894 0.13511997 -0.025026197
-0.09611031 -0.094019875 -0.047694944 0.01953166 -0.10297616 -0.016167358 0.15273924 0.07376999
0.0075482284 0.041841783 0.015034926 -0.04364918 -0.20987932 -0.136676 -0.20952971 -0.06610676
-0.0054972526 0.055652395 -0.088359326 0.16618823 -0.055673953 0.072460085 0.058030054 0.013191288
0.24778402 0.19558364 -0.07844421 -0.038366143 -0.07004586 -0.014133066 0.010463492 -0.04047154
-0.1154041 -0.182695 -0.1874542 0.052425545 -0.021746058 0.07471978 -0.082684815 -0.13720608
-0.241431 -0.029178768 0.017691737 -0.1328188 -0.12354511 -0.11880474 -0.18660295 -0.030738128
0.14759973 0.0992289 0.044371467 -0.052923407 -0.03711148 -0.058329735 0.10453933 -0.040232208
0.024382697 -0.06632769 -0.12402901 -0.048916634 -0.11250241 -0.0054707257 -0.25687087 0.0443891
-0.0363134 0.05571665 0.015022541 -0.002275821 0.10033128 -0.059108935 -0.087295935 -0.28124875
-0.021632915 -0.079063706 -0.024687804 -0.040578064 -0.12454483 0.07827217 -0.11019004 -0.15530108
-0.0071563893 -0.07021311 0.016996415 0.05205753 0.062956214 -0.063710615 0.07863535 -0.08292154
-0.14972156 0.07183256 0.10799164 -0.100225724 0.026199428 0.050806157 -0.15750025 -0.11702894
-0.036112927 -0.05184634 -0.17333488 0.039721332 -0.16083866 0.14690375 -0.027039375 -0.047286406
0.14352238 0.19719398 0.16217023 -0.14996062 0.11904904 0.23417903 0.010317148 -0.0081683025
-0.0391415 0.12774043 -0.12460608 -0.14328165 -0.10290327 0.031319797 0.00022560585 -0.066109784

weight f4 [8]
00000000: 8dfc 853f ac1b 613f b0b4 7f3f 4000 943f
00000010: 2667 613f 66ab 883f 2193 6f3f d4c7 773f
1.0467697 0.8793285 0.9988508 1.1562576 0.8804802 1.0677307 0.93583876 0.9678929

bias f4 [8]
00000000: ab13 00be 318e b33d 6e32 01be ae70 b1bd
00000010: 2545 40bd 7bbe 75be cdf6 a73c 068f 99be
-0.12507503 0.08767355 -0.12616894 -0.0866407 -0.04694094 -0.23998444 0.020503426 -0.2999193

running_mean f4 [8]
00000000: f657 e5bd 7be6 46be 9773 9fbf e0fc 293e
00000010: 77e8 c43d 7867 a0be 73cb 83be 22a5 623d
-0.11198418 -0.19423859 -1.245715 0.1660037 0.09614652 -0.3132894 -0.25741157 0.055333264

running_var f4 [8]
00000000: bb2e af3e bb47 af3e 5ad1 a93e 7154 d13e
00000010: 81f2 023e f43b 8c3e d6ba c63e abb6 663e
0.3421534 0.34234414 0.33167535 0.40884736 0.1278782 0.2738949 0.3881442 0.2253062

weight f4 [8, 8, 3, 3]
00000000: 46a4 1e3e 401f 3abd c185 b9bc 14fd fb3d
00000010: 6fbc f13d 8af8 d8bd a430 a2bd 98a0 113e
00000020: c53e b2bd 796d 36bd f033 f1bd f04f 48bd
00000030: f733 5fba 4f81 17bd 2e5c abbd e1f3 71be
00000040: 3870 143d 69c3 333d c3ca 23be a6c5 84bd
00000050: 8673 143e 33c7 24be 06c1 6f3d 36ad 0b3e
00000060: d2c5 fcbc ae7f 983c 3a2b 23be 5e9d 983d
00000070: 49ee 113b 0bfc 3abe 2c02 24be bfa2 52bd
00000080: 87a1 1abe 3ea0 dd3d a1e6 3dbd 6566 c93d
00000090: e26e d23d 9949 68bc 9f62 a23c 7dc7 61be
000000a0: 7fd7 3e3e 6a42 2c3d 232f f73b a17b 663c
000000b0: a545 04bd 41ca b73d 02bc dc3d 885c dd3d
000000c0: 524e 4e3e 4fec 1b3d db7e 1cbe acc4 6639
000000d0: cef2 64bd 1724 3f3e bdaf e33c d13d 9dbd
000000e0: d0d9 0e3d 760d a83d bd7a be3c 957b a13c
000000f0: 3417 2c3a a99f 073e 3006 dbbd d73c 24bd
00000100: 7cfe 2f3c 7f95 943c 1465 333e 53ba 90bd
00000110: cb0f 173d 5e39 ed3d d99e 093e abc6 e6bc
00000120: fbd1 41bd 735c 25be e99d efbc d6b3 033d
00000130: 1322 d9bd fe94 443d 8e4b 64bd 45b6 a93c
00000140: a0be cfbd 8f49 193e 6554 743d 697f 87bc
00000150: 8ddc 0cbc 74bc 4bbd e4ab cc3d 489a b43d
00000160: fd55 eabc c58a 51bd 0c97 943b 480b 123e
00000170: c9ea 56be 4e3e 273c 1663 cbbd ca5d 763e
00000180: 6b28 8b3c ed4f 1dbb 3d4a b83d 7ec2 423d
00000190: b7f5 10be 7ef2 78bc 65a6 9cbd 6414 893d
000001a0: 3426 99be 2fb2 2fbd 5ac1 8cbd 11b5 e53d
000001b0: b595 22bd dc52 933d e25c ef3c dc48 d03c
000001c0: 2466 cbbd 1671 07bc 9dc7 42bd b063 b1be
000001d0: e832 e63d 84e4 bc3c 8902 18be f37f 5fba
000001e0: 09f0 a93d fc81 463d 7772 043e 68dd fc3b
000001f0: c00f e83d 84f9 073e 62f4 f43a 9088 2abc
00000200: a237 013e 795c 4fbe 1561 0d3d 1d6f 813d
00000210: 128a 0fbe b813 0e3d 144d ad3c d3ca 9a3d
00000220: 8b97 b0bd 8d64 173e 9bb5 c03d 179e 13be
00000230: 2b79 d83d 7c2a e03d dcae 6bbe b82d da3c
00000240: d340 ee3d 5d60 e7bd 8b91 e1bd 550d 553e
00000250: 4f38 27be edee 2c3e 51a6 0b3d 9d9f 073d
00000260: e122 2c3e a51e 5d3d c6f8 abbd 3ffd 21bd
00000270: c1d9 a9bd 6913 c9ba 554c a2bd 5a26 fa3d
00000280: 8e54 dabd 1607 9abd a0bd 0f3d 3792 963c
00000290: d269 753c df19 0fbe 704a e43d 28ba 693e
000002a0: ccbb 93bd cb0b 213e 49eb 023d 92b6 99be
000002b0: ecf5 17be cd8a bcbd 260f 0b3e d5f3 29bd
000002c0: e139 1dbd de6c 61be f890 0b3d c937 113d
000002d0: 7ad0 3cbd 29d7 893d 2f51 acbb 9dfd 21be
000002e0: f01f 393d db72 1a3e 1e1a 9fbd aa09 0abd
000002f0: b86c aa3d c1e3 77be 85be 923c 6222 adbd
00000300: 3a64 0bbe ed00 3d3e 579c 1e3e 75a5 66bd
00000310: e03a 84bd caeb 093e 9377 063c 5097 cd3c
00000320: e67d 173e 23e2 8ebc f4b9 a23d c992 98bd
00000330: de32 65be 15af b93c 09fb 34bc 7e38 8a3d
00000340: a2ec 223d f633 9fbd 0186 123d 8d8d a93d
00000350: 0899 133e 414c 5cbe 75c9 883d 1b3c 2c3e
00000360: bd25 763d 0867 9a3b f7f7 3ebe f51d a73d
00000370: b6e0 81bc 3f27 18bd ea28 3fbd c6b7 2cbe
00000380: 1917 89be a99b 4d3d df3a c1bd 4500 79bd
00000390: d99c ec3d 17b8 d6bd 4bdd 2ebd 6443 4cbe
000003a0: b5b7 e33d 4e57 873c b402 5cb9 3e83 45be
000003b0: 5229 943d 1ee3 1b3e e024 80bd 8fa8 cbbb
000003c0: db1d 4e3a 6b8b 363e 45d5 89bc b9bf 09be
000003d0: 20c9 043e 49c0 813d 430a cd3d 6766 11be
000003e0: 4b7f b83d c58e ec3c aab4 a03d e6e2 4c3e
000003f0: ee81 4abd cfb7 6abc d1a1 7ebd 65b1 4dbd
0.15492353 -0.04543996 -0.022646787 0.1230413 0.11803519 -0.1059428 -0.07919434 0.14221418
-0.087033786 -0.044537995 -0.117774844 -0.04890436 -0.0008514518 -0.036988553 -0.08367191 -0.23628189
0.036239833 0.04388753 -0.15995316 -0.06483011 0.14497194 -0.16091613 0.05853369 0.13640293
-0.030856047 0.01861557 -0.15934458 0.074518904 0.0022267273 -0.1826021 -0.16016454 -0.051424738
-0.1510068 0.108215794 -0.046362523 0.09833983 0.102750555 -0.014177703 0.019822417 -0.22048755
0.18636893 0.042055525 0.007543461 0.014067561 -0.03229298 0.08974124 0.10778047 0.108086646
0.20147064 0.03806716 -0.15282767 0.00022007775 -0.05589562 0.18666111 0.02779376 -0.07677806
0.03487569 0.082056925 0.023251886 0.019712249 0.0006564737 0.132445 -0.106945395 -0.040097084
0.010741826 0.018137692 0.17519027 -0.070667885 0.036880296 0.115832075 0.13439502 -0.028170904
-0.047319394 -0.16148548 -0.029250102 0.032153927 -0.10602202 0.047993653 -0.055736117 0.020716796
-0.10143781 0.14969467 0.059650797 -0.016540246 -0.008597505 -0.04974027 0.09993723 0.08818489
-0.028605456 -0.05115773 0.0045346078 0.14262116 -0.20988001 0.010207726 -0.099310085 0.24059215
0.016987046 -0.0024003938 0.08998535 0.047548763 -0.14156233 -0.015194533 -0.07648925 0.06693342
-0.2991196 -0.04289454 -0.068728164 0.11216176 -0.039693553 0.071935385 0.029219095 0.025425367
-0.09931591 -0.008266708 -0.047553647 -0.34646368 0.11240178 0.023058183 -0.14844717 -0.0008525841
0.08297736 0.048463807 0.1293429 0.0077168234 0.11331129 0.13278776 0.0018688554 -0.010408536
0.12618878 -0.2025012 0.034516413 0.06320021 -0.14017513 0.034686774 0.021154918 0.07558217
-0.086226545 0.14784451 0.094096385 -0.14415775 0.10569986 0.10945603 -0.23015922 0.026633129
0.11633458 -0.11297677 -0.11014088 0.20805867 -0.16330074 0.16888018 0.03409416 0.033111203
0.1681018 0.053984303 -0.08397059 -0.039548155 -0.082934864 -0.0015340868 -0.079247154 0.12214346
-0.10660659 -0.07520883 0.03509295 0.018380268 0.014978843 -0.13974713 0.1114701 0.22824919
-0.07213554 0.15727155 0.031962667 -0.30022103 -0.14839906 -0.09206162 0.13579997 -0.041492302
-0.038385276 -0.22014186 0.0340738 0.03545359 -0.046097256 0.06730492 -0.0052587013 -0.15819402
0.045196474 0.15082876 -0.07768653 -0.033700623 0.08321518 -0.24207975 0.017913112 -0.084538236
-0.13612452 0.18457384 0.15489326 -0.056310136 -0.06456542 0.13468853 0.00820722 0.025096565
0.1479412 -0.017441815 0.07945624 -0.07449872 -0.22382686 0.022666493 -0.01104618 0.06749056
0.039776452 -0.07773583 0.035772327 0.08278952 0.14413846 -0.21513464 0.0667905 0.16819803
0.060094584 0.0047119893 -0.18649279 0.08160011 -0.01585422 -0.037146803 -0.046669878 -0.16866979
-0.26775435 0.050197277 -0.09435057 -0.060791273 0.11553354 -0.10484331 -0.04269151 -0.19947582
0.11119024 0.016521122 -0.00020981842 -0.19288346 0.07234444 0.15223357 -0.06257033 -0.006215162
0.0007862725 0.17826621 -0.016825328 -0.13452043 0.12967348 0.063355036 0.10011723 -0.1419922
0.09008654 0.028876672 0.07846959 0.2000843 -0.049440317 -0.01432605 -0.06216604 -0.050218005

weight f4 [8]
00000000: 82e8 863f 4ae7 843f 90d1 6a3f aa11 663f
00000010: 6168 763f 253b 763f 7b72 813f b88d 6c3f
1.0539706 1.0383084 0.91726017 0.89870703 0.9625302 0.96184 1.0113062 0.92403746

bias f4 [8]
00000000: 87d1 b5be bc18 f2be 4680 44be 8f7e 85be
00000010: 8c93 113d 8da2 483d 4357 12be ebba 9cbe
-0.3551142 -0.47284496 -0.19189557 -0.2607312 0.035541102 0.048983146 -0.142911 -0.30611357

running_mean f4 [8]
00000000: ee02 e0bc 44a4 21bc 09be b6bd 5409 f63d
00000010: c559 bdbe 0abb 8f3e 72b5 db3e 2017 0cbf
-0.027345147 -0.009865824 -0.08922965 0.12013498 -0.3698255 0.28072387 0.4291187 -0.54722786

running_var f4 [8]
00000000: 92d8 fa3d b2f1 fc3d 6d1a 193e 8a4f 4d3e
00000010: 7419 803e 0e38 a73d 3dc1 533e 86d3 383e
0.12248339 0.12350787 0.14951487 0.20049873 0.2501942 0.081649885 0.20679183 0.1804944

weight f4 [16, 8, 3, 3]
00000000: 7485 3d3d ace9 a1bc 1746 8d3d 4042 a8be
00000010: 6007 62be 4566 dbbd 3ed1 5cbd 5ebb bebc
00000020: 0a58 2dbd 90ae 4c3b ec51 513b 2a48 153d
00000030: e406 18bd 37ea 1ebc b54f 523e bbd9 993c
00000040: e45f dbbb e6c9 b3bc 4027 3c3e b72b 043d
00000050: e318 4b3b c0d7 113d cbac 5b3e 1e01 0bbe
00000060: ecd6 c7bd 3324 16bd 873d d9bd 2b89 6dbe
00000070: d367 6dbe cabe dd3d a740 dc3d 6b14 493e
00000080: 9820 3fbe 2bfd ac3d 1a5c 133d d6c7 fb3c
00000090: ee02 5bbc ce8b fd3b ddc1 a43c 3d4c 80be
000000a0: 429f 8b3d a6af 723e 125b 453c e2a7 1e3b
000000b0: 892d e7bc a2d9 9b3d 9fe2 2c3c 4bd5 0a3d
000000c0: 98b7 b0bd e86a 91bd ed61 26be e7fa 8739
000000d0: f116 6e3e 543b c9bd 2147 37bc bfeb 82bb
000000e0: 9757 86bd f52b 303e c1cb 8b3d 8e3f 37bb
000000f0: a2b9 a93d a4b9 f33d dc39 c93c 24ac c5bd
00000100: 51e0 963d 2407 cfbb f426 043b 324d 4d3d
00000110: e79c a5bc 1291 31bc 8ea2 763d 6436 b93b
00000120: 3f6c 4ebd d1dc 40be f04a 2bbe 8953 83be
00000130: ad05 e13d f10a 3a3e 218c a3bd 6b54 d33d
00000140: b6a9 293e b7ff a8bd 34f2 01bd db90 823c
00000150: d745 c33d c014 d8bd 9bc0 813b f757 eebd
00000160: a072 70bd 3287 74be 1662 f4bd 4f53 f0bc
00000170: 94ec 9b3d ec1b 6a3b c7c7 20be 1c07 4dbe
00000180: 6173 4d3e e4bc 543d 2eed 3abe 6b43 11be
00000190: 2a56 5cbd 5adf 853e c47b 8dbd 29bd 0ebe
000001a0: 7409 d03b 6b3f ccbc 6ae3 123c 39dc cf3b
000001b0: d8ef 65bd a9b2 7fbd 0871 943d aab7 07be
000001c0: 9b5d 08be d457 523e 8587 dd3d 8fa5 b5bd
000001d0: d063 09be 7cf1 7abc d22d 95bd 0c1d 8dbc
000001e0: 70c9 57be d801 d2bd ece8 87bd 7ae0 083d
000001f0: 4299 a8bc cc2b 6e3d f6fb f03d 727e a73c
00000200: cb84 9ebb 97cf 5e3e 88d0 8cbd d958 5cbd
00000210: 8375 ad3d cd2d 7dbd 4054 18be 82b3 aabc
00000220: f762 2abe b467 30be fcb9 9e3d fd1c de3d
00000230: c44b 723d c811 03bd d1eb 09be bed3 9fbc
00000240: dab6 f2bd 2e20 62be dfb6 24bc bb01 babe
00000250: f93c 35be 9484 95bd 96c8 7e3b 89cb babd
00000260: 063c c8bd 4678 a9bc 92c8 543c dabc 98bd
00000270: d8c6 45bd 8091 ef3d 1bb4 dabc 469a c9bd
00000280: d60a 753d c0fd 3b3e bd10 d8bd bcb7 adbd
00000290: 0e70 983d c478 b3bd ec2b 103e 1244 92bd
000002a0: e9bd 04bd e7b1 a23d d8d9 eb3d e8ef 1cbe
000002b0: 2d19 78bd 982e a4be 2846 04bd db9b 473e
000002c0: f038 a3bd 73dc 333e a0c1 f3bd 3b56 e5bb
000002d0: bf5f 67be 947c e53b c623 ae3d 8efe 093c
000002e0: 8551 05bd f24b b3bd a348 b3bd 57dd a83c
000002f0: 81c8 23be 798b bdbd 3f3a 753e 9113 c63d
00000300: 717a 063e d68e 21be f5b9 e1bd caca 1a3d
00000310: 7f55 24be c1c7 c9bd 41f5 10bd a599 833d
00000320: 9c20 a5bd 8960 12bd 5be6 9abd bde0 b33c
00000330: 58c8 2ebd dbf4 dc3b 4985 96bd ecdf 05be
00000340: ed09 6ebe ac39 ce3d be67 0a3e 59c1 9d3a
00000350: 55ea 00bd 2135 eabc 856d aabd 221c ee3d
00000360: 8f7d 34bd f8fa 4cbb ff30 0f3e b6cf af3d
00000370: 3e9e 233e 10e0 8c3e dde5 aa3d 9089 57bc
00000380: 353c cb3b 9f06 dbbd 3b2c cebd a7e8 fabd
00000390: 4a6c 573e cf6a 913d 4c19 bebd 54df 243b
000003a0: bfde 41be 1c0a cab9 a725 7b3d 1e19 cf3d
000003b0: aeb8 e93d 80a8 983c bb77 dd3d 7ca6 c2ba
000003c0: 5b6c b53d 9a5e c4bd 57e6 87bd 5f8a 213e
000003d0: 2788 d2bd b3d9 03be 217e 403e 8215 a3bc
000003e0: 50fe b03c b639 65bd e867 fcbc 7d2c 3dbe
000003f0: 5a94 41bc 882b fabd 01a3 90bc 7aa3 d0bb
0.04626985 -0.019764744 0.06898134 -0.32863045 -0.22073126 -0.10712866 -0.053910486 -0.023282703
-0.04232029 0.0031231977 0.0031939698 0.036445774 -0.037115946 -0.009699396 0.20538218 0.01878058
-0.0066947807 -0.021946859 0.18374348 0.032268252 0.0030990175 0.035606146 0.21452634 -0.13574645
-0.0975779 -0.036655616 -0.106074385 -0.23196857 -0.23184137 0.10827406 0.10754519 0.19636695
-0.18664777 0.084467255 0.035976507 0.030734938 -0.013367398 0.0077376133 0.020111972 -0.25058165
0.068174854 0.23699817 0.012045639 0.0024208953 -0.028219955 0.076098695 0.010552078 0.03389482
-0.08628768 -0.07100469 -0.16248293 0.00025936143 0.23250939 -0.09825769 -0.011186392 -0.0039953883
-0.06559675 0.17204268 0.06825972 -0.0027961466 0.0828736 0.119006425 0.024563722 -0.09651974
0.07367004 -0.00631799 0.002016482 0.050122447 -0.020216418 -0.01083781 0.060213618 0.005652236
-0.0503962 -0.18834235 -0.16727805 -0.2564967 0.10987411 0.18168236 -0.07985712 0.10318836
0.16568646 -0.08251899 -0.031725124 0.015938213 0.09534805 -0.10550833 0.003959728 -0.11637872
-0.058703065 -0.23879698 -0.11932771 -0.0293366 0.07613483 0.003572221 -0.15701209 -0.20022243
0.20063545 0.051937953 -0.1825454 -0.14185874 -0.05379311 0.26146966 -0.06908372 -0.13939346
0.006348783 -0.024932584 0.008965353 0.0063433913 -0.056136936 -0.062426243 0.072481215 -0.13253656
-0.13316958 0.20541316 0.10816864 -0.088694684 -0.13416982 -0.015316363 -0.0728413 -0.017225765
-0.21072936 -0.10254258 -0.06636223 0.033417203 -0.020580892 0.058147237 0.11766808 0.020446036
-0.0048376075 0.21758877 -0.06875712 -0.05379567 0.08469679 -0.061811257 -0.14875889 -0.02083755
-0.16639315 -0.1722706 0.077503175 0.10845373 0.059154287 -0.03199938 -0.13468863 -0.019510146
-0.118512824 -0.22082588 -0.0100533655 -0.36329445 -0.1769904 -0.07300678 0.0038876883 -0.091208525
-0.097770736 -0.020687234 0.012987273 -0.074578956 -0.048285335 0.11697674 -0.02669721 -0.098438784
0.059824787 0.18358517 -0.105500676 -0.0848231 0.07443248 -0.087632686 0.14079255 -0.0714189
-0.032407675 0.079440884 0.1151616 -0.15325892 -0.060570884 -0.32066798 -0.03229347 0.19493048
-0.07969844 0.17564563 -0.119021654 -0.006998805 -0.22595118 0.0070033763 0.08502917 0.008422507
-0.032548446 -0.0875472 -0.08754089 0.020613356 -0.15994455 -0.09255118 0.23948 0.09671701
0.13132645 -0.15777144 -0.110217966 0.03779105 -0.16048239 -0.09852553 -0.035390142 0.0642579
-0.0806286 -0.035736594 -0.07563468 0.02195775 -0.04267153 0.0067430562 -0.07349641 -0.130737
-0.23245974 0.10069594 0.13516137 0.0012035772 -0.031473476 -0.028589787 -0.083216704 0.1162646
-0.044065055 -0.0031277519 0.13983534 0.085845396 0.15978333 0.27514696 0.08344624 -0.013155356
0.0062022456 -0.10694622 -0.1006703 -0.12251406 0.21037403 0.0710045 -0.09282169 0.0025157528
-0.18932627 -0.00038535974 0.061315205 0.101122126 0.11412178 0.018635035 0.108138524 -0.0014850642
0.08858558 -0.09588356 -0.06635731 0.1577544 -0.10279875 -0.12876014 0.18798114 -0.019907717
0.02160564 -0.05596324 -0.030811265 -0.18474002 -0.011815155 -0.12215334 -0.017655851 -0.006367144

weight f4 [16]
00000000: ffb6 ee3f 7d5c fd3f e971 ed3f 9706 3940
00000010: 1280 0740 c4c0 eb3f f939 0440 13dd 0940
00000020: f233 1040 677a 0240 ac3a ee3f ed69 2240
00000030: b177 f73f 5d19 df3f cbf5 0440 2c9e 3640
1.8649596 1.979385 1.8550388 2.8910272 2.1171918 1.8418202 2.0660384 2.1541183
2.2531705 2.0387208 1.8611655 2.5377152 1.9333402 1.7429615 2.077502 2.853404

bias f4 [16]
00000000: 1bad cd3e 7615 bc3e 39e9 cc3e cd7c 81be
00000010: 5971 bf3e d2f9 953e b8eb ad3e f2de 76be
00000020: 1939 873e fc21 9a3e 680f 8a3e 7c06 873e
00000030: 9f6e a23e 784d b73e 08b8 aa3e d14c 3dbe
0.40171131 0.36735123 0.40021685 -0.25290528 0.37391165 0.2929216 0.33968902 -0.24108484
0.2641075 0.30104053 0.2696488 0.26372135 0.31725022 0.3580129 0.3334353 -0.18486334

running_mean f4 [16]
00000000: dfc8 493e 0bfc 16bf d809 07bf 75a3 05bf
00000010: 1150 9dbd 3100 a8be 6e64 4a3f 75e7 3dbf
00000020: 38ec 0abf 9eee cf3e 369a 0e3e d945 6dbe
00000030: 336a 0dbf 4a46 32bf 55dd 9ebe c080 14bf
0.19705532 -0.5897834 -0.52749395 -0.5220254 -0.07681287 -0.32812646 0.79059494 -0.741813
-0.5426669 0.40611738 0.13926014 -0.23171176 -0.5524017 -0.696385 -0.31028238 -0.58008957

running_var f4 [16]
00000000: dc0e 273e 6642 123e 8baa 223e b9a4 b43d
00000010: 45d0 033e c8a2 543e e57c 153e 683e a43d
00000020: 5274 fd3d 2594 3e3e a18b d53d fb54 fc3d
00000030: cff2 313e fb1f 1b3e 0cfe 1b3e 8924 933d
0.16314262 0.14283141 0.1588537 0.08820481 0.12872417 0.20765221 0.14598425 0.080197155
0.12375702 0.186112 0.10427023 0.12320896 0.1737778 0.15148918 0.1523363 0.07184703

weight f4 [64, 192]
00000000: e9c0 b4bd 1e67 eebd 6e5e 953e 3736 193e
00000010: f9dd 7bbe 1a72 ec3e db26 c93e 1318 9a3d
00000020: 61d0 c23e c9d3 a63e 8c8e 863e 1bc1 8c3e
00000030: 8236 f53d bf82 853e 7a97 013f 42cb 183f
00000040: ab38 0f3e f8b6 923e cabe 0d3b 71e1 88be
00000050: 5f8e 363f 072c 2bbb ad0c 29bf 5a11 bf3e
00000060: 8dde 9a3e eab2 993e 01f2 f33d 79b3 d43e
00000070: 05ee b03d f04b cf3e 727a 2e3e 9f40 0b3d
00000080: 963f fe3e d6da e7bd 41f7 97be 7070 9cbe
00000090: 15ac 3b3d ea3d c5bd 6c10 76be ffc2 adbe
000000a0: c5a2 623e b5d0 98ba fc06 b53d f565 20bf
000000b0: cab4 dabf c7dd 903e af71 f0bc 48c2 4cbc
000000c0: c359 4a3e aadb c33d 9183 a5bb cfdb e43d
000000d0: 8514 8fbe 8f66 d53d d59b 6a3e 92ff 383e
000000e0: 659b 153e 5352 393d fd07 693e 4ac0 cd3d
000000f0: 2383 1c3e 7e14 c83e e1b1 70be 909f 423e
00000100: 5e58 923e 016b e3bd 8a9d 5b3e 90e7 2e3d
00000110: 280c 273f 9b4c fe3e 5c90 a03e 10d5 8e3e
00000120: 5ce5 3d3e 4925 973e 57f3 603e d605 d33e
00000130: 5cdf 173e 7151 c63e c07a 8a3e 7ada 663d
00000140: bde6 083f de48 cdbe 6fe4 8c3e 10c2 9e3e
00000150: 55b3 653d c091 00bf 1140 e8be 03ae ccbd
00000160: ce13 833e 891b 02be 119e 393b fc63 7cbe
00000170: f22d 5dbf d2d7 20bf 1757 acbe 0a9d 6b3d
00000180: d311 8c3d 2a3f 03be 8ecf de3d 1f6f 18bf
00000190: 95ca 94be a926 30be 719b e6bd 5e8c c1bd
000001a0: a15d bc3d 44d1 3fbe 0920 813c 4298 a13e
000001b0: 75c1 4e3f 537a 8cbe 02b2 b33e 630e bb3e
000001c0: 2773 9c3e 7a3b 49be befc 5c3e 3c0e e23e
000001d0: 609b 0bbc f168 3f3f f328 a93e b6a4 2c3e
000001e0: 429f 463d 082b 0f3f c4c7 573e 7640 9e3e
000001f0: fa61 6c3e 7c09 f43e 5208 9e3e 9205 533e
00000200: c1fa 303e 3e47 263e 6398 813e 45b1 3fbd
00000210: 6057 e8bd 7171 c93e 1941 a8be 29d0 6dbf
00000220: bf0c a53e cfbe 583e d434 a73d 06fd af3d
00000230: 5dd5 2f3e 6afb 23bd 1957 8cbe d0a9 d13e
00000240: 308c 4abd 7e99 9b3e a232 143f 051c 983e
00000250: d9b2 a03e 624a f53e a956 613d 8dab cb3d
00000260: 0b8c 043f 674c 473e 3d93 d03e 7ede dd3e
00000270: 95c1 a33e 920c a83e 1f66 de3e bd3d 603e
00000280: 49bb c73e a184 303e 99d8 033f 3e6d b43e
00000290: a7a7 093f c85f 263f 873c 053f 1a03 7d3e
000002a0: 5537 753e bc5d e9bd a13e 983e 53ce d53d
000002b0: 9c64 013f c74d a7bd ef63 7dbd 739c 223e
000002c0: 96c9 e3bd 1068 343f f716 80be ad02 c93e
000002d0: 7d69 ff3d c758 393e 9f27 63be 5c25 ef3e
000002e0: 5c43 88be b0f3 0d3e 2d9a 07be c5af ecbe
000002f0: 2dde c4bf 246d 4f3e cbce bf3d f0b8 c33d
00000300: dbc4 f13c e106 60be bff8 d53e e343 a43d
00000310: a54e 6ebe 117e 033f fa83 f13e ff50 523e
00000320: 8693 d23e f463 7b3e a78c 8c3e 30d9 703e
00000330: 7905 9b3e e0f8 9a3e 85ac 023f 3120 1e3f
00000340: 8b5c 463e e069 b73d 16f0 3c3e 1ca8 a4bd
00000350: d1f7 123f a333 853d 737f 0fbf ca1d ce3e
00000360: e516 e63d 0beb b43e e7a9 d53d c282 f83e
00000370: 16b8 013e 098e 5f3e dcb1 533e 8530 cfbd
00000380: 0a5c 873e 57fe 44bb 4a33 91be 7f6f bfbe
00000390: 3783 713e ee7a f83d b34d abbe 8300 f9be
000003a0: 3d4d 553e e39c 13be 019a 913d 56d3 16bf
000003b0: 79d8 d7bf 7b7b 8e3e 6abf f1bd 2a1a ca3c
000003c0: 4ea6 d23e a099 9f3d 03fd f4bd 602d 9bbc
000003d0: d784 29be 632d 7a3e bb7f ca3e 6eea 0b3e
000003e0: 0ac3 793e 98c5 7d3e e969 033f e299 fc3e
000003f0: 400d 973e c277 db3e fb51 483d dcbf d43d
-0.08825857 -0.11640762 0.29173607 0.14962088 -0.24596395 0.46180803 0.39287457 0.07524123
0.38049605 0.32583454 0.2628063 0.27491078 0.11973287 0.26076314 0.5062176 0.59685147
0.13986461 0.2865522 0.0021628612 -0.26734498 0.7131099 -0.0026118772 -0.66034967 0.37317926
0.30247918 0.30019313 0.11911393 0.41543177 0.086391486 0.40487623 0.17038897 0.033997174
0.49657887 -0.113210365 -0.29680827 -0.30554533 0.045818407 -0.0963095 -0.24029702 -0.33937833
0.22132404 -0.0011658879 0.08839223 -0.62655574 -1.7086422 0.28294203 -0.029351084 -0.012497492
0.19760804 0.09563382 -0.0050510843 0.11174738 -0.27945343 0.10419952 0.22911008 0.18066242
0.1461006 0.045244526 0.22756954 0.10046442 0.152844 0.39078134 -0.23505355 0.19006181
0.28583044 -0.11104394 0.21446815 0.042701304 0.65252924 0.4966782 0.31360137 0.2789693
0.18544525 0.29520634 0.21967827 0.4121539 0.14831299 0.3873401 0.27046776 0.0563607
0.5347708 -0.40094656 0.2751803 0.31007433 0.056079227 -0.50222397 -0.4536138 -0.099941276
0.25601047 -0.12705816 0.0028322975 -0.24647516 -0.8639823 -0.62829316 -0.33660194 0.05752281
0.06839337 -0.12817064 0.10879432 -0.5954456 -0.29060808 -0.17202248 -0.11260117 -0.09450601
0.09197546 -0.18732172 0.015762346 0.31561476 0.8076394 -0.27437076 0.35096747 0.36534414
0.30556604 -0.19651595 0.21580788 0.44151485 -0.008520931 0.747695 0.33039054 0.16859707
0.048491724 0.55925035 0.21072298 0.30908555 0.2308425 0.47663486 0.30865723 0.20607594
0.17283155 0.16238114 0.25311574 -0.046799917 -0.113447905 0.3934436 -0.32862166 -0.9289575
0.32236287 0.21166538 0.08164373 0.08593182 0.17171235 -0.04003469 -0.274102 0.4094987
-0.0494501 0.30390543 0.5788976 0.29708877 0.3138645 0.47908312 0.055014286 0.0994483
0.5177619 0.19462739 0.40737334 0.4333381 0.3198363 0.3282209 0.43437287 0.21898551
0.39010075 0.17238094 0.51502377 0.35239595 0.5377144 0.649899 0.5204548 0.24708214
0.23946889 -0.113948315 0.29735282 0.10439744 0.5054414 -0.08169132 -0.061862882 0.15879993
-0.11122434 0.70471287 -0.2501752 0.39259854 0.12471292 0.18100272 -0.22183083 0.4670819
-0.2661389 0.1386249 -0.13242407 -0.46227852 -1.5380303 0.20256478 0.093656145 0.095567584
0.029512813 -0.21877624 0.4179134 0.08020761 -0.23272188 0.5136424 0.47171003 0.2053871
0.41128176 0.24549848 0.2745106 0.2352035 0.30277613 0.30268002 0.51044494 0.6176787
0.1937124 0.08955741 0.1845096 -0.08039877 0.5740939 0.065039895 -0.5605385 0.40257102
0.112348355 0.35335574 0.10432797 0.4853726 0.1266788 0.21831526 0.20673317 -0.10116676
0.26437408 -0.0030058825 -0.28359443 -0.37389752 0.2358521 0.12132822 -0.33457717 -0.48633203
0.20830245 -0.14415316 0.07109452 -0.58916223 -1.6862937 0.27828583 -0.118040875 0.02467068
0.41142505 0.077929735 -0.11962321 -0.018942535 -0.1655458 0.24431376 0.39550576 0.13663647
0.24390808 0.24782407 0.5133348 0.49336153 0.29502296 0.42864805 0.048906308 0.10388157

bias f4 [64]
00000000: dfcb 223e 0ee2 4c3e 8855 2b3e 1f5e 6e3d
00000010: adb6 f43e ab5c 2b3e 8bc3 be3d 1306 613e
00000020: b368 4e3e 09e0 523e 1158 2f3d f9f5 db3d
00000030: 8538 143e b878 063e 05f4 6b3e 6fa3 e83d
00000040: 77fe 383e 6863 4b3e f807 0c3e f871 883e
00000050: ae9a ea3d e418 5c3e 99c3 e13d 0476 bf3d
00000060: 7ad1 023e b8ba 9f3d e0fe be3e 8c6d b13d
00000070: 3aeb 463e 986f 7f3e 3aef 173e 4479 eb3d
00000080: 75ef 353e d7c8 583e e4c3 b33e 8c6d 153e
00000090: 3bd4 693e 1ae3 323e 7143 453e ade2 3d3e
000000a0: 79cc 803e 2957 033e 2f5f 4d3e e1ca f03d
000000b0: 82cd 183e f809 803e b5ef 743e b170 263e
000000c0: 921d 093e 93db 9f3e fe2a 2c3e 3122 203e
000000d0: b2d2 8f3e fe1f d53d 2501 203e e03a 653e
000000e0: 271b e53e 2c80 e73d 2ef0 6b3e f68e b33d
000000f0: 7e47 d63d 83ff 163e 94d3 e13d 8d35 253e
0.15898083 0.20008108 0.16731846 0.05819523 0.4779562 0.16734569 0.093146406 0.21974973
0.20157127 0.20593275 0.042808596 0.10740275 0.14474685 0.13131988 0.23042305 0.113592975
0.1806582 0.19862139 0.13674915 0.2664945 0.11455284 0.2149387 0.110236354 0.093486816
0.12775221 0.07799286 0.3730383 0.086634725 0.1942567 0.24944913 0.14837351 0.11497739
0.17767127 0.21170364 0.3511039 0.1459257 0.22834866 0.17469445 0.19264008 0.18543501
0.25156 0.12826218 0.20055841 0.11757446 0.14922145 0.25007606 0.23919566 0.16253926
0.13390186 0.3122221 0.16813275 0.15638043 0.28090435 0.10406493 0.15625437 0.2238574
0.44747278 0.11303744 0.2304084 0.08767502 0.10462855 0.14745907 0.110266834 0.16133709

weight f4 [8, 64]
00000000: 6082 07bf dca2 2bbf e97e ce3e eb56 2fbe
00000010: dc8e 743f 95bc d8bc 5883 e7be 10fb bcbd
00000020: d99a d4be 6472 31bf 2e5e 02bf f5d7 97be
00000030: a238 efbe 7d7d 10bf 3aa7 10bf a538 0cbf
00000040: f14c 9cbb c45f c0be a775 a0be 3a59 1cbc
00000050: 98a0 89be c9a3 ddbe b0d4 22bf 3e9e 93be
00000060: 303f fcbe 5806 f8be 5b0d 553f fe39 d2be
00000070: 0a08 b6be a6ec 5b3f 0f0c d7be e278 a3bc
00000080: 862f 1cbf fbb2 4a3e 8885 06bf d575 81be
00000090: 2c49 9fbe 169f a8be 8930 0bbf 0e3c f6be
000000a0: 56fd 2abf 511b 86be 0878 403e 9507 cabe
000000b0: 3701 76be 81d9 22bf 5281 02bf 8ccc 2bbf
000000c0: 3a83 c6be 9300 1ebf 6caf 213f d166 1cbf
000000d0: 764b 003f d5c5 23bf 5f06 c43d 0dcd 20bf
000000e0: 2515 7e3f 7f2e 9fbe 6083 dcbe 4fb0 cfbe
000000f0: 34f1 b8be 5daf 85be 854d 17be 6f99 55bf
00000100: a3dd f5be ca64 d5be a4c4 383d 9485 2abf
00000110: d8e3 d63e 1037 17bd be13 c5bd 5014 0fbe
00000120: 62c1 41be d5d6 17bf e5ad 32bf 4992 243f
00000130: caaf 67bf 5a3c 3cbf a758 c63d ce6a e4be
00000140: a6ff cfbd fe38 a2be 5982 a3bd 7944 493e
00000150: 6dae 24bf 83c5 8bbe 7247 87be 90ea 8fbe
00000160: 1834 eabd bb59 2fbf 679c 4c3f f0f1 38bf
00000170: f699 33bf 0fc2 9c3e a21d 34bf 5a31 113f
00000180: 5b16 0fbf 23be ef3e cfa1 3d3d 68a6 51bf
00000190: c365 2ebf f080 aebe 09d2 71bf 93cf d8be
000001a0: 280f 16bf 172c f7be b2f3 e13e cdbf 46be
000001b0: 10b5 08bf 1f85 c5be e9c3 7ebe f043 bdbe
000001c0: 9ab1 3cbf 6573 b9bc e5db b5be d818 12bf
000001d0: 9b32 413f 8e81 15bf 3dd3 14bf 7be6 48bf
000001e0: 4a89 d33e 7bb9 47bf 50d2 40bf d570 2abf
000001f0: 9476 22bf 595f 08bf 5f8f d2be b040 67bf
00000200: 2869 09be 4e8a 6cbd aa2b 713f 6384 433d
00000210: acf7 a83f 0f12 adbc 6a84 12bf a45a 8fbe
00000220: 5afd 10bf cf96 64be 49b6 163e a515 82bf
00000230: f03d 07bf b6f9 f13a b32f bfbe 4e76 b2be
00000240: 9307 5dbf 4ca0 d1be 1507 febe f9a1 eebe
00000250: 36b1 53bf f4f2 d8be 4123 4bbf 3616 95bd
00000260: d25c 29bf 550c 64be d491 ac3e 6ac3 10be
00000270: 7aa4 73be 2bb5 0940 e411 2d3c 8e89 873f
00000280: 0a0a f4be 9aeb abbf ae48 a2bf 39da 2c3e
00000290: e136 28be 90a4 6bbf 014b c2be 93cb 04bf
000002a0: d65f 31bf e280 bcbe fa53 12bf 3fbc b9be
000002b0: 5bb7 293d 8a84 34bf d1c6 cebe 0299 1abf
000002c0: d337 45bf cbf5 91bf 0958 d33f 052e 6dbe
000002d0: 652a 01be e215 38bf 00a2 603d 3bf5 95be
000002e0: 9041 b13f 7206 b6be b411 acbe 90b7 763e
000002f0: afec 49bf 7a95 a9be d6e7 9ebf aa7a 21bf
00000300: 7b32 4cbf f952 cdbe 850d e03f 7ab0 82bf
00000310: c028 ce3f 7edc d03e a1bf 3cbf 04b0 5abf
00000320: 98f6 76bf 9a08 93be ef66 48bf d30d d7be
00000330: ec5f c5be 7ddc e9be de92 30bd 979a f3bc
00000340: eef9 7bbf ead1 8dbe b424 1abf 942b 4bbf
00000350: 8dab 35bf bbce b0bd b20a 8dbf c512 84bf
00000360: aea3 12bf 2c98 51bf 1d48 863f 9aeb fbbe
00000370: 0301 39bf 5d14 773e 1d9d 72bd e41f 3f3f
00000380: 871c 4bbe 7321 b93e 81f2 dcbe d3cd 06bf
00000390: d6ab 36be 736a 3ebf 91c2 01bd db70 22bd
000003a0: 23c2 97be 6a3e 40bf 0cd2 4cbf 6e6a 52bf
000003b0: 8975 54bf 1082 0d3e 23a6 da3c 04e1 c8be
000003c0: 0455 babe 5143 2dbf cc78 023f 1615 3b3e
000003d0: 365d 893f 26ec 47be d269 81bf e572 68bc
000003e0: 33e2 9c3f 1f9d 16bf 799e 08be 01c1 cbbc
000003f0: 642b 18be a058 45bf 9bbd 99bf 12a6 97bd
-0.5293331 -0.6704538 0.403312 -0.17123 0.95530486 -0.02645711 -0.45217395 -0.09227574
-0.4152439 -0.6931517 -0.50924957 -0.2965695 -0.46722895 -0.5644148 -0.5650517 -0.5477393
-0.0047699143 -0.37573063 -0.31339762 -0.009542758 -0.26880336 -0.4328902 -0.63605785 -0.28831667
-0.49266958 -0.4844234 0.83223504 -0.4105987 -0.35553008 0.8590797 -0.42001387 -0.019955102
-0.61010015 0.19794838 -0.525475 -0.2528521 -0.31110513 -0.32933873 -0.54370934 -0.48092693
-0.6679281 -0.26192716 0.18795788 -0.3945891 -0.24023901 -0.63613135 -0.5097858 -0.6710899
-0.38771993 -0.61719626 0.631583 -0.61094385 0.50115144 -0.6397374 0.09571528 -0.6281288
0.99251014 -0.3109016 -0.4306898 -0.405642 -0.36121523 -0.26110354 -0.14775665 -0.83437246
-0.48020658 -0.41678458 0.045109406 -0.66610074 0.41970706 -0.036917746 -0.09622906 -0.13972592
-0.18921426 -0.5931218 -0.6979659 0.64285713 -0.9050261 -0.7352959 0.09684878 -0.44612736
-0.10156183 -0.31684107 -0.07983846 0.19655026 -0.6432865 -0.27299127 -0.26421696 -0.28108644
-0.11435717 -0.6849629 0.7992615 -0.7224417 -0.701568 0.30616805 -0.70357716 0.5671593
-0.55893487 0.4682475 0.04629689 -0.8189454 -0.68124026 -0.34082747 -0.94461113 -0.42345867
-0.58616877 -0.48275825 0.44131237 -0.19409104 -0.5340128 -0.38578126 -0.24879421 -0.36965895
-0.737085 -0.022638032 -0.3551933 -0.5706916 0.7546784 -0.5840081 -0.58134824 -0.78476685
0.4131568 -0.78017396 -0.7532091 -0.6657842 -0.63462186 -0.5327049 -0.41125008 -0.9033308
-0.1341902 -0.057749085 0.9420725 0.047733676 1.3200583 -0.021126775 -0.572333 -0.2799884
-0.56636584 -0.22323154 0.14717974 -1.0162855 -0.52828884 0.001846126 -0.3734108 -0.34855884
-0.8633968 -0.4094261 -0.49614778 -0.4660795 -0.8269228 -0.4237286 -0.7935067 -0.07279627
-0.6615726 -0.2227033 0.33705008 -0.14137045 -0.23793212 2.1516826 0.0105633475 1.0588853
-0.4766391 -1.3431275 -1.267843 0.1688012 -0.16427185 -0.9204798 -0.37947848 -0.5187313
-0.6928686 -0.3681708 -0.5715939 -0.36276433 0.041434627 -0.7051474 -0.4038606 -0.6038972
-0.77038306 -1.1403135 1.6511241 -0.23162086 -0.12613828 -0.7190839 0.054841995 -0.29288658
1.3848133 -0.35551792 -0.33607256 0.24093461 -0.78876776 -0.33121854 -1.2414501 -0.63077796
-0.7976453 -0.40102366 1.7504126 -1.0210106 1.6106186 0.40793222 -0.737299 -0.8542483
-0.9647002 -0.287175 -0.78282064 -0.42002735 -0.38549745 -0.45676032 -0.043108813 -0.0297368
-0.9842824 -0.27699214 -0.60212255 -0.7936337 -0.7096489 -0.08633181 -1.1018889 -1.0318228
-0.57281005 -0.8187282 1.0490757 -0.49203187 -0.7226717 0.24128862 -0.059231866 0.74658036
-0.19835101 0.36158332 -0.43153766 -0.5265781 -0.17838988 -0.7438118 -0.031679694 -0.03965841
-0.29640302 -0.75095236 -0.80008006 -0.8219365 -0.82991844 0.13819146 0.026690548 -0.39234173
-0.36392987 -0.6768084 0.5096557 0.18269762 1.0731571 -0.19523677 -1.0110419 -0.014187549
1.225653 -0.588335 -0.13341703 -0.024872305 -0.14860302 -0.77088356 -1.2010988 -0.07404722

bias f4 [8]
00000000: 2ecc d4bd 588f 673e c03c 7ebe 94da 023d
00000010: d75d 3bbe 555a 69bc 8bdb 41be c804 32be
-0.10390507 0.22613275 -0.24827862 0.031946734 -0.18297516 -0.014242728 -0.18931405 -0.17384636
